app/src/main/assets/model/Hapt_neighbors.tflite (tflite, 483132 bytes, 10 tensors)

model_1/model/dense/BiasAdd/ReadVariableOp f4 [256]
0	0x3d027157	0.03184637
1	0xbc687a47	-0.014189309
2	0x3caf3cb0	0.021391243
3	0x3d9f9712	0.07792486
4	0xbdd26e0b	-0.10274895
5	0xbd0954b6	-0.033528052
6	0x3a9f6efe	0.0012163816
7	0x3c040ad8	0.008059226
8	0xbab27ffa	-0.0013618462
9	0x3bf433cd	0.007452464
10	0x3d8dff16	0.069334194
11	0x3d419764	0.047263518
12	0x3d990106	0.07470898
13	0xbd742005	-0.05960085
14	0xbd3f8b9b	-0.046763998
15	0xbd5d1e15	-0.053983767
16	0xbd80307e	-0.06259249
17	0xbcbdab4c	-0.02315297
18	0xbce66047	-0.02812208
19	0x3d8a4a6b	0.06752475
20	0x3d816d05	0.06319622
21	0xbdb1aa93	-0.086751126
22	0x3d45b9a9	0.048272762
23	0x3d569851	0.052391354
24	0x3ce3d6da	0.02781241
25	0xbd76905d	-0.06019627
26	0x3c007e7d	0.007842657
27	0x3c4ef6c6	0.012632078
28	0xbadb509e	-0.00167324
29	0x3d8f6737	0.070021085
30	0x3d79bf68	0.060973555
31	0x3b1ddd88	0.0024088342
32	0x3cb829d4	0.022480883
33	0x3c4d396a	0.012525896
34	0x3beff0a9	0.00732239
35	0xbd3c8a0d	-0.046030093
36	0xbd2d9dac	-0.042386696
37	0x3c93242a	0.01796158
38	0x3c9c4ad8	0.019078657
39	0xbda56ccb	-0.08077391
40	0x3cce9f93	0.025222575
41	0xbdf6d8a6	-0.12053041
42	0xbd77c15b	-0.060487133
43	0xbd1d8b9d	-0.038463224
44	0x3afb8571	0.0019189549
45	0x3d520286	0.051271938
46	0x3d050bc1	0.032481913
47	0xbd8246c5	-0.063611545
48	0xbc54428a	-0.012955317
49	0xbd2accca	-0.04169921
50	0xbcfa28d0	-0.030537039
51	0xbc54e15b	-0.012993182
52	0x3d9ce148	0.076601565
53	0x3c82dcd1	0.015974434
54	0x3d7239f8	0.059137315
55	0xbd37e0ef	-0.044892248
56	0xbc7b298b	-0.015329729
57	0xbc111d2a	-0.008857051
58	0x3ca08125	0.01959283
59	0x3ddb15cc	0.10697517
60	0x3d411c0c	0.04714589
61	0xbb0c6fa2	-0.0021428843
62	0xbc92ba74	-0.017911173
63	0xbca39f70	-0.019973487
64	0x3de81bec	0.11333451
65	0xbcec56d4	-0.028849997
66	0xbbba13c2	-0.005678625
67	0xbd26a7de	-0.040687434
68	0xbc40837f	-0.011750101
69	0x3b66947d	0.003518372
70	0x3cc65d18	0.024214312
71	0x3c823a3b	0.015896907
72	0x3de56d34	0.112024695
73	0xbc73be01	-0.014876843
74	0x3da83647	0.082134776
75	0x3a99b5f0	0.0011727195
76	0xbd98564c	-0.07438335
77	0xbd1de1d8	-0.03854546
78	0xbd6aa1ba	-0.05728314
79	0xbc75be20	-0.014998943
80	0xbd97e103	-0.074159645
81	0xbc0f9354	-0.008763153
82	0x3c0652e9	0.008198478
83	0xba76fc99	-0.0009421795
84	0x3ca414ed	0.02002951
85	0xbd6b6b8f	-0.057475623
86	0xbd23dfa8	-0.040008217
87	0xbcc65cc1	-0.02421415
88	0x3cf0391d	0.029324109
89	0xbd9d3002	-0.076751724
90	0xbd9f1ab2	-0.077687636
91	0xbd0805a8	-0.03320852
92	0x3d3a6386	0.04550507
93	0xbc944a91	-0.018101962
94	0x3d62f575	0.055409867
95	0xbb6792c9	-0.0035335294
96	0x3cdab614	0.02669815
97	0xbcc7345b	-0.024316957
98	0x3d83bfd6	0.06433074
99	0xbc286002	-0.010276796
100	0xbc15d7bd	-0.009145674
101	0xbd85a632	-0.0652584
102	0x3d2e56fe	0.04256343
103	0xbdcc3fe3	-0.09973123
104	0xbdba4a8d	-0.09096251
105	0x3d05ac44	0.03263499
106	0xbd90e92c	-0.07075724
107	0xbd49e51f	-0.049290773
108	0x3cd69502	0.0261941
109	0xbcda037b	-0.026612988
110	0xbc32893f	-0.01089698
111	0x3b883810	0.004157074
112	0xbcdcb07a	-0.02693962
113	0xbd0d175a	-0.034446098
114	0xbba2561f	-0.004954114
115	0x3d34838f	0.044070777
116	0xbcc3abb2	-0.023885582
117	0xbced625a	-0.028977562
118	0x3d325402	0.043537147
119	0x3d9bdf0f	0.076109044
120	0x3c5357b0	0.012899324
121	0x3cb5f752	0.022212658
122	0x3d16e579	0.036839936
123	0xbc8c3911	-0.017117055
124	0x3d889d85	0.066706695
125	0xbc29360f	-0.01032783
126	0x3d97776b	0.07395824
127	0x3d22177b	0.039573174
128	0x3d3c7566	0.046010397
129	0xbc84eff9	-0.01622771
130	0xbda6f862	-0.08152844
131	0xbd964052	-0.07336487
132	0x3c2afe7e	0.010436652
133	0x3d016631	0.031591598
134	0x3d436ddc	0.047712192
135	0x3d5b42da	0.05353055
136	0x3d35a94a	0.0443509
137	0xbd20e690	-0.03928238
138	0xbd952636	-0.07282679
139	0x3db8a96a	0.09016688
140	0xbd813235	-0.06308404
141	0xbda9b5d0	-0.08286631
142	0xbd972a48	-0.073811114
143	0x3e2467aa	0.1605517
144	0x3bac7e91	0.0052641113
145	0xbd2241e1	-0.03961361
146	0x3d50aeaa	0.050947823
147	0xbc5cff62	-0.013488622
148	0xbc5e7271	-0.01357709
149	0xbd99d0f8	-0.07510561
150	0xbcf77cfb	-0.030210963
151	0xbd3070a7	-0.043076184
152	0x3c35f600	0.011106014
153	0x3c68a5e2	0.014199706
154	0xbd4b75f3	-0.049673032
155	0xbd69404a	-0.056946076
156	0x3d8982e1	0.06714416
157	0x3bf1a2aa	0.0073741274
158	0xbcee0c66	-0.029058646
159	0xbd955364	-0.07291296
160	0xbc0d6205	-0.008629327
161	0x3d6e2675	0.058142144
162	0x3d08c2ed	0.03338902
163	0x3c98af0d	0.018638158
164	0xbce9be6c	-0.028533183
165	0xbd1fa5ba	-0.03897641
166	0x3d181094	0.037125185
167	0x3bdcb7dc	0.006735785
168	0x3d054750	0.032538712
169	0x3d9875b0	0.07444322
170	0xbcb56492	-0.022142682
171	0x3db08d57	0.086207084
172	0xbd078c90	-0.033093035
173	0x3cdb11fd	0.026741976
174	0x3d87607d	0.066102006
175	0x3c88bc42	0.01669133
176	0x3b4e54ee	0.0031483728
177	0xbba4cb4e	-0.0050291186
178	0x3d5ad1e5	0.053422827
179	0x3c031289	0.008000025
180	0xbcf32065	-0.029678533
181	0xbb7de253	-0.0038739636
182	0x3d01061a	0.03149996
183	0xbd8be56c	-0.06830868
184	0xbd02afb2	-0.031905837
185	0x3b967d9e	0.0045926115
186	0x3da7a81b	0.081863604
187	0xbd456b65	-0.048198123
188	0xbd6ded8d	-0.058087874
189	0x3b78613b	0.003789975
190	0x3c23bf2f	0.009994312
191	0x3a540606	0.0008088056
192	0xbcf9fa67	-0.030514909
193	0xbda6cd7b	-0.08144661
194	0x3cd67acd	0.026181603
195	0x3d8b7135	0.06808702
196	0x3c8b6cd5	0.017019669
197	0xbd1590ba	-0.036514975
198	0xbdd025fb	-0.10163494
199	0xbce27de9	-0.02764793
200	0xbc84d920	-0.016216815
201	0xbdd93da7	-0.106074624
202	0xbd6fcd8a	-0.058545627
203	0xbd97190b	-0.073778234
204	0xbd778f3b	-0.06043933
205	0x3c983b21	0.018582882
206	0xbd35fcbf	-0.04443049
207	0xbd1f09e0	-0.038827777
208	0x3a98ba5b	0.0011652218
209	0xbce09a0c	-0.027417205
210	0x3d612665	0.054968257
211	0xbd1a2859	-0.037636135
212	0xbdaf6b6c	-0.08565411
213	0x3cae4ccb	0.021276852
214	0xbd2a98e4	-0.041649714
215	0x3c82f9d0	0.01598826
216	0xbc8dcdc7	-0.017310036
217	0x3d38aacd	0.045084763
218	0x3cd62ae0	0.026143491
219	0x3d125a25	0.0357305
220	0x3d943044	0.072357684
221	0x3cb63408	0.022241607
222	0x3cb31c76	0.021864157
223	0xbde580a1	-0.11206175
224	0xbc8f4675	-0.017489651
225	0xbd82b7cd	-0.063827135
226	0x3ce21ae4	0.027600713
227	0xbcda58ea	-0.026653726
228	0xbd8ae588	-0.06782061
229	0xbd8f2df4	-0.06991187
230	0xbd7cedbd	-0.061750162
231	0x3db52eef	0.088468425
232	0xbd5b7d5b	-0.053586345
233	0xbc959fc9	-0.018264668
234	0xbd8042ea	-0.06262763
235	0xbdcd4296	-0.10022466
236	0x3d7124d0	0.058872998
237	0xbd2ac93d	-0.041695822
238	0xbda7777e	-0.08177088
239	0x3e199ba3	0.15000777
240	0xbb1cc4a9	-0.002392093
241	0xbd597df1	-0.053098623
242	0xbdbf46b3	-0.09339657
243	0xbd34a3fb	-0.044101696
244	0x3d231669	0.039816294
245	0xbcd03a8f	-0.025418548
246	0xbd63ea54	-0.055643395
247	0xbd426119	-0.04745588
248	0xbda1dd57	-0.07903545
249	0xbd05b784	-0.032645717
250	0x3d05b270	0.032640874
251	0xbc5a1af7	-0.013312093
252	0xbd6ee7a1	-0.058326367
253	0x3c13a078	0.009010427
254	0x3dfe31b5	0.124118246
255	0xbd759fce	-0.059966855

model_1/model/dense_2/BiasAdd/ReadVariableOp f4 [128]
0	0x3d83f1e0	0.06442618
1	0x3cb25b81	0.021772148
2	0x3c5a670a	0.0133302305
3	0x3d3fc341	0.046817068
4	0x3c55fcf7	0.0130608
5	0xbaea39f8	-0.0017870059
6	0x3ca0153f	0.01954138
7	0xbcad99b6	-0.02119146
8	0x3d1fca94	0.039011553
9	0x3ce05847	0.027385844
10	0x3da0e6bd	0.0785651
11	0x3c8478d0	0.01617089
12	0xbd4bd36b	-0.04976217
13	0xbcb3a0cb	-0.021927258
14	0x3b16ecb2	0.0023029265
15	0xbbabb8d3	-0.0052405386
16	0x3d11e407	0.035617854
17	0x3c3cb63c	0.011518057
18	0x3c75d71c	0.015004899
19	0x3cd36561	0.025805177
20	0x3d0a5008	0.03376773
21	0x3a51adea	0.00079986325
22	0xbcbc2e44	-0.02297128
23	0x3d1710b1	0.036881153
24	0x3ce4e802	0.027942661
25	0x3cbfa2f8	0.02339314
26	0x3d12f615	0.035879213
27	0x39154223	0.00014234385
28	0x3cfe2f02	0.031028274
29	0xbd08634d	-0.033297826
30	0x3c2b2a10	0.01044704
31	0x3ba83544	0.005133303
32	0x3c02e3a7	0.007988847
33	0x3c4b0922	0.012392314
34	0x3d11876b	0.035529535
35	0x3bdfee57	0.0068338322
36	0xb8949862	-7.0855735e-05
37	0xbcbf4fcf	-0.023353485
38	0xb9dde519	-0.00042323096
39	0xbbfb1982	-0.007662953
40	0x39dd7146	0.000422368
41	0x3cc765c9	0.024340527
42	0x3c6895f7	0.014195911
43	0x3c4293dd	0.011876074
44	0x3af99ae7	0.0019043357
45	0x3c919973	0.017773366
46	0xbabad904	-0.001425535
47	0x3bab2060	0.0052223653
48	0xbb3f0a85	-0.0029150557
49	0x3c264e1c	0.010150459
50	0xbaaba9fa	-0.0013096922
51	0xbc14d274	-0.009083379
52	0x3c04e445	0.008111064
53	0x3b8896d1	0.0041683693
54	0x3d1aa882	0.037758358
55	0x3d0088e1	0.031380538
56	0xbbd16d54	-0.0063912068
57	0x3c1797fe	0.009252546
58	0x3c0923f5	0.008370389
59	0xbc49d913	-0.012319821
60	0xbc547763	-0.012967917
61	0xbb27a694	-0.0025581466
62	0x3c7e7f05	0.0155332135
63	0xbbc7ddfe	-0.0060994616
64	0x3c878681	0.016543629
65	0x3c08f678	0.008359544
66	0x3d2c64d5	0.04208835
67	0x3ce4e5a4	0.027941532
68	0xbc1ef8f9	-0.009702914
69	0xbc855979	-0.016278015
70	0x3c8a149e	0.016855534
71	0x3c2738b3	0.010206389
72	0x3d0b757d	0.034047592
73	0x3cb29431	0.021799179
74	0x3d9d4571	0.076792605
75	0x3b0d8e2b	0.0021599631
76	0x3b74c78b	0.0037350382
77	0x3dd59d76	0.10430424
78	0x3d3856bd	0.045004595
79	0x3d33b01d	0.043869127
80	0xbdc55100	-0.0963459
81	0x3d18240f	0.037143763
82	0xbc5b3c87	-0.01338113
83	0x3ba5b2ec	0.0050567295
84	0x3b2e5531	0.002660107
85	0x3ab4a783	0.0013782833
86	0xbc1825cb	-0.009286354
87	0xbb58d1a2	-0.0033083935
88	0x3caadf16	0.020858329
89	0xbca8281c	-0.020526938
90	0x3d19936c	0.037494108
91	0x3c74c46e	0.014939411
92	0x3d030b74	0.031993344
93	0x3ca89e79	0.020583378
94	0xbca0c8ce	-0.019627001
95	0x3cfef9e3	0.031125015
96	0x3c28b4a8	0.010296978
97	0xbbb45b45	-0.0055040442
98	0x3cb0e043	0.021591311
99	0x38df9117	0.00010660494
100	0x3cd58954	0.02606646
101	0xbabb3390	-0.0014282335
102	0x3c5a9b4f	0.0133426925
103	0x3d36b2f7	0.044604268
104	0x3cd8f45d	0.026483709
105	0x3c058f25	0.008151804
106	0xbc202e80	-0.009776711
107	0xbadb7e81	-0.0016746075
108	0x3ce07acb	0.027402302
109	0x3ce481ce	0.027893927
110	0x3c6023dc	0.013680425
111	0x3cd4b9dc	0.02596753
112	0xbb7ec241	-0.0038873109
113	0x3c51d760	0.012807697
114	0x3d9b69e7	0.07588559
115	0x3c2f69fe	0.010706423
116	0x3d283e19	0.041074846
117	0xbc4589bc	-0.012056764
118	0x3d756dd3	0.05991919
119	0x3cb08b2b	0.021550735
120	0xbbdacc5d	-0.006677194
121	0xbaf440bc	-0.0018635015
122	0x3cc87d91	0.024473937
123	0x3c412f8e	0.011791123
124	0x3d8e5f1d	0.06951735
125	0x3c3e5084	0.011615876
126	0x3cd7e3dc	0.026353769
127	0xba708e40	-0.00091764703

model_1/model/dense_1/BiasAdd/ReadVariableOp f4 [256]
0	0x3bb3ba71	0.005484872
1	0x3cbbd150	0.022926956
2	0x3c9c2237	0.019059284
3	0xba9d29fb	-0.001199066
4	0xbc09bc0d	-0.008406651
5	0x3b2d4941	0.0026441368
6	0xbbee7fd2	-0.007278421
7	0xbca76186	-0.020432245
8	0x3cd60813	0.026126897
9	0xbbd24e48	-0.0064180233
10	0x3b7c45e6	0.003849381
11	0xbbcb453e	-0.0062033227
12	0xbcff6095	-0.031173984
13	0x3c52347b	0.012829895
14	0x3c341f07	0.010993726
15	0x3c6aadd7	0.014323673
16	0x3cbd4979	0.023106324
17	0x3c22a1f3	0.009926307
18	0xbcfcb8ba	-0.030849803
19	0xbbf44a50	-0.007455148
20	0x3b16a65f	0.0022987348
21	0x3c9d3c18	0.019193694
22	0xbba34759	-0.0049828705
23	0x3c054033	0.008132982
24	0xbcde77f5	-0.02715681
25	0x3caaccba	0.020849574
26	0x3d07ea1f	0.03318226
27	0xbd397fc5	-0.045287866
28	0xbbacba70	-0.0052712485
29	0xbc821faf	-0.015884249
30	0x3c8fb713	0.017543351
31	0x3c944827	0.018100811
32	0x3d0417ab	0.032249134
33	0x3b9af85e	0.0047293147
34	0x3d59eb83	0.053203117
35	0x3ba88527	0.005142826
36	0x3cb8c935	0.02255688
37	0x3bd04e78	0.0063570105
38	0xbcc10e11	-0.023566278
39	0x3c194858	0.009355627
40	0xbb291fc4	-0.0025806287
41	0xbca81e34	-0.020522214
42	0x3acb6a41	0.0015519337
43	0x3b8636fe	0.004095911
44	0xbb66a90a	-0.003519597
45	0x3bae9a33	0.0053284406
46	0xbcc4e640	-0.024035573
47	0x3aa9094e	0.001289645
48	0xbd1da218	-0.038484663
49	0x3c4d92d8	0.012547217
50	0xbca35bb7	-0.019941194
51	0x3c30c60f	0.010789408
52	0xbd8b72bc	-0.06808993
53	0xbc9ec5ca	-0.019381423
54	0x3c042745	0.008066003
55	0x3c8ff985	0.017575035
56	0xbd005a85	-0.031336326
57	0x3c1e9406	0.009678846
58	0x39aaacc4	0.00032553647
59	0x3bb6e63c	0.0055816453
60	0x3d04b680	0.032400608
61	0xbc56a74b	-0.013101409
62	0xbd1c2632	-0.038122363
63	0xba9fd928	-0.0012195455
64	0x3cac3d25	0.02102525
65	0xbb6f4ce3	-0.0036514334
66	0xbd221cd1	-0.039578263
67	0xbd1a0ab5	-0.037607867
68	0xbcd27f95	-0.025695601
69	0xbb9e89c4	-0.0048382003
70	0x3a0d01a6	0.0005378969
71	0xbc43f2d1	-0.011959747
72	0x3c906562	0.017626468
73	0xbd0728fb	-0.032998066
74	0x3c02d48a	0.007985244
75	0xbd37688f	-0.04477745
76	0x3c8ae5d6	0.016955297
77	0x3d0a6d1b	0.033795457
78	0x3c45c3dd	0.012070623
79	0x3c693162	0.014232965
80	0xbdafa0ef	-0.085756175
81	0xbcc4ba50	-0.024014622
82	0xbb092e30	-0.002093207
83	0x3bc9ab28	0.0061544366
84	0x3c41074d	0.011781526
85	0x3d0920c3	0.03347851
86	0xbbd68555	-0.006546656
87	0x3cb01741	0.021495463
88	0x3c0bc58a	0.008530984
89	0x3c88ae62	0.016684715
90	0xbcb63815	-0.022243539
91	0x3baeb19a	0.0053312303
92	0xbd2971ec	-0.04136841
93	0xbbb98c5e	-0.005662485
94	0xbcc182f6	-0.023622017
95	0x3c404c9d	0.011737016
96	0xbccce190	-0.0250099
97	0xbc402178	-0.01172673
98	0x3cf14fd9	0.02945702
99	0xbd7b5fca	-0.06137065
100	0x3cdd5534	0.027018167
101	0xbd582c99	-0.052776907
102	0x3c947acf	0.018124966
103	0xbd0dbd83	-0.03460456
104	0xbc48e081	-0.012260557
105	0xbca60723	-0.020267075
106	0x3ca3af6e	0.019981112
107	0xbcaed098	-0.0213397
108	0x3c0a3ecf	0.008437826
109	0x3c31faba	0.0108630005
110	0xbaeffc83	-0.0018309507
111	0x3af0ea2a	0.0018380333
112	0xbc33a299	-0.010964059
113	0x3d01d83a	0.03170035
114	0x3ccb55d3	0.024821198
115	0xbd4b0f94	-0.049575403
116	0xbbae33fb	-0.005316255
117	0x3cf95c7e	0.030439612
118	0xbc202a41	-0.009775699
119	0x3b7e2e83	0.0038785047
120	0x3d2cd6b0	0.04219693
121	0xbb5d2ef2	-0.0033749905
122	0x3d6aae1a	0.057294942
123	0x3c73c1c9	0.014877745
124	0x3bbd76ff	0.0057820077
125	0x3c04c206	0.008102899
126	0x3c46a500	0.0121243
127	0xbd92238c	-0.07135686
128	0xbca9669c	-0.02067881
129	0x3c733447	0.014844007
130	0x3c8e5ded	0.017378772
131	0xbc2caa4c	-0.010538649
132	0x3d0af22f	0.03392237
133	0x3c5eaa21	0.013590367
134	0xbcd66bf3	-0.026174521
135	0x3c3149d8	0.010820828
136	0xbbe21b7d	-0.0069002495
137	0xbb021588	-0.001984926
138	0x3d01d982	0.031701572
139	0x3b1562d7	0.002279451
140	0x39550820	0.0002031629
141	0xbc504cba	-0.012713606
142	0x3cc2b632	0.023768518
143	0x383e20ac	4.5329958e-05
144	0xbb1b2598	-0.002367353
145	0xbb21dd67	-0.0024698616
146	0x3c137c4e	0.0090018045
147	0xbcc18b4e	-0.023625996
148	0x3c438024	0.011932407
149	0x3cd9ef78	0.026603445
150	0xbcd8b4e5	-0.026453445
151	0x3b30111e	0.0026865671
152	0xbc8aa0b7	-0.016922338
153	0x3b8396c3	0.004015775
154	0x3d2d3cef	0.04229444
155	0x3ad4b4fa	0.0016228252
156	0x3b68baeb	0.0035511802
157	0x3ca6fdf7	0.020384772
158	0x3c6f933b	0.014622505
159	0xbc5408b9	-0.012941533
160	0x3c0b2fcc	0.008495282
161	0xbca032b5	-0.019555429
162	0xbc10aed5	-0.008830746
163	0xbd344e4f	-0.044019993
164	0xbbd965a8	-0.006634433
165	0x3cff79ac	0.031185947
166	0x3d034dcd	0.03205662
167	0x3ba1a201	0.0049326424
168	0x3b105302	0.0022022133
169	0x3d024a33	0.031809043
170	0xbabd1dfa	-0.0014428489
171	0x3c9fb475	0.019495228
172	0xbd2530c9	-0.04032973
173	0xbc9520cf	-0.01820412
174	0x3b671171	0.0035258199
175	0x3c714bc5	0.0147275375
176	0xbc9d9d20	-0.019239962
177	0x3ca42691	0.020037921
178	0xbc14d2e8	-0.009083487
179	0xbc8f39ff	-0.01748371
180	0x3bac0968	0.0052501447
181	0x3ae7c4c8	0.0017682547
182	0x3b9227d5	0.0044603148
183	0x3c4145f1	0.0117964605
184	0xbc1560fc	-0.009117361
185	0xbcb085b5	-0.021548131
186	0xbc3c34ba	-0.01148718
187	0x3ba19fc2	0.0049323747
188	0x3ca89d6d	0.020582879
189	0x39e011d3	0.0004273789
190	0x3c94194d	0.01807847
191	0xbc4bb5eb	-0.012433509
192	0x3bff75f3	0.007796043
193	0x3d13ea30	0.03611201
194	0x3d6a0679	0.05713508
195	0xbcc13dc4	-0.023589022
196	0xbb91ea73	-0.0044529974
197	0xbad92d0f	-0.0016569215
198	0x3bcbb5a1	0.00621672
199	0x3c25e62c	0.010125678
200	0x3cc7acee	0.024374451
201	0x3c7bb502	0.01536298
202	0x3b6273a0	0.003455378
203	0xbcae70bd	-0.021293992
204	0x3b05d870	0.0020423196
205	0xbd1914fe	-0.037373535
206	0xbd9c398f	-0.07628166
207	0x3bbc1c1e	0.0057406565
208	0x3b6fba87	0.0036579685
209	0xbb45a47c	-0.0030157855
210	0xbb9014ef	-0.0043970267
211	0x3d420a63	0.047373187
212	0x3cbfa77c	0.023395292
213	0x3cbb99af	0.02290043
214	0xbc8eca38	-0.01743041
215	0xbd114a60	-0.03547132
216	0x3ca7c969	0.020481782
217	0x3c07490c	0.008257162
218	0xbca02d3c	-0.01955282
219	0xb8d9b854	-0.000103817
220	0x3b14f227	0.0022727342
221	0x3c4a97a2	0.012365254
222	0x393497f2	0.00017222742
223	0xbbc75227	-0.0060827914
224	0x3c482c70	0.012217626
225	0xbc9943d1	-0.018709095
226	0x3cda9870	0.026684016
227	0xbca9e9c2	-0.020741347
228	0xbba1c1ff	-0.004936456
229	0x3c9be284	0.01902891
230	0x3bd3fe10	0.0064694956
231	0xbd221b68	-0.039576918
232	0x3c216c76	0.009852519
233	0xbb61f7ad	-0.0034479902
234	0xbc7686df	-0.015046804
235	0xbcb34d06	-0.021887314
236	0x3963b58e	0.00021716041
237	0x3d13c0d9	0.036072586
238	0xbcae5e9c	-0.021285348
239	0xbd3a9e00	-0.045560837
240	0xbd0e7282	-0.034777172
241	0x3c91bbde	0.017789777
242	0xbc4f04e5	-0.012635444
243	0xbb936c8e	-0.0044990247
244	0xbc3b1ec3	-0.011420908
245	0x3c09c99d	0.008409885
246	0x3a2b6167	0.00065376464
247	0x3cfd4863	0.030918306
248	0xbbfde934	-0.0077487472
249	0xbd1e21c1	-0.03860641
250	0xbcb52489	-0.022112148
251	0x3c9446ce	0.018100169
252	0xbc295ea3	-0.010337505
253	0xbb66393d	-0.0035129332
254	0x3c5ec2a3	0.01359621
255	0xbc1627fd	-0.009164807

model_1/model/base/BiasAdd/ReadVariableOp f4 [128]
0	0xbd0434e2	-0.032276995
1	0x3a31e65a	0.0006786339
2	0x3e79bac8	0.24387658
3	0x3d1de727	0.038550522
4	0x3d7bca82	0.061472423
5	0x3d702a2b	0.058633965
6	0x3cf6163a	0.030039895
7	0x3d87b50c	0.06626329
8	0x3dd5b057	0.10434025
9	0x3da2a237	0.07941096
10	0x3d74769f	0.05968344
11	0xbd0766bc	-0.03305696
12	0x3c52ef43	0.012874427
13	0x3d98059f	0.07422947
14	0x3d691d43	0.05691267
15	0x3d73fbb8	0.05956623
16	0x3c977238	0.018487081
17	0x3d043a2f	0.03228205
18	0xbc63f6e8	-0.0139138475
19	0x3ce8cf96	0.028419297
20	0xbb37ba0b	-0.0028034474
21	0x3d45609b	0.048187833
22	0x3d317336	0.043322764
23	0x3db9c445	0.090706386
24	0x3e178e78	0.14800441
25	0x3df3970d	0.11894045
26	0x3cc68f30	0.024238199
27	0x3d5b7e1f	0.053587075
28	0xbcc79baa	-0.024366219
29	0x3c9ac106	0.018890869
30	0x3d907b9f	0.07054829
31	0x3e185ba2	0.14878705
32	0x3d35613a	0.044282176
33	0xbcc734a4	-0.024317093
34	0xbba03260	-0.0048888177
35	0x3e25ac5b	0.1617903
36	0x3c451559	0.012029015
37	0x3ba8f74c	0.005156433
38	0x3d5e8e5b	0.05433498
39	0x3d902a96	0.070393726
40	0xbcfc1d95	-0.030775825
41	0x3c4777e0	0.0121745765
42	0x3e097bdb	0.13426153
43	0xbc5586c9	-0.013032624
44	0x3d1be35e	0.03805863
45	0x3d3d431f	0.04620659
46	0x3ca50663	0.020144647
47	0xbd060487	-0.03271916
48	0x3dde68b7	0.108598165
49	0x3ca0f3b3	0.019647455
50	0x3d14a386	0.03628876
51	0x3d8a8558	0.067637146
52	0x38c270d0	9.271654e-05
53	0xbc06bea9	-0.008224168
54	0x3d860b48	0.065451205
55	0x3d451a93	0.048121046
56	0x3d117fe6	0.035522364
57	0x3db77ac2	0.08958961
58	0x3d9074fa	0.070535615
59	0x3d1ab80c	0.037773177
60	0xbb5df5a6	-0.0033868342
61	0xbbf92906	-0.0076037673
62	0x3dbd8e54	0.092556626
63	0x3d8c3854	0.06846681
64	0x3cc9cbe1	0.02463335
65	0x3d6fc0db	0.05853353
66	0x3cdd1014	0.026985206
67	0x3cdfbe73	0.027312493
68	0xbd804b88	-0.062644064
69	0xbd0930ab	-0.03349368
70	0x3d5f4f73	0.054519128
71	0x3d036fc2	0.032089002
72	0x3daaf578	0.08347601
73	0x3d552c92	0.05204446
74	0x3d444a93	0.047922682
75	0xbcad8dde	-0.021185812
76	0x3b9f423d	0.004860191
77	0x3d9509b0	0.07277238
78	0x3d848eb9	0.06472535
79	0x3caded45	0.021231303
80	0x3c3fcdb3	0.011706757
81	0xbc052b42	-0.008127989
82	0x3d4f8ef2	0.050673433
83	0x3d8ea118	0.0696432
84	0x3d1b5f70	0.037932813
85	0x3a8cb4a1	0.0010734984
86	0xbc945868	-0.018108562
87	0xbc0b7f5e	-0.008514253
88	0x3d075879	0.03304336
89	0x3d767048	0.060165673
90	0x3d7e87ff	0.062141415
91	0xbc2897f4	-0.010290135
92	0x3dd895ab	0.10575422
93	0x3d16aa28	0.036783367
94	0x3d261828	0.04055038
95	0x3dcec184	0.10095504
96	0x3d5615b1	0.05226678
97	0x3d6f8715	0.058478434
98	0x3dde7320	0.10861802
99	0x3ceb01d8	0.028687403
100	0x3de03019	0.10946674
101	0x3de0b675	0.10972301
102	0x3be58d0d	0.00700534
103	0x3d8c4404	0.068489105
104	0xbc7d25d4	-0.015450913
105	0x3d4a1d88	0.04934457
106	0x3d66bfe1	0.056335334
107	0xbcf1dd53	-0.02952448
108	0x3cf00b57	0.029302282
109	0xbcfa8146	-0.03057922
110	0xbd189463	-0.037250888
111	0x3dd10a45	0.10207037
112	0x3d9d16a8	0.07670337
113	0x3d0cfd64	0.03442134
114	0x3d7a60f8	0.061127633
115	0xbc784f3f	-0.0151556125
116	0x3dee9275	0.11649028
117	0xbc20ca51	-0.009813861
118	0xbc99d866	-0.018779945
119	0x3e0567b9	0.13027848
120	0x3c0b7b43	0.008513275
121	0x3d4633fb	0.048389416
122	0x3d4e4c45	0.050365705
123	0x3d3bf0e3	0.045884024
124	0x3d5ed6a9	0.054403935
125	0xbd0c1b66	-0.034205817
126	0x3dae0fc7	0.08499103
127	0x3e00708f	0.12542938

model_1/dense_4/BiasAdd/ReadVariableOp f4 [6]
0	0xbf6b54cd	-0.9192627
1	0xbfbc592f	-1.4714717
2	0x3df74b79	0.12074942
3	0x3f3f9748	0.7484021
4	0x3f9fcba9	1.2484027
5	0x3f647ee9	0.8925615

model_1/model/dense/MatMul f4 [256, 15]
0	0xbe144c40	-0.14482212
1	0xba41e64a	-0.00073966815
2	0x3d849f9c	0.064757556
3	0xbe332f9a	-0.17498627
4	0x3dda3692	0.1065494
5	0x3d6401b8	0.0556657
6	0xbced8825	-0.028995583
7	0xbdb6832b	-0.08911737
8	0xbc45e1f3	-0.012077796
9	0x3e14fb1f	0.1454892
10	0xbdad915a	-0.08474989
11	0xbc4cefd7	-0.012508354
12	0xbe22b2e5	-0.15888555
13	0x3ab10479	0.0013505361
14	0x398763a0	0.00025823433
15	0x3ee210fe	0.4415359
16	0x3d6280ae	0.0552985
17	0xbdaf396e	-0.08555876
18	0xbe00769f	-0.1254525
19	0x3d907ec1	0.070554264
20	0xbd1567fe	-0.036476128
21	0x3daeae7b	0.08529373
22	0xbd296cfa	-0.041363694
23	0xbd03a1ce	-0.03213673
24	0xbdc74579	-0.09730048
25	0x3da36d0c	0.079797834
26	0xbd89ad30	-0.06722486
27	0x3cfd0717	0.03088717
28	0xbe355f5b	-0.17712156
29	0xbdb8e7d2	-0.09028591
30	0x3e36bf40	0.17846394
31	0xbcbf81c8	-0.023377314
32	0xbe486ebf	-0.19573496
33	0x3e4fb466	0.2028366
34	0x3e893da7	0.2680485
35	0x3d0c7a70	0.034296453
36	0x3d888aca	0.06667097
37	0x3e1ebce9	0.15501751
38	0xbdfc7790	-0.12327492
39	0xbdd69020	-0.104767084
40	0x3d1c94df	0.038227912
41	0x3c87bdf7	0.016570074
42	0xbc41870e	-0.011811985
43	0x3d59f133	0.05320854
44	0x3e2991c9	0.16559519
45	0x3ddd08f1	0.10792721
46	0x3e012d11	0.12614848
47	0x3e27d837	0.16391073
48	0x3dbde00b	0.092712484
49	0xbd6d6adc	-0.057963237
50	0x3d9a0e05	0.07522205
51	0x3d01c184	0.03167869
52	0x3c5d95f2	0.013524519
53	0x3e317f52	0.17333725
54	0xbc868ca1	-0.016424479
55	0x3d8d90c7	0.0691238
56	0x3d8bf685	0.06834129
57	0x3ddc10b7	0.107453756
58	0x3d3981ec	0.04528992
59	0x3e879d7f	0.26487347
60	0x3d7c2801	0.06156159
61	0x3ee03156	0.4378764
62	0xbdc02d54	-0.09383646
63	0x3e020cd4	0.12700206
64	0x3da65db7	0.081233434
65	0x3bcdbbb9	0.006278482
66	0xbd9d4dc8	-0.07680851
67	0xbd1b07c5	-0.037849206
68	0x3e1dd6b6	0.15413937
69	0xbe2ff749	-0.17184176
70	0xba066d6e	-0.00051280006
71	0x3cccf904	0.025021084
72	0x3dc755dd	0.09733174
73	0x3e2eef5a	0.17083493
74	0x3d8a0c23	0.06740596
75	0xbf780acd	-0.9689148
76	0x3ec91136	0.39270943
77	0xbcbd8323	-0.02313382
78	0x3dceb32b	0.10092767
79	0xbe0c9fe5	-0.1373287
80	0xbaee9624	-0.0018202704
81	0xbdcd804f	-0.100342385
82	0x3dade8a9	0.08491642
83	0x3d81cb8a	0.0633765
84	0xbdd65624	-0.10465649
85	0x3d9ddd23	0.07708194
86	0x3d0862e0	0.03329742
87	0xbd8b0aba	-0.06789155
88	0x3da76667	0.081738286
89	0x3ddad40d	0.10684977
90	0xbe993df8	-0.2993009
91	0xbe506617	-0.20351444
92	0x3e6c2314	0.23060256
93	0x3deea5a8	0.1165269
94	0xbd9ed4c2	-0.07755424
95	0xbe16d65f	-0.14730214
96	0x3e447df7	0.19188677
97	0x3d3d26d5	0.04617961
98	0xbd956f83	-0.0729666
99	0x3dfce129	0.123476334
100	0xbe24b8bb	-0.16086094
101	0xbdceb025	-0.10092191
102	0xbd9dd1e4	-0.07706049
103	0x3d84d3c8	0.064857066
104	0xba54942b	-0.0008109237
105	0xbe9b0c6f	-0.30282924
106	0xbf05ae5a	-0.52219164
107	0x3df5c4f3	0.12000456
108	0x3e5dc953	0.2165883
109	0xbd3c50af	-0.045975383
110	0x3de2f6dd	0.11082242
111	0xbe13766e	-0.14400646
112	0x3c1e440b	0.009659777
113	0xbd80747f	-0.0627222
114	0xbca6d938	-0.02036725
115	0x3d9af3c2	0.07566024
116	0xbd127511	-0.035756174
117	0x3da4f290	0.080540776
118	0xbc041871	-0.008062468
119	0x3d63ef94	0.0556484
120	0x3d0d68da	0.034523822
121	0x3ea8607a	0.32886106
122	0x3ea522b6	0.32253045
123	0xbd46cd38	-0.048535556
124	0xbddbcdc6	-0.107326075
125	0xbd430047	-0.047607686
126	0x3dd3bd81	0.103388794
127	0x3def9fe5	0.11700419
128	0x3dee411e	0.11633514
129	0xbcada4f6	-0.021196824
130	0xbda93222	-0.08261515
131	0xbe4fa4f4	-0.20277768
132	0x3d744833	0.059639167
133	0xbcd5a629	-0.026080208
134	0xbe05cd61	-0.13066627
135	0x3e2b3ce5	0.16722448
136	0xbdd60e31	-0.104519255
137	0x3d20be42	0.039243944
138	0x3d6e687d	0.058205117
139	0x3b6173ac	0.0034401221
140	0x3e8143ab	0.2524694
141	0xbe337697	-0.17525707
142	0x3dad515c	0.08462784
143	0x3e23fb3e	0.1601381
144	0x3e1ce57a	0.15321913
145	0xbd466662	-0.048437484
146	0x3d082564	0.033238783
147	0x3dcab3f6	0.09897606
148	0x3d95a838	0.07307476
149	0x3d770eba	0.06031678
150	0xbe8bf979	-0.2733877
151	0xbf02544f	-0.50909895
152	0x3ea8ea1d	0.32991114
153	0x3e0917ee	0.13388035
154	0x3d0131f0	0.031541765
155	0x3d46836e	0.048465185
156	0x3dd16722	0.10224749
157	0xbde5bd25	-0.11217717
158	0xbe0e6c24	-0.1390844
159	0xbda34f9b	-0.07974168
160	0xbc91a589	-0.017779129
161	0x3de2b071	0.1106881
162	0xbde41e2e	-0.11138569
163	0x3d9e5f0b	0.07732972
164	0x3d992642	0.07478
165	0x3e43561c	0.19075817
166	0xbd85d470	-0.0653466
167	0xbd8e60a1	-0.06952024
168	0x3db73760	0.08946109
169	0x3d264046	0.04058864
170	0x3e0721eb	0.13196532
171	0xbd890b35	-0.06691591
172	0x3d35dfd6	0.04440292
173	0x3da8e6ea	0.08247168
174	0x3cbf5ff3	0.023361182
175	0xbcadde56	-0.021224182
176	0x3d79bb4d	0.06096964
177	0xbcd40228	-0.025879934
178	0x3d43ba52	0.04778511
179	0x3e837aa4	0.25679505
180	0x3cbfe274	0.023423411
181	0x3edbbe0c	0.42918432
182	0xbe2bf9b2	-0.1679447
183	0x3cc236e4	0.023707815
184	0xbdbd9a6d	-0.0925797
185	0x3c22531c	0.00990751
186	0x3e29aa88	0.16568959
187	0xbe18f1e4	-0.14936024
188	0xbd44754b	-0.04796342
189	0xbd870283	-0.06592276
190	0x3cf2d850	0.029644161
191	0x3ba2f7ad	0.004973373
192	0xbe08a284	-0.13343245
193	0x3d19ca27	0.037546303
194	0xbe1999ce	-0.15000078
195	0xbd4e7501	-0.050404552
196	0x3d888d01	0.06667519
197	0xbe2961be	-0.16541192
198	0x3c6dcb84	0.014513854
199	0xbe0613a0	-0.13093424
200	0x3d65738b	0.056018393
201	0xbe187eba	-0.14892092
202	0xbe1e1a6e	-0.1543977
203	0x3e18a1a9	0.14905418
204	0xbe32f987	-0.17478
205	0xbafe7ad8	-0.0019415272
206	0x3de94018	0.11389178
207	0xbd1a9d78	-0.03774783
208	0xbe0874e3	-0.13325839
209	0xbdeaf542	-0.114725605
210	0x3dc43181	0.095797546
211	0x3e99887f	0.2998695
212	0x3e36402f	0.17797922
213	0x3d5b46f1	0.053534452
214	0xbd8d8ba8	-0.06911403
215	0xbc79abe8	-0.01523874
216	0x3e717529	0.2357985
217	0xbe1d54dc	-0.15364403
218	0xbdf2e187	-0.11859422
219	0x3d841fa2	0.06451346
220	0xbdea68b5	-0.114457525
221	0xbdd9813d	-0.10620353
222	0xbe305551	-0.17220046
223	0xbe2b6dbd	-0.1674108
224	0xbe2b15bc	-0.1670751
225	0x3e9e9a5c	0.30977142
226	0xbdb1e341	-0.08685923
227	0x3d331bf5	0.043727834
228	0xbc95b14a	-0.018273015
229	0xbdfe34ae	-0.124123916
230	0xbe19f21e	-0.15033767
231	0x3d6ea886	0.058266185
232	0xbcd49086	-0.02594782
233	0x3d5629d5	0.052285988
234	0xbd9e3348	-0.07724625
235	0x3e3b9e1a	0.1832203
236	0xbbfcd20e	-0.00771547
237	0xbcc3d6da	-0.02390616
238	0xbdc814f7	-0.09769624
239	0x3d698aef	0.057017263
240	0x3e08255a	0.13295498
241	0x3e8fe054	0.28100836
242	0x3e96efba	0.29479772
243	0x3c3bb88d	0.011457575
244	0xbe062cc9	-0.13103022
245	0x3e296c9a	0.16545334
246	0x3e456717	0.19277607
247	0xbcca6554	-0.02470652
248	0xbde77de2	-0.11303307
249	0xbd960905	-0.07325939
250	0xbe23673d	-0.15957351
251	0x3db91260	0.09036708
252	0x3d757197	0.05992278
253	0x3de0e185	0.109805144
254	0xbdae1999	-0.08500976
255	0xbf1f3beb	-0.622008

model_1/model/dense_1/MatMul f4 [256, 256]
0	0x3ea7d958	0.32783008
1	0xbd5f6bf9	-0.05454633
2	0xbd3e3235	-0.0464346
3	0x3bd45b1b	0.006480587
4	0xbd9633b7	-0.073340826
5	0x3e0ce1ab	0.1375796
6	0xbf265152	-0.64967835
7	0x3d2c0bc3	0.042003404
8	0xbdc2f529	-0.09519417
9	0x3d94ed0d	0.07271776
10	0xbd860fca	-0.0654598
11	0xbd080ee1	-0.033217315
12	0xbe015505	-0.12630089
13	0xbd885d24	-0.0665839
14	0xbe90fd9a	-0.28318483
15	0xbd625bb8	-0.05526325
16	0xbdd9d523	-0.10636356
17	0x3cdbeddb	0.026846817
18	0xbd63b696	-0.05559405
19	0xbcead310	-0.028665096
20	0xbdfe1fe3	-0.12408426
21	0xbc2ce275	-0.010552038
22	0xbe946975	-0.28986707
23	0xbca28a50	-0.019841343
24	0xbdc5f510	-0.096658826
25	0x3c2969ca	0.0103401635
26	0x3b712325	0.003679463
27	0xbd059800	-0.03261566
28	0xbcb36fc0	-0.021903872
29	0xbe1e6663	-0.15468745
30	0xbdba578e	-0.09098731
31	0xbd6f56ad	-0.05843227
32	0x3dfa7ec2	0.122312084
33	0xbdc19dee	-0.09453951
34	0xbd2e9f5f	-0.042632457
35	0xbd2d9703	-0.042380344
36	0x3e039350	0.12849164
37	0xbd3556f0	-0.044272363
38	0xbd51b46c	-0.051197454
39	0xbdcade0a	-0.09905632
40	0xbb403c16	-0.002933269
41	0xbd376e56	-0.04478296
42	0xbde21a30	-0.11040151
43	0xbd537dd7	-0.051633682
44	0xbe2efbd4	-0.17088252
45	0xbd8f90f3	-0.07010069
46	0xbdce4583	-0.10071852
47	0xbe1d956c	-0.15389031
48	0xbd8c1d45	-0.0684152
49	0xbbea6d01	-0.0071541076
50	0xbdcac416	-0.09900682
51	0xbd7dfa9d	-0.06200658
52	0xbcee3a70	-0.0290806
53	0xbd25b795	-0.04045828
54	0x3d422a70	0.047403753
55	0x3d1d9575	0.03847261
56	0xbd4c9dc2	-0.049955137
57	0x3df0061b	0.117199145
58	0xbe95949e	-0.29214948
59	0xbca65c67	-0.020307733
60	0x3d1438cd	0.036186982
61	0xbe6cb76f	-0.2311685
62	0xbb106904	-0.002203525
63	0x3e05d36c	0.13068932
64	0xbdf93d3e	-0.12169884
65	0x3ddfcd84	0.10927871
66	0x3db7b5dd	0.089702345
67	0x3d984f71	0.07437027
68	0xbe416a4c	-0.18888205
69	0xbc9c6ed6	-0.01909582
70	0xbc1a603d	-0.009422359
71	0x3da801bb	0.08203455
72	0x3d82d223	0.06387737
73	0xbdadc6c1	-0.08485175
74	0xbe43b5fa	-0.19112387
75	0xbc29877a	-0.010347242
76	0x3af84d22	0.0018943886
77	0x3cde5335	0.027139286
78	0xbe52e1e8	-0.20593989
79	0xbe5be080	-0.21472359
80	0xbce89e07	-0.028395666
81	0xbaa207fe	-0.0012362001
82	0xbd81916a	-0.06326564
83	0xbcd0df4c	-0.025497101
84	0x3c8cd6c5	0.017192254
85	0x3d8c03df	0.06836676
86	0xbe25dba1	-0.16197063
87	0xbdee95ad	-0.11649642
88	0xbdf77050	-0.12081969
89	0xbc2537e5	-0.010084127
90	0xbe0be40a	-0.13661209
91	0xbd83d4b2	-0.06437053
92	0xbcbdeef7	-0.023185236
93	0xbe00cda3	-0.12578444
94	0x3c0bd748	0.008535214
95	0x3d85c5b1	0.06531847
96	0x3b46426c	0.0030251993
97	0x3d0e2a66	0.034708403
98	0x3e729234	0.23688585
99	0xbe8295d0	-0.25504923
100	0x3e00b9f7	0.1257094
101	0x3d545e54	0.05184777
102	0xbd3b9a13	-0.045801234
103	0x3cf4e6fc	0.029895298
104	0x3d6dbee6	0.058043383
105	0xbd974def	-0.073879115
106	0xbd854362	-0.06506993
107	0xbcba2046	-0.022720467
108	0xbd522779	-0.051307175
109	0xbcfbaa2c	-0.030720793
110	0x3d852b55	0.065024056
111	0xba8e893d	-0.001087464
112	0x3d0f0931	0.034920875
113	0xbde670f8	-0.11252016
114	0xbe7ac935	-0.24490817
115	0x3db97d20	0.09057069
116	0xbe5b1f0e	-0.21398565
117	0x3c69e168	0.014274932
118	0xbe1e4587	-0.1545621
119	0xbdd0b82a	-0.101913765
120	0x3dd207ac	0.102553695
121	0xbba573b5	-0.0050491937
122	0x3a221061	0.000618225
123	0xbe04ebb0	-0.12980533
124	0xbe16ec78	-0.14738643
125	0x3d46df7d	0.04855298
126	0x3e443f64	0.19164807
127	0xbe175004	-0.14776617
128	0xbd86e4d0	-0.06586611
129	0x3e091d31	0.13390042
130	0x3d21f353	0.039538693
131	0x3cac39d9	0.021023678
132	0xbdc57833	-0.09642067
133	0x3b921bbc	0.0044588726
134	0x3bea6620	0.0071532875
135	0xbceae849	-0.028675215
136	0x3dd42dd6	0.10360305
137	0x3d8a30fb	0.067476235
138	0xbd0574ec	-0.03258221
139	0xbdc8f50e	-0.098123655
140	0x3cf07790	0.029353887
141	0x3df14f76	0.11782734
142	0xbd685784	-0.056724086
143	0xbd8f0e3a	-0.069851354
144	0xbcf3eba1	-0.029775443
145	0xbc8599ea	-0.016308744
146	0xbdc632e3	-0.096776746
147	0xbdfcbd1f	-0.123407595
148	0x3d821893	0.063523434
149	0xbd2db614	-0.04240997
150	0x3d98e03e	0.07464646
151	0xbdca4af1	-0.09877575
152	0x3dbbecdd	0.091760375
153	0xbdbdd555	-0.092692055
154	0xbd044c50	-0.03229934
155	0xbe06fb77	-0.13181864
156	0x3cc66e70	0.024222583
157	0xbdf97f43	-0.12182476
158	0xbdd5ee1c	-0.104458064
159	0x3d1d34b4	0.03838034
160	0x3d9389d2	0.072040215
161	0xbe60246b	-0.21888892
162	0xbe0dc0e6	-0.13843116
163	0x382f7e1c	4.18407e-05
164	0xbdf87cc1	-0.1213317
165	0xbba09f98	-0.0049018376
166	0xbdeaf7ab	-0.1147302
167	0xbc3a5ec7	-0.011375136
168	0xbe2bf537	-0.16792761
169	0xbdc304fb	-0.09522434
170	0xbe4a5e7e	-0.19762608
171	0x3dc045b8	0.09388298
172	0xbd7e36d8	-0.06206402
173	0xbcaedb78	-0.021344885
174	0x3c9407bb	0.018070092
175	0xbda0f677	-0.078595094
176	0x3e42d4d2	0.19026497
177	0x3c4d29d4	0.01252218
178	0x3de1cc80	0.110253334
179	0x3d3182db	0.043337684
180	0xbe853d9e	-0.26023573
181	0x3db614ba	0.08890672
182	0xbecd853a	-0.40140706
183	0x3bc336bc	0.0059574526
184	0xbdb0c773	-0.08631792
185	0xbf0e9b68	-0.5570588
186	0x3e1366d8	0.143947
187	0xbcbd88ce	-0.023136523
188	0x3d679908	0.056542426
189	0xbddc6561	-0.10761524
190	0xbe38015e	-0.17969272
191	0xbd00ab25	-0.031413216
192	0xbc89e99a	-0.016835023
193	0x3d73abd2	0.059490032
194	0xbe0e382f	-0.1388862
195	0xbc8326f4	-0.016009785
196	0xbbe2a17e	-0.006916224
197	0x3be1ab4e	0.006886876
198	0x3d001fcb	0.03128032
199	0x37c16dfa	2.3058605e-05
200	0xbce00419	-0.027345704
201	0xbd256680	-0.040380955
202	0xbd89841e	-0.067146525
203	0xbad40773	-0.0016176536
204	0x3bda1840	0.006655723
205	0xbdc5cdae	-0.09658371
206	0xbd997adc	-0.07494137
207	0x3d224101	0.039612774
208	0x3e08eeb3	0.13372307
209	0xbd89a773	-0.067213915
210	0x3d883b7a	0.06651969
211	0x3dbc25c3	0.0918689
212	0xbe0de7aa	-0.13857904
213	0x3d5de99d	0.05417787
214	0xbbd3e432	-0.006466412
215	0xbeaf95f4	-0.34294093
216	0xbe34c28a	-0.17652336
217	0xbcd7e2dc	-0.026353292
218	0xbd9e9370	-0.07742965
219	0xbd165c62	-0.036709197
220	0xbd158183	-0.036500465
221	0xbd5f9a71	-0.054590646
222	0x3d287789	0.041129623
223	0x3c6b4129	0.014358797
224	0xbe1afb68	-0.15134966
225	0x3d047a0b	0.03234295
226	0xbdbd853a	-0.092539266
227	0x3da9a541	0.08283473
228	0xbcb6b88f	-0.022304801
229	0x3cbc68a4	0.022999115
230	0xbe2cf1fe	-0.16889188
231	0xbe33c332	-0.1755493
232	0x3dcc5840	0.0997777
233	0xbd0aa4aa	-0.033848442
234	0x3df87b07	0.121328406
235	0x3de7aecb	0.11312636
236	0x3d01defb	0.03170679
237	0xbcf99797	-0.030467791
238	0x3db8edac	0.09029707
239	0x3d952d35	0.07284013
240	0xbd8b19c2	-0.06792022
241	0x3d5cdef9	0.05392358
242	0xbcc9a4cb	-0.024614712
243	0xbdc1feaa	-0.094724014
244	0xbdd0553e	-0.10172509
245	0x3e083ffb	0.13305657
246	0xbd89e1b5	-0.06732503
247	0x3c7c4bf2	0.015398966
248	0xbdb8fc15	-0.09032456
249	0xbdc93d7a	-0.09826179
250	0xbd854d66	-0.06508903
251	0xbe2368ff	-0.15958022
252	0xbd9d3c21	-0.07677484
253	0xbd124d33	-0.035718154
254	0x3e2a73e4	0.16645771
255	0x3d24d99e	0.0402466

model_1/model/dense_2/MatMul f4 [128, 256]
0	0xbe7753c7	-0.24153052
1	0x3eb6bac5	0.3568937
2	0x3e5f37fb	0.21798699
3	0x3e735cc8	0.23765862
4	0x3e2123ac	0.15736264
5	0xbd22435c	-0.03961502
6	0x3e5b987e	0.2144489
7	0x3ca34ec1	0.019935014
8	0x3dd03db9	0.10168023
9	0x3e7d74f4	0.24751645
10	0xbdbd37aa	-0.09239133
11	0xbca3777c	-0.019954436
12	0x3dc6a954	0.097002655
13	0xbd7041aa	-0.058656372
14	0x3d21c07a	0.0394902
15	0x3d914160	0.070925474
16	0xbdb5bc87	-0.08873849
17	0xbcfab650	-0.030604511
18	0xbafd1d4e	-0.0019311102
19	0xbde06487	-0.10956674
20	0xbd9f411a	-0.07776089
21	0x3ec93fae	0.39306396
22	0x3d728fe9	0.059219275
23	0x3e7aed0f	0.24504493
24	0xbd8bf828	-0.068344414
25	0xbe42d564	-0.19026715
26	0x3e3bfbe2	0.18357804
27	0xbd232204	-0.03982736
28	0xbe2d689a	-0.16934434
29	0xbe8ac687	-0.2710459
30	0x3d6a4519	0.057194803
31	0xbdac63bd	-0.08417461
32	0x3e6ac122	0.22925237
33	0xbe901bbf	-0.2814617
34	0xbd6d092f	-0.057870086
35	0x3e665bb9	0.22495927
36	0x3e0368a8	0.12832892
37	0x3e83ea74	0.2576481
38	0xbdef5213	-0.11685576
39	0x3e0f4b08	0.13993466
40	0x3ca27297	0.019830031
41	0x3e70d9a8	0.2352053
42	0x3e0b7762	0.1361976
43	0xbc060f41	-0.008182348
44	0xbd52df6b	-0.0514826
45	0xbdc7e5ef	-0.09760653
46	0xbbf63073	-0.0075131
47	0xbd846d9d	-0.064662196
48	0x3e0fca53	0.14042024
49	0xbd737a71	-0.05944294
50	0xbdc58f39	-0.09646458
51	0x3e1953b1	0.14973332
52	0x3a8a181f	0.0010535753
53	0xbd8b7439	-0.06809277
54	0x3e2befbf	0.16790675
55	0x3a993352	0.0011688268
56	0xbe16ad5e	-0.14714572
57	0x3e251be6	0.16123924
58	0xbea3c347	-0.31984922
59	0xbe4cca14	-0.19998962
60	0x3e5b0d02	0.21391681
61	0x3e22dae0	0.15903807
62	0x3bbb0f1b	0.005708588
63	0x3b084a09	0.0020796082
64	0xbe5454f7	-0.20735537
65	0x3e992cd9	0.2991703
66	0x3df34385	0.11878113
67	0x3e898e1e	0.2686624
68	0xbdced1a6	-0.10098581
69	0xbddf075b	-0.10890075
70	0xbdc76422	-0.09735896
71	0xbe81c85d	-0.25348178
72	0x3e7eb242	0.24872687
73	0xbc7b1095	-0.015323778
74	0x3c9fc704	0.019504078
75	0x3d9234be	0.07138966
76	0xbd9b4f86	-0.07583527
77	0x3dc2bc8d	0.095086195
78	0x3d3615eb	0.044454496
79	0x3db425fe	0.08796309
80	0x3c565bb3	0.013083386
81	0x3e6cd309	0.23127379
82	0xbd3f447c	-0.04669617
83	0x3e0aece1	0.13566925
84	0xbe5072d4	-0.20356303
85	0x3e1ec0fd	0.15503307
86	0xbd38487f	-0.044991013
87	0x3be0c34b	0.0068592182
88	0x3e5ab1a1	0.21356823
89	0x3e5dd9d6	0.21665129
90	0x3e6a5818	0.22885168
91	0xbb13eed6	-0.0022572777
92	0x3dc0e9d2	0.09419598
93	0xbee0d809	-0.43914822
94	0x3e35cd74	0.17754155
95	0x3d8a1643	0.06742527
96	0xbe281b6c	-0.1641671
97	0xbe0b73b2	-0.13618353
98	0x3ed44fb5	0.41467062
99	0xbd00304d	-0.031296063
100	0x3ed2f677	0.41203663
101	0x3d35a1fb	0.04434393
102	0xbdb2e6d4	-0.08735433
103	0x3d702b1d	0.058634866
104	0xbc7318dd	-0.014837471
105	0xbdc37907	-0.095445685
106	0xbdbc7fc0	-0.09204054
107	0x3e3d242f	0.18470834
108	0x3d822519	0.06354732
109	0x3dd4d559	0.10392255
110	0x3d9b20a2	0.075745836
111	0x3e2136d1	0.15743567
112	0x3dbb7b24	0.091543466
113	0xbde1a68a	-0.11018093
114	0x3dec206a	0.1152962
115	0xbc40e72d	-0.011773867
116	0x3dbdb7e5	0.09263591
117	0xbd87d474	-0.06632319
118	0xbb7d62e8	-0.003866369
119	0x3ead3f70	0.3383746
120	0x3e96b20d	0.29432717
121	0x3ddc318d	0.107516386
122	0x3ea67c8c	0.32516897
123	0x3ebb8b25	0.36629596
124	0xbe2dd38a	-0.16975227
125	0x3e4372c7	0.19086753
126	0x3e28f796	0.16500697
127	0x3eb8aeea	0.3607095
128	0xbda9dd01	-0.08294106
129	0x3d9db75d	0.077009894
130	0xbca840e7	-0.02053876
131	0xbc50afcc	-0.012737226
132	0x3eb19c81	0.34689716
133	0x3e260915	0.16214402
134	0x3c8bfd73	0.017088627
135	0x3d0b90ec	0.034073755
136	0xbd99bd4d	-0.075068094
137	0xbdabdb2c	-0.08391413
138	0x3cfaf02d	0.030632103
139	0xbe23a5bc	-0.15981191
140	0xbc2b735f	-0.010464518
141	0xbceb0f30	-0.028693765
142	0x3eb2de9b	0.3493546
143	0x3d38186f	0.044945177
144	0xbd971ec0	-0.07378912
145	0xbd762121	-0.060090188
146	0xbc99f4f1	-0.018793555
147	0xbe6415c3	-0.22273926
148	0x3e29ec06	0.16593942
149	0x3e64fda6	0.22362384
150	0xbd8668d4	-0.06562963
151	0xbe680d2b	-0.22661273
152	0x3d40ccfa	0.04707048
153	0xbe387f9c	-0.18017429
154	0x3e358a0e	0.17728445
155	0xbd86e961	-0.06587482
156	0x3deb2c1e	0.11483024
157	0x3e647d18	0.22313344
158	0x3e27c10b	0.16382234
159	0x3e5125d4	0.20424587
160	0x3c5d7c33	0.013518381
161	0x3e40e0f3	0.18835811
162	0xbd401aa4	-0.046900406
163	0x3dba21d6	0.09088485
164	0xbd74ad61	-0.05973566
165	0xbe05b953	-0.13058977
166	0x3d90b6fc	0.070661515
167	0xbec5f453	-0.38662967
168	0x3cd79826	0.026317667
169	0x3e0b99cf	0.13632892
170	0x3d356b17	0.044291582
171	0x3d6876b0	0.056753814
172	0x3cbdbec8	0.02316226
173	0x3dc3299b	0.0952942
174	0x3e572bfa	0.2101287
175	0x3d18e767	0.037330057
176	0x3dab73ab	0.08371671
177	0xbce5b8d5	-0.028042236
178	0xbe65fa66	-0.224588
179	0xbd80b500	-0.06284523
180	0xbd920014	-0.07128921
181	0xbde93399	-0.113867946
182	0x3d08aae5	0.033366103
183	0x3efee1f9	0.49781778
184	0x3e118146	0.1420947
185	0x3d1479eb	0.036249083
186	0x3ca388af	0.019962637
187	0x3e516a59	0.20450725
188	0x3cb170af	0.021660177
189	0x3c8c37b2	0.017116401
190	0xbe4de179	-0.20105542
191	0x3d65f4b6	0.056141578
192	0x3db672ce	0.08908616
193	0xbc27cd2c	-0.010241788
194	0x3e8084e4	0.25101388
195	0xbce181ae	-0.027527656
196	0xbe118aa7	-0.14213048
197	0x3dac3eb2	0.08410396
198	0xbe60f90e	-0.21970007
199	0x3e2bfe59	0.16796245
200	0xbd62ddb3	-0.05538721
201	0xbe0f3f38	-0.1398896
202	0xbd3c147b	-0.04591797
203	0x3e201e1d	0.15636487
204	0x3da17c81	0.07885075
205	0xbd9b0726	-0.07569723
206	0x3e2678c2	0.16257003
207	0x3e1fd3bd	0.15608115
208	0xbd81bd11	-0.0633489
209	0xbe7d9251	-0.24762847
210	0x3d1436aa	0.036184944
211	0x3eb1ddb0	0.34739447
212	0x3dcb181a	0.099167064
213	0xbd364cf9	-0.044507
214	0xbdf071c9	-0.11740453
215	0xbd119c2a	-0.03554932
216	0xbccaf277	-0.02477382
217	0xbe1ef39a	-0.15522614
218	0xbe06b247	-0.13153945
219	0xbdb4cd73	-0.08828249
220	0x3e5e10ba	0.21686068
221	0xbdef0765	-0.11671332
222	0x3e548ea2	0.20757535
223	0x3d40a517	0.047032442
224	0xbd81a63c	-0.06330535
225	0x3eaa84b6	0.33304375
226	0x3cca4926	0.024693083
227	0x3d759783	0.059958946
228	0x3d94f5d2	0.07273449
229	0x3dc90a45	0.09816412
230	0x3dbf0db8	0.093287885
231	0x3eb28892	0.3486982
232	0xbdbdd942	-0.09269954
233	0x3e073a33	0.13205795
234	0xbc101e78	-0.008796327
235	0xbd82058e	-0.06348716
236	0x3ce1fa4e	0.027585175
237	0x3e11e1c3	0.14246278
238	0xbe0870e0	-0.13324308
239	0x3c338ec3	0.01095933
240	0x3d9ddd6a	0.07708247
241	0xbe187e41	-0.14891912
242	0xbdab18f8	-0.08354372
243	0xbe18359b	-0.14864199
244	0x3e8901fe	0.26759332
245	0x3e29a398	0.16566312
246	0xbe18b6a3	-0.1491342
247	0xbd7875f1	-0.060659353
248	0x3dff2da1	0.12459875
249	0x3e35e2f0	0.17762351
250	0x3e0e6ffa	0.13909903
251	0x3d3d9c58	0.04629168
252	0x3d2e3c0e	0.04253774
253	0xbdce4835	-0.10072366
254	0xbd166608	-0.0367184
255	0x3d58c73b	0.052924376

model_1/model/base/MatMul f4 [128, 128]
0	0xbd71162d	-0.05885904
1	0x3cc2fa37	0.023800952
2	0xbe09fc9c	-0.13475269
3	0x3d88ecd9	0.066858
4	0xbdebe62e	-0.11518513
5	0x3e00e802	0.12588504
6	0x3e0f70b0	0.1400783
7	0xbdbcc47b	-0.09217163
8	0x3d9a2e7d	0.07528398
9	0xbd85e250	-0.06537306
10	0x3dcafe8e	0.09911834
11	0xbd78f505	-0.060780544
12	0xbe057cb8	-0.13035858
13	0xbdbeadaf	-0.09310471
14	0xbdd7b5b1	-0.10532702
15	0x3d6a357e	0.05717992
16	0x3db0f05c	0.08639595
17	0xbda7a88a	-0.08186443
18	0x3e13bf85	0.14428528
19	0x3d986e76	0.07442944
20	0x3c093d9b	0.008376504
21	0x3c480075	0.01220714
22	0x3df6c8f1	0.12050045
23	0x3d876541	0.066111095
24	0xbde31f6b	-0.11089977
25	0xbe140d6b	-0.14458244
26	0x3d40252b	0.046910446
27	0xbe25938c	-0.16169566
28	0xbdb6f312	-0.08933081
29	0xbdafdd5f	-0.08587145
30	0xba70668e	-0.0009170555
31	0x3c587269	0.013210871
32	0xbe271a5a	-0.16318646
33	0xbd37fe10	-0.044920027
34	0xbcf27692	-0.029597554
35	0xbd8ec654	-0.06971422
36	0xbe0040ca	-0.12524715
37	0xbe311475	-0.1729296
38	0xbdbd57e0	-0.092452765
39	0xbdcbcdf4	-0.09951392
40	0xbdafe70c	-0.085889906
41	0x3d92c45a	0.07166357
42	0x3c7dfae1	0.015501709
43	0xbcb36560	-0.021898925
44	0xbc42b90b	-0.011884938
45	0xbc0705ba	-0.008241111
46	0xbd963eb0	-0.073361754
47	0xbcf6c828	-0.030124739
48	0xbd6e379b	-0.0581585
49	0xbd700865	-0.058601756
50	0x3c46e51c	0.012139585
51	0x3d0cbfa0	0.034362435
52	0x3d791428	0.060810238
53	0x3dcd7996	0.10032956
54	0x3cf4ac70	0.02986738
55	0x3b570857	0.0032811367
56	0xbb8d1159	-0.0043050465
57	0x3d959073	0.07302942
58	0xbce285ef	-0.027651755
59	0x3d78719d	0.060655225
60	0x3ddafeda	0.1069314
61	0x3d2a67cb	0.04160289
62	0xbde9cbfe	-0.114158615
63	0xbe054f91	-0.13018633
64	0xbb9df0d8	-0.0048199706
65	0xbd26d202	-0.040727623
66	0xbcba5124	-0.022743769
67	0xbe118e3c	-0.14214414
68	0xbdc5c069	-0.0965584
69	0x3db1f888	0.08689982
70	0xbe232299	-0.15931167
71	0xbde0b97d	-0.10972879
72	0xbbb18d02	-0.005418421
73	0xbe01c29b	-0.12671892
74	0xbe0a6f7d	-0.13519092
75	0xbd6f8429	-0.058475647
76	0x3dc7e894	0.09761158
77	0xbe1fb551	-0.1559651
78	0x3d21c762	0.039496787
79	0xbde561aa	-0.112002686
80	0xbd649aa7	-0.05581155
81	0x3d002127	0.031281617
82	0xbda25fd3	-0.07928433
83	0x3d4be2e1	0.049776915
84	0xbca850ab	-0.020546278
85	0xbdcbbeab	-0.099484764
86	0xbd0fade9	-0.035077963
87	0x3c60b08d	0.013713968
88	0x3dce18db	0.100633346
89	0x3da7c697	0.08192175
90	0x3d79b1e8	0.06096068
91	0x3d8b14bd	0.06791065
92	0xbe13ff98	-0.1445297
93	0xbdd845f9	-0.10560221
94	0xbd7fd08c	-0.062454745
95	0xbdb4fed6	-0.088376686
96	0xba3f06a6	-0.00072870625
97	0x3d2755cb	0.040853303
98	0x3d5d91f1	0.05409426
99	0x3d3d1ead	0.046171833
100	0xbd0e22e5	-0.034701247
101	0xbdd794ed	-0.10526452
102	0x3d9aa5b8	0.075511396
103	0xbca1f595	-0.019770423
104	0x3d6f7610	0.058462203
105	0x3d90f42c	0.07077822
106	0xbddca342	-0.107733265
107	0xbe30a180	-0.17249107
108	0xbb98ed3d	-0.004666953
109	0x3c5e10f5	0.013553848
110	0xbe039d81	-0.12853052
111	0x3de78fa9	0.11306698
112	0x3d7764c2	0.060398825
113	0x3cfdfda3	0.031004732
114	0xbe28692f	-0.16446374
115	0xbe2051c7	-0.15656196
116	0x3d9be16b	0.076113544
117	0x3d9fc750	0.07801688
118	0xbd4ecc83	-0.050488006
119	0xbe168899	-0.14700545
120	0xbdda2d34	-0.10653153
121	0xbdf731b2	-0.120700255
122	0xbc72378a	-0.014783749
123	0xbdf0d533	-0.117594145
124	0xbe2fa041	-0.17150976
125	0x3d861488	0.06546885
126	0xbdca8426	-0.098884866
127	0xbc931683	-0.01795507
128	0xbd51fe11	-0.051267687
129	0xbd90f52d	-0.070780136
130	0x3dc7ae0a	0.09749992
131	0x3d3121a9	0.04324499
132	0x3e2ed422	0.1707311
133	0xbe821603	-0.2540742
134	0xbb17bc64	-0.002315306
135	0xbe7044d5	-0.23463757
136	0x3eabadfb	0.33531174
137	0xbe1dc317	-0.15406452
138	0x3d9d92a0	0.07693982
139	0xbd298f81	-0.04139662
140	0x3d3b6acd	0.04575615
141	0x3e15ddcb	0.14635389
142	0x3de9ad2c	0.11409983
143	0xbe660e06	-0.22466287
144	0x3e0594b1	0.13045003
145	0x3e0d7377	0.13813578
146	0x3e917786	0.28411502
147	0x3e776d29	0.24162735
148	0xbec7cc5c	-0.390231
149	0x3eb65b60	0.3561659
150	0xbd41d9c0	-0.047326803
151	0xbe235653	-0.15950899
152	0x3e985706	0.29753894
153	0xbcf80ea2	-0.030280415
154	0x3e707d3d	0.23485275
155	0xbc867fdd	-0.016418392
156	0x3e02c19b	0.12769167
157	0xbc8f8bee	-0.017522778
158	0xbdaa096f	-0.083025806
159	0xbd307973	-0.043084573
160	0x3d3ff7d7	0.046867218
161	0x3eb61201	0.3556061
162	0xbd99eda1	-0.07516027
163	0x3ec57eaf	0.38573214
164	0xbeb74c6e	-0.358005
165	0xbe3cf102	-0.18451312
166	0xbbeb5cbd	-0.007182686
167	0x3d73a3f8	0.059482545
168	0xbeb1ea30	-0.34748983
169	0x3ea0f47c	0.31436527
170	0x3e199cc2	0.15001205
171	0x3d46020f	0.048341807
172	0xbcc75228	-0.024331167
173	0x3e6d3769	0.23165669
174	0xbdad574b	-0.084639154
175	0x3e83c7d2	0.25738388
176	0xbec448b7	-0.38336727
177	0xbe641cfa	-0.22276679
178	0xbe039018	-0.12847936
179	0x3e1b69f4	0.15177137
180	0x3ebce1e4	0.3689109
181	0x3de6fe9f	0.11279034
182	0xbb879310	-0.0041374043
183	0x3ecbb4c0	0.3978634
184	0xbdab188f	-0.083542936
185	0xbd6aa69f	-0.05728781
186	0x3ed15369	0.4088395
187	0x3dd4b5a3	0.10386207
188	0x3dc02f66	0.093840405
189	0xbe08d151	-0.13361098
190	0x3d364bff	0.04450607
191	0x3e6705bc	0.22560781
192	0x3d85f1f3	0.06540289
193	0x3d08fbd8	0.033443302
194	0x3d472dd9	0.048627708
195	0x3e2b398e	0.16721174
196	0x3d18f5e1	0.037343863
197	0xbea46f93	-0.32116374
198	0xbd032871	-0.03202099
199	0xbe28ef0d	-0.1649744
200	0x3df4cccb	0.11953124
201	0xbdfbc41e	-0.12293266
202	0x3e331b62	0.17490914
203	0x3dc0b342	0.09409191
204	0x3ed15fcf	0.4089341
205	0xbbdf9c16	-0.006824027
206	0x3f302660	0.68808556
207	0x3dad320b	0.084568106
208	0xbd91595a	-0.070971206
209	0xbd34d095	-0.04414423
210	0xbe8a6b7b	-0.27035126
211	0x3d3633b5	0.044482905
212	0x3e2b8357	0.16749321
213	0xbc1b46ac	-0.009477299
214	0xbe64de27	-0.2235037
215	0x3cdaaa25	0.02669246
216	0x3b850127	0.0040589753
217	0xbe2b7cef	-0.16746877
218	0x3db394e1	0.08768631
219	0xbdc32b7a	-0.09529777
220	0x3e875b62	0.26436907
221	0xbeabbeed	-0.33544102
222	0x3e658c47	0.22416793
223	0x3df8c12f	0.12146222
224	0xbea7df34	-0.32787478
225	0xbe32060e	-0.17385122
226	0x3e0f666f	0.14003919
227	0xbdca5ccf	-0.09880983
228	0xbebadcf3	-0.36496696
229	0xbd4e710c	-0.05040078
230	0x3d83516b	0.064120136
231	0xbdcf9361	-0.10135532
232	0x3e6ff039	0.23431481
233	0xbda0d9a6	-0.07854013
234	0x3e185c17	0.1487888
235	0x3e0b0a63	0.13578181
236	0x3da4d00c	0.08047494
237	0xba84479a	-0.001009214
238	0xbe3789b1	-0.17923619
239	0xbea69a21	-0.32539466
240	0xbe89d8eb	-0.26923308
241	0x3d86a7f7	0.065750055
242	0x3e1c9f35	0.15295108
243	0xbdbbcfc7	-0.0917049
244	0x3e213493	0.15742712
245	0xbdd2d548	-0.102945864
246	0x3d81852f	0.06324231
247	0x3e41c502	0.18922809
248	0x3d16ef3b	0.03684924
249	0x3d5cb3bb	0.05388234
250	0x3d53c00e	0.05169683
251	0x3ec5c282	0.3862496
252	0x3d29ba21	0.041437272
253	0xbed1f5ed	-0.4100794
254	0x3e248751	0.16067244
255	0xbde3f410	-0.111305356
