offlineModels/NN/tfliteModel/model.tflite (tflite, 483092 bytes, 10 tensors)

sequential/dense/BiasAdd/ReadVariableOp f4 [256]
0.055492356 -0.0016680358 0.026456017 0.05546228 -0.06361449 -0.027250309 -0.0030935956 0.033749405
0.0040106555 0.0077920407 0.058172785 0.046477247 0.061870985 -0.051822595 -0.00059374777 -0.043277178
-0.05493115 0.01160264 -0.03679898 0.057918444 0.06543747 -0.037478518 0.050284464 0.038611945
0.03728194 -0.012591262 0.009876445 0.004353867 0.012040227 0.07120756 0.065062866 -0.001084943
0.024035655 -0.033598073 0.03845141 -0.023435066 -0.045894135 0.013155118 0.011688996 -0.070979685
0.026439432 -0.0642799 -0.03390402 -0.006219136 0.0089065945 0.030777615 0.020822011 -0.02342946
0.014027846 -0.026209116 -0.014023262 -0.044449516 0.060208715 0.019941643 0.045286104 -0.058169726
0.014317601 -0.013267385 0.027085355 0.08252135 0.032336015 0.027393386 -0.03911044 0.014425655
0.060469557 -0.024238458 -0.007639136 -0.033148583 -0.0018774207 0.00073470944 0.008754362 0.03017758
0.09228354 -0.01622048 0.087958895 -0.003264645 -0.06320182 -0.030636279 -0.0024334344 0.026035057
-0.044014294 0.018416272 0.044081554 0.013973317 0.017690988 -0.051419985 0.020916428 -0.006422428
0.045677688 -0.07932776 -0.08099799 0.010303803 0.03983667 -0.029941035 0.04193227 -0.004557262
0.030004084 0.0005372528 0.08084798 0.03048463 0.00436913 -0.053613752 0.044279274 -0.08613944
-0.053365584 0.03899976 -0.07913777 -0.011828713 0.036161553 -0.011439567 -0.0034871772 -0.0022763228
-0.020055551 -0.012454147 0.0007913597 0.022573281 -0.027370514 -0.017789565 0.040538516 0.055611853
0.017287873 0.035512872 0.04027566 -0.016053496 0.06840907 -0.006173491 0.063981116 0.07428353
0.0007482403 -0.016963204 -0.07491097 -0.047953293 0.012978128 0.04575635 0.051907096 0.037520736
0.02458777 0.005586149 -0.049364943 0.07232236 -0.043468315 -0.05337351 -0.055291396 0.1180373
0.0032030502 0.021735525 0.048455305 0.01898037 -0.0015010426 -0.055780515 -0.042163778 -0.046123356
0.02442336 0.030514643 -0.036538117 -0.04265607 0.036157973 -0.0068503274 0.026034249 -0.055387072
-0.021338033 0.05993804 0.032001738 0.03875742 0.012267996 -0.03976302 0.04457797 0.019242883
0.031914126 0.059723794 -0.0028295522 0.06296849 -0.0038547057 0.014948549 0.06725226 0.031341463
0.007677699 -0.019795766 0.04868764 0.023834338 -0.025464099 0.0005745737 0.031646583 -0.04743915
-0.021482667 0.003642544 0.07169599 -0.012018933 -0.052151233 -0.0006877747 0.009503904 0.035589904
-0.03945618 -0.06713499 0.029000474 0.0758252 0.019797534 -0.008231034 -0.0739065 -0.012803266
-0.017906278 -0.064640224 -0.04376347 -0.05264055 -0.07518836 0.015539783 -0.009876376 -0.04628115
0.00044625878 -0.008184581 0.03658293 -0.020139256 -0.062297016 0.011666483 -0.054691676 0.066018105
0.0016707038 0.0426159 0.04523703 0.012539107 0.06866269 0.043788213 0.025401548 -0.072561905
0.005277008 -0.0488901 0.0343632 -0.028712101 -0.04368677 -0.028891614 -0.061813194 0.05752529
-0.04297036 -0.018279204 -0.037330437 -0.056081556 0.05612791 0.005134079 -0.06551574 0.10558729
0.0077174106 -0.036692157 -0.04635005 -0.04770319 0.058519885 -0.009220998 -0.04460922 -0.012758851
-0.05521685 -0.0020208736 0.044371326 0.019201325 -0.03429165 0.0038160642 0.078922875 -0.034549832
00000000: f44b 633d fea1 daba 4aba d83c 6a2c 633d
00000010: 5048 82bd 0a3c dfbc ecbd 4abb d13c 0a3d
00000020: d16b 833b 6054 ff3b 9646 6e3d ed5e 3e3d
00000030: 6e6c 7d3d ee43 54bd bda5 1bba 6943 31bd
00000040: 7cff 60bd 0019 3e3c 87ba 16bd e43b 6d3d
00000050: 1504 863d 1383 19bd 15f7 4d3d 8f27 1e3d
00000060: f3b4 183d 954b 4ebc d0d0 213c e2aa 8e3b
00000070: 5f44 453c 45d5 913d ae3f 853d a534 8eba
00000080: 6ce6 c43c 229e 09bd 3a7f 1d3d e5fa bfbc
00000090: 7dfb 3bbd 9088 573c 3483 3f3c cc5d 91bd
000000a0: 8297 d83c 2ea5 83bd f1de 0abd e5c9 cbbb
000000b0: f7ec 113c 5621 fc3c ec92 aa3c 24ef bfbc
000000c0: 0dd5 653c 80b4 d6bc d3c1 65bc b210 36bd
000000d0: 6a9d 763d a85c a33c ec7d 393d 6143 6ebd
000000e0: 5f94 6a3c 725f 59bc 1be2 dd3c f400 a93d
000000f0: c572 043d 1868 e03c 4532 20bd 9559 6c3c
00000100: edae 773d bb8f c6bc b851 fabb cfc6 07bd
00000110: c913 f6ba 8499 403a 756e 0f3c f936 f73c
00000120: 27ff bc3d d0e0 84bc cb23 b43d a8f3 55bb
00000130: f56f 81bd eff8 fabc 417a 1fbb 7947 d53c
00000140: 5548 34bd b9dd 963c dc8e 343d 57f0 643c
00000150: b1ec 903c c39d 52bd ee58 ab3c 3b73 d2bb
00000160: 8718 3b3d 9876 a2bd 46e2 a5bd 48d1 283c
00000170: c72b 233d e746 f5bc 2cc1 2b3d 1655 95bb
00000180: 20cb f53c 6dd6 0c3a a093 a53d e7ba f93c
00000190: eb2a 8f3b 189a 5bbd 2f5e 353d e069 b0bd
000001a0: df95 5abd 36be 1f3d fc12 a2bd 38cd 41bc
000001b0: 231e 143d 066d 3bbc 2089 64bb 5c2e 15bb
000001c0: 8a4b a4bc 7b0c 4cbc 4073 4f3a 9aeb b83c
000001d0: 2138 e0bc 6cbb 91bc b70b 263d 41c9 633d
000001e0: 4c9f 8d3c f275 113d 17f8 243d 9f82 83bc
000001f0: 0e1a 8c3d ff4a cabb 8808 833d f721 983d
00000200: 8e25 443a 6bf6 8abc ec6a 99bd ac6a 44bd
00000210: 37a2 543c 036b 3b3d 899c 543d 58af 193d
00000220: 4b6c c93c 040c b73b e532 4abd bf1d 943d
00000230: d50b 32bd 2e9e 5abd 3b79 62bd 8abd f13d
00000240: 44ea 513b b30e b23c 1279 463d b97c 9b3c
00000250: a2be c4ba 1c7a 64bd edb3 2cbd d8eb 3cbd
00000260: 8013 c83c d8f9 f93c fea8 15bd 22b8 2ebd
00000270: 621a 143d b678 e0bb c745 d53c 8edd 62bd
00000280: 19cd aebc 9781 753d 4114 033d 1ac0 1e3d
00000290: b4ff 483c 8cde 22bd 6497 363d 40a3 9d3c
000002a0: 63b8 023d f0a0 743d 0270 39bb a0f5 803d
000002b0: 3b9f 7cbb c2ea 743c 8ebb 893d e85f 003d
000002c0: 3595 fb3b bb2a a2bc b16c 473d 3b40 c33c
000002d0: 169a d0bc fd9e 163a d99f 013d 8e4f 42bd
000002e0: 6bfc afbc bfb7 6e3b 59d5 923d 0feb 44bc
000002f0: 889c 55bd c74b 34ba 43b6 1b3c b8c6 113d
00000300: ce9c 21bd 127e 89bd 6792 ed3c 3e4a 9b3d
00000310: 702e a23c 75db 06bc 4b5c 97bd cac4 51bc
00000320: 30b0 92bc 1862 84bd 5341 33bd 9e9d 57bd
00000330: 5bfc 99bd 939a 7e3c 86d0 21bc 4e91 3dbd
00000340: d7f7 e939 9f18 06bc fbd7 153d 15fb a4bc
00000350: 282b 7fbd c724 3f3c 6104 60bd 8034 873d
00000360: 84fb da3a 038e 2e3d 774a 393d d470 4d3c
00000370: 069f 8c3d 455b 333d e816 d03c 569b 94bd
00000380: c0ea ac3b fc40 48bd 6dc0 0c3d a435 ebbc
00000390: e6f0 32bd 1bae ecbc d52f 7dbd a39f 6b3d
000003a0: b001 30bd 45be 95bc cde7 18bd c6b5 65bd
000003b0: 61e6 653d c73b a83b 1e2d 86bd 263e d83d
000003c0: 55e2 fc3b 844a 16bd 8dd9 3dbd 6c64 43bd
000003d0: 8cb2 6f3d ab13 17bc 28b8 36bd 800a 51bc
000003e0: 102b 62bd a270 04bb b5be 353d 194c 9d3c
000003f0: 6775 0cbd ef16 7a3b 51a2 a13d 2084 0dbd

sequential/dense_4/BiasAdd/ReadVariableOp f4 [6]
0.028268758 0.07594232 -0.076028235 -0.0105417315 -0.009550894 -0.030046828
00000000: e293 e73c a687 9b3d b1b4 9bbd 3ab7 2cbc
00000010: 5a7b 1cbc c424 f6bc

sequential/dense_3/BiasAdd/ReadVariableOp f4 [128]
-0.019037334 0.030854113 0.05356598 -0.0003765129 -0.0007988057 0.0222245 0.0013638232 0.021016492
0.02636956 0.021825945 0.0017252308 -0.018270047 -0.003545416 0.15708224 0.024502337 0.009575938
-0.0022233697 0.015485128 -0.008277122 -0.01840228 0.00026301338 -0.016611107 0.004979332 0.07570965
0.09836796 0.19697124 -0.024329655 0.020075291 -0.017512236 0.0012819512 0.045119334 0.03660114
0.1075347 -0.014386777 0.006904358 0.15462479 -0.049400967 0.010283008 -0.0076335585 0.077557676
-0.025143126 0.0056414376 0.026948884 -0.051923674 0.013224851 -0.0033631513 0.048647277 -0.015763404
0.034988523 0.0014128587 0.015800165 0.099029474 -0.027442347 -0.0072593503 0.0034322082 0.035009734
-0.020016605 0.02842668 0.048771422 0.024925623 -0.03658039 0.024938814 0.08269593 0.039265398
0.0013199181 -0.01110089 -0.0005176343 0.022304585 -0.030489046 0.034300417 0.019591196 -0.013779288
0.06651054 0.033969887 0.045848455 -0.009519012 -0.031698804 0.0314973 0.07263251 0.022246744
0.008882587 -0.017553356 0.033542734 0.059880584 0.045747984 -0.055525463 -0.04232511 -0.024261868
0.03212179 0.006055854 0.053686872 0.010141548 0.06887595 0.03842776 0.033855222 0.040461414
0.006014638 0.032893114 0.1254902 0.0034577637 0.101547346 0.08320654 -0.006320075 0.042321067
0.00060789107 0.017319186 0.063471675 -0.026016403 0.006723188 -0.050414123 0.005139266 0.0352148
0.06720195 0.0030281136 0.004977095 -0.02067823 0.05577933 -0.004764748 -0.04050982 0.04816678
-0.0064124633 0.0017517626 0.03248238 -0.005533107 0.068296246 -0.050022874 0.025197223 0.038671628
00000000: 2ff4 9bbc c4c1 fc3c 0068 5b3d b566 c5b9
00000010: f166 51ba 2810 b63c 50c2 b23a c72a ac3c
00000020: fa04 d83c 53cc b23c 2421 e23a 11ab 95bc
00000030: 365a 68bb 2bda 203e 20b9 c83c 65e4 1c3c
00000040: f4b5 11bb 56b5 7d3c c49c 07bc 61c0 96bc
00000050: 0fe5 8939 0414 88bc aa29 a33b a90d 9b3d
00000060: 2475 c93d d4b2 493e fc4e c7bc f074 a43c
00000070: d275 8fbc 2507 a83a 0dcf 383d 14eb 153d
00000080: 273b dc3d 84b6 6bbc f43d e23b f655 1e3e
00000090: ab58 4abd 107a 283c ee22 fabb 8fd6 9e3d
000000a0: f5f8 cdbc cfdb b83b e8c3 dc3c ebad 54bd
000000b0: 0cad 583c 5168 5cbb 5e42 473d 4122 81bc
000000c0: 2050 0f3d ac2f b93a 596f 813c f7cf ca3d
000000d0: c6ce e0bc d8df edbb e6ee 603b 5e66 0f3d
000000e0: ddf9 a3bc 12df e83c 8bc4 473d d230 cc3c
000000f0: 52d5 15bd 7c4c cc3c 7c5c a93d c1d4 203d
00000100: 1a01 ad3a 82e0 35bc dab1 07ba 1bb8 b63c
00000110: 2ac4 f9bc 987e 0c3d b77d a03c 86c2 61bc
00000120: ae36 883d 0224 0b3d 97cb 3b3d a1f5 1bbc
00000130: 9bd6 01bd 5003 013d 5ac0 943d ce3e b63c
00000140: 4588 113c 0ecc 8fbc 1b64 093d 5845 753d
00000150: 3d62 3b3d ab6e 63bd 185d 2dbd d3c0 c6bc
00000160: 2392 033d 2f70 c63b c4e6 5b3d bc28 263c
00000170: d60e 8d3d 6d66 1d3d c6ab 0a3d deba 253d
00000180: 7116 c53b eeba 063d 8180 003e a69b 623b
00000190: 0ef8 cf3d 3168 aa3d a218 cfbb db58 2d3d
000001a0: e15a 1f3a f7e0 8d3c 70fd 813d 5a20 d5bc
000001b0: 304e dc3b 0a7f 4ebd 4a67 a83b 653d 103d
000001c0: 2da1 893d 5173 463b e616 a33b 6465 a9bc
000001d0: de78 643d 9a21 9cbb a0ed 25bd 884a 453d
000001e0: a41f d2bb 669b e53a 3e0c 053d 114f b5bb
000001f0: e7de 8b3d c9e4 4cbd 686a ce3c 2466 1e3d

sequential/dense_2/BiasAdd/ReadVariableOp f4 [128]
0.09962061 0.018898737 0.0041057756 0.08556549 0.0014671106 -0.04370437 0.0090622 0.0020752493
0.07639958 0.03298778 0.10815868 0.022073923 -0.0439125 -0.00875669 -0.009675946 0.0078016925
0.052672073 -0.013475943 0.025665086 0.05419003 -0.0073460606 0.0075474796 0.0003466891 0.020364989
0.021592189 0.0210918 0.06932291 0.009133261 0.07699069 -0.012634345 -0.0017702244 -0.010883885
0.025770063 0.021957224 0.05306013 0.024651412 -0.027320452 -0.033203926 0.043208085 -0.008050756
0.013047244 0.044359166 0.03579984 0.037522405 -0.008635332 0.03456608 -0.039481003 -0.0067961295
-0.007160022 -0.016611574 -0.029280055 0.039516695 0.04036194 0.01890232 0.008414463 0.08100126
0.010705603 0.02163738 -0.019834157 0.037722394 -0.025682982 -0.029063897 0.017939884 0.030892184
0.0071702646 -0.0054620192 0.011102118 0.050654523 -0.010631816 -0.040501356 0.011359401 -0.041702967
0.03809452 0.010975934 0.09632697 -0.037174918 0.008406033 0.04269202 0.0592227 0.06319312
-0.012179987 0.060540915 -0.013292743 0.021481093 0.014748951 -0.013046057 -0.0054264395 -0.0052405503
0.0040396256 -0.015410142 0.07130049 -0.005080896 0.019008953 0.014623419 -0.0021502718 0.06329461
-0.0044412087 0.016815607 0.016465629 -0.01993352 -0.011439674 0.0076349885 0.013555783 0.009238319
-0.009133261 0.01589943 0.004684239 -0.012247734 8.343291e-05 0.023115506 -0.02489534 -0.010381417
0.002833405 0.016931575 0.0926676 -0.005727382 0.07293181 -0.040785 0.042225022 0.021581126
0.0008825925 0.026001643 0.030995643 0.004673091 0.0762555 -0.030347817 0.02003223 -0.019262005
00000000: e405 cc3d 86d1 9a3c be89 863b f63c af3d
00000010: 104c c03a 5a03 33bd 9f79 143c e800 083b
00000020: 6277 9c3d 321e 073d 4c82 dd3d 5fd4 b43c
00000030: 98dd 33bd 3878 0fbc dc87 1ebc 57a5 ff3b
00000040: acbe 573d 34ca 5cbc 963f d23c 5df6 5d3d
00000050: 39b7 f0bb d950 f73b d3c3 b539 7ad4 a63c
00000060: 1ae2 b03c b6c8 ac3c 2bf9 8d3d aca3 153c
00000070: 4bad 9d3d 4900 4fbc e006 e8ba 5352 32bc
00000080: bd1b d33c a3df b33c 9455 593d c2f1 c93c
00000090: 24cf dfbc d700 08bd f6fa 303d 51e7 03bc
000000a0: 1cc4 553c f5b1 353d daa2 123d 18b1 193d
000000b0: 357b 0dbc 2995 0d3d d5b6 21bd 11b2 debb
000000c0: 9e9e eabb ff14 88bc badc efbc 42dc 213d
000000d0: 9052 253d 0ad9 9a3c d1dc 093c fde3 a53d
000000e0: 8e66 2f3c e040 b13c 3e7b a2bc cc82 1a3d
000000f0: 1e65 d2bc 6917 eebc aaf6 923c 9b11 fd3c
00000100: 8af4 ea3b bdfa b2bb a8e5 353c 1e7b 4f3d
00000110: 1231 2ebc c0e4 25bd c81c 3a3c bbd0 2abd
00000120: 0009 1c3d 67d4 333c 1347 c53d ba44 18bd
00000130: 75b9 093c d4dd 2e3d 8093 723d 656b 813d
00000140: 918e 47bc c0f9 773d cec9 59bc 1ef9 af3c
00000150: 96a5 713c 21bf 55bc 46d0 b1bb ecb8 abbb
00000160: d65e 843b d27a 7cbc fe05 923d a57d a6bb
00000170: aab8 9b3c 1197 6f3c 93eb 0cbb 9ba0 813d
00000180: 8f87 91bb e2c0 893c ede2 863c 9f4b a3bc
00000190: 786d 3bbc ed2e fa3b 1319 5e3c 515c 173c
000001a0: aca3 15bc 853f 823c 3f7e 993b b8aa 48bc
000001b0: b4f8 ae38 bb5c bd3c 50f1 cbbc d216 2abc
000001c0: a6b0 393b 16b4 8a3c 83c8 bd3d c3ac bbbb
000001d0: 465d 953d 2c0e 27bd 25f4 2c3d e7ca b03c
000001e0: c85d 673a 6601 d53c 93ea fd3c bb20 993b
000001f0: d82b 9c3d fc9b f8bc a21a a43c 5acb 9dbc

sequential/dense_1/BiasAdd/ReadVariableOp f4 [256]
0.007276982 0.043791313 0.013466914 0.022456734 -0.013434222 -0.014864563 -0.010567107 0.0010982468
0.029169796 -0.03992451 0.010352573 -0.023014173 -0.0050812503 -0.0043599713 0.0062608565 0.011383956
0.04394576 0.008184795 -0.048925575 -0.030408755 -0.015558906 0.09167166 -0.00520131 0.05007037
-0.012640096 0.014173881 0.06049454 -0.04778444 -0.015307131 -0.023550892 0.027193194 0.04487015
0.07964233 -0.004684542 0.0081030335 0.08069955 0.035476815 0.038604945 -0.033572078 0.016425882
0.011594377 -0.016649488 0.003780131 -0.022332866 0.018510466 -0.02702582 -0.009582155 -0.028010804
-0.020743243 0.014377806 -0.03261946 -0.00016536353 -0.040717445 -0.054934625 0.01853754 0.0221797
-0.03383112 0.039945904 -0.015041672 -0.0007265911 0.06408058 0.008948322 -0.05558522 0.009171366
0.012291123 0.015823565 0.00939913 -0.027122285 -0.033968247 -0.04034797 0.0047765207 -0.019190839
0.052237436 -0.030656477 0.014988883 -0.025084846 0.07774092 0.09016902 0.01809004 0.016844897
-0.05718709 0.0060870172 0.02804995 -0.0027677019 0.0052876626 0.046228204 0.011591093 -0.041554578
0.014549506 0.04694237 -0.0034400902 0.00046492313 -0.014120397 -0.024497906 -0.0101853 0.019987406
-0.033678606 0.0011326204 0.041658882 -0.046573333 0.050646693 -0.06518947 0.0055946526 -0.006369112
0.011668608 -0.049241103 0.046350505 0.024318721 -0.005354193 0.0006038507 0.036049254 0.033381473
-0.030445661 -0.0109966695 0.032494728 -0.051035117 -0.012334059 0.030956723 -0.011164968 -0.0050766617
0.05743123 -0.0126612205 0.082142554 0.07116749 -0.0056145955 -0.0059660254 0.016785415 -0.055846464
0.0011642366 0.028095912 0.035331566 -0.032184012 0.090842895 0.05104309 -0.05037563 0.021357708
-0.03687341 -0.013222177 0.053993702 -0.009827744 0.008226941 -0.011145631 0.04534115 0.035813715
-0.019321049 -0.012957583 -0.011476359 -0.004200058 0.023797723 0.037837785 -0.009451034 -0.028002111
-0.009341042 0.022172285 0.053569343 -0.013558633 0.004933521 0.060288366 0.022696538 0.020751039
-0.01690429 -0.009391006 -0.00503452 -0.04900335 0.0378419 -0.01561582 0.06494632 -0.009467805
-0.014183656 0.035241283 0.0005138538 0.0111173615 -0.036054615 -0.02324194 0.027954265 -0.008287343
-0.004817678 0.0050830287 -0.035266798 -0.0070314943 -0.020576967 0.0094272895 0.0058331103 0.07252037
0.011100113 -0.016927699 -0.018202329 0.048869006 0.00055655785 -0.015428414 0.0048475466 0.010651921
0.038897123 0.0116063105 0.07880331 -0.022450237 -0.04909467 -0.0036486185 -0.0031547172 0.015877232
0.027940495 0.011012772 0.01446054 0.01083273 -0.010404958 -0.015092896 -0.044983856 0.01210853
0.0025402422 -0.023523819 0.005604438 0.03507384 0.036925573 0.03785665 -0.028399233 -0.028987534
0.018558763 0.00763169 -0.047902294 0.0054910937 -0.009737081 0.0065851747 0.030584905 -0.0029330773
-0.005422027 -0.03972661 -0.021311847 -0.022781407 -0.003016787 0.049420655 0.033396944 -0.016114179
-0.004001546 -0.012672046 0.0090522 0.024857072 0.0018531869 0.06780771 -0.026706316 -0.05417069
0.0017861043 -0.023503143 -0.041419886 -0.045974385 0.055376377 0.07260851 -0.027046965 0.06559935
-0.057409517 -0.019494664 0.019911444 0.0013515297 -0.01187763 -0.005542118 0.024654508 0.024802262
00000000: c073 ee3b 855e 333d 55a4 5c3c 2ff7 b73c
00000010: 361b 5cbc 7f8a 73bc a921 2dbc 0cf3 8f3a
00000020: 7ff5 ee3c e287 23bd d79d 293c 3888 bcbc
00000030: 9e80 a6bb 17de 8ebb df27 cd3b c683 3a3c
00000040: 7800 343d 8519 063c 2f66 48bd c81b f9bc
00000050: c8ea 7ebc 5abe bb3d c06f aabb 9716 4d3d
00000060: 6818 4fbc 9139 683c 1fc9 773d 9eb9 43bd
00000070: c3ca 7abc cded c0bc 43c4 de3c c3c9 373d
00000080: 851b a33d c980 99bb 96c2 043c ce45 a53d
00000090: 2350 113d 3820 1e3d e082 09bd 928f 863c
000000a0: 58f6 3d3c 8264 88bc 13bc 773b 6af3 b6bc
000000b0: 43a3 973c 4165 ddbc 79fe 1cbc ea76 e5bc
000000c0: bced a9bc e490 6b3c fc9b 05bd 6f65 2db9
000000d0: 56c7 26bd 2103 61bd 0adc 973c 34b2 b53c
000000e0: 8092 0abd 519e 233d 5871 76bc b478 3eba
000000f0: ae3c 833d fc9b 123c 54ad 63bd 7f43 163c
00000100: b560 493c 6ca0 813c cffe 193c 8e2f debc
00000110: 4a22 0bbd ea43 25bd 5c84 9c3b 1b36 9dbc
00000120: ecf6 553d 4b23 fbbc ef93 753c bc7e cdbc
00000130: a236 9f3d 89aa b83d 9031 943c 4ffe 893c
00000140: 033d 6abd 9a75 c73b 02c9 e53c 5562 35bb
00000150: 2144 ad3b c959 3d3d 91e8 3d3c 2235 2abd
00000160: 0d61 6e3c a446 403d 2373 61bb edc0 f339
00000170: 3d59 67bc d5af c8bc 3fe0 26bc a1bc a33c
00000180: 94f2 09bd 6f74 943a 81a2 2a3d aec3 3ebd
00000190: e872 4f3d 0f82 85bd 5953 b73b fcb3 d0bb
000001a0: b02d 3f3c 0ab1 49bd 07da 3d3d 0e38 c73c
000001b0: 3a72 afbb bc4b 1e3a 62a8 133d 03bb 083d
000001c0: 2e69 f9bc 602b 34bc 3119 053d 330a 51bd
000001d0: cb14 4abc f498 fd3c 45ed 36bc 205a a6bb
000001e0: 023d 6b3d 0271 4fbc 5b3a a83d 43c0 913d
000001f0: a4fa b7bb a67e c3bb 9181 893c 43bf 64bd
00000200: 4c99 983a 6629 e63c d5b7 103d 62d3 03bd
00000210: d70b ba3d 8f12 513d ad56 4ebd 5cf6 ae3c
00000220: 9308 17bd d4a1 58bc 8028 5d3d 8c04 21bc
00000230: 4bca 063c 2a9c 36bc a4b7 393d 67b1 123d
00000240: 2d47 9ebc 0b4c 54bc 5707 3cbc a4a0 89bb
00000250: 71f3 c23c cbfb 1a3d 82d8 1abc af64 e5bc
00000260: 2b0b 19bc a7a2 b53c 876b 5b3d 0725 5ebc
00000270: 60a9 a13b eff0 763d 17ee b93c 15fe a93c
00000280: de7a 8abc bcdc 19bc 9df8 a4bb bdb7 48bd
00000290: 1c00 1b3d 7fd9 7fbc 9402 853d da1e 1bbc
000002a0: 9162 68bc 2a59 103d 25b4 063a 9825 363c
000002b0: 01ae 13bd e265 bebc 5800 e53c a3c7 07bc
000002c0: 9ddd 9dbb 898f a63b eb73 10bd 7368 e6bb
000002d0: 0791 a8bc eb74 1a3c ad23 bf3b 8f85 943d
000002e0: 40dd 353c f5ab 8abc 0d1d 95bc de2a 483d
000002f0: f7e5 113a 75c7 7cbc 2bd8 9e3b 6585 2e3c
00000300: 9752 1f3d 6528 3e3c a163 a13d 8fe9 b7bc
00000310: 7e17 49bd a91d 6fbb 5fbf 4ebb f810 823c
00000320: 77e3 e43c ea6e 343c e7eb 6c3c c37b 313c
00000330: 8f79 2abc 3248 77bc fe40 38bd db62 463c
00000340: 317a 263b 06b5 c0bc 6fa5 b73b 96a9 0f3d
00000350: 453f 173d 930f 1b3d 82a5 e8bc 4477 edbc
00000360: 8c08 983c 4113 fa3b 3235 44bd a2ee b33b
00000370: 4788 1fbc 73c8 d73b 328d fa3c df38 40bb
00000380: 42ab b1bb 5fb8 22bd 2f96 aebc 13a0 babc
00000390: 4ab5 45bb 506d 4a3d 3ccb 083d e201 84bc
000003a0: 671f 83bb 6a9e 4fbc ae4f 143c 0fa1 cb3c
000003b0: a2e6 f23a c5de 8a3d 34c7 dabc 16e2 5dbd
000003c0: b71b ea3a aa89 c0bc e6a7 29bd a34f 3cbd
000003d0: 57d2 623d c5b3 943d 9991 ddbc f458 863d
000003e0: 3e26 6bbd 46b3 9fbc 531d a33c d025 b13a
000003f0: 649a 42bc a89a b5bb 40f8 c93c 1d2e cb3c

sequential/dense/MatMul f4 [256, 15]
-0.081164576 0.021156367 -0.017351953 -0.15188842 0.10825728 0.04288229 -0.0043291585 -0.08882785
-0.03142585 0.15893099 -0.09256165 -0.022672562 -0.15089542 -0.016187917 -0.008582394 0.20881887
0.013252959 -0.02526365 -0.12461874 0.0749963 -0.018639863 0.055914585 -0.039124683 -0.045891702
-0.0870077 0.0631524 -0.054990344 0.03261875 -0.12624854 -0.044538353 0.11168647 -0.0018764345
-0.1519604 0.16511625 0.24473159 0.03290804 0.050080784 0.08581449 -0.11037367 -0.09966702
0.054444384 0.003176486 -0.03353108 0.008155961 0.15914895 0.051006533 0.03048981 0.08847998
0.08815918 -0.08118227 0.05521496 0.02839484 0.007608222 0.14721389 -0.02316517 0.0797337
0.08080511 0.12761614 0.10898385 0.19437218 0.12953743 0.14703058 -0.07651021 0.13290204
0.080202125 -0.004466467 -0.07913264 -0.040573247 0.13891962 -0.12953682 0.009432876 0.022055265
0.08254395 0.16685842 0.074834526 -0.29181653 0.28744388 0.078666426 0.091273285 -0.12977101
-0.0033954002 -0.1165325 0.09600087 0.06353169 -0.06663347 0.08234174 0.017277015 -0.047668215
0.07698797 0.12148875 -0.16831961 -0.0954658 0.0464385 0.10234033 -0.06951122 -0.14192756
0.17535746 0.05341791 -0.067982726 0.123046055 -0.1566199 -0.100116104 -0.070413224 0.05213201
-0.003651285 -0.27659824 -0.30827302 -0.0012884198 0.1916166 -0.028309494 0.09551584 -0.08824389
0.020769823 -0.031333465 -0.051909484 0.05011196 -0.021089273 0.08311545 -0.056280937 0.111213006
0.029481085 0.15068579 0.26381084 -0.056683213 -0.11023182 -0.023812061 0.04477193 0.08869965
0.07705076 0.016452894 -0.04102972 -0.13047847 0.030212179 -0.004621496 -0.13030006 0.1693447
-0.11409452 -0.07888094 0.06937191 0.024668396 0.22253719 -0.15603222 0.10104457 0.13796194
0.13382033 -0.062145837 0.029548898 0.102292925 0.07349108 0.06954047 -0.12370913 -0.3290635
0.17373055 0.124772966 0.037749015 0.04786042 0.09005871 -0.104374506 -0.1327395 -0.07459272
-0.014062433 0.10997033 -0.11206556 0.07868297 0.08762355 0.0790889 -0.10966009 -0.025613626
0.087984115 0.032256816 0.10153151 -0.051665854 0.012614831 0.06506332 0.0016609664 -0.052017897
0.07745006 -0.049029075 -0.0049870443 0.2195426 0.056628264 0.25063682 -0.13242273 0.014395674
-0.084513575 0.012525415 0.15214671 -0.13993607 -0.042583913 -0.05929839 0.024059061 -0.0021748294
-0.12611578 0.037798412 -0.14412591 0.015155501 0.06067683 -0.116095215 0.041343052 -0.117490314
0.027332924 -0.122020625 -0.13007303 0.120908104 -0.13716778 0.0019919302 0.13499305 -0.017782876
-0.12141635 -0.11903256 -0.00994891 0.111727744 0.17141932 0.021906635 -0.052068934 -0.050631538
0.15453476 -0.13833718 -0.14075099 0.1377633 -0.085203044 -0.09188115 -0.123408504 -0.07931326
-0.11047125 0.19870137 -0.0028910178 0.061661903 0.0054127057 -0.14002694 -0.12471683 0.056948334
-0.036402427 0.054562386 -0.10107415 0.12135992 -0.0070185517 -0.050177217 -0.06414749 0.057700302
0.035078183 -0.053749047 0.14449598 -0.023912074 -0.113888465 0.15880586 0.15932433 -0.017665831
-0.10943403 -0.05758024 -0.101317905 0.058821812 0.038745545 0.10957258 -0.0885973 -0.22282574
00000000: 9d39 a6bd 1e50 ad3c af25 8ebc a388 1bbe
00000010: feb5 dd3d 57a5 2f3d 9ddb 8dbb 60eb b5bd
00000020: 64b8 00bd cebe 223e f690 bdbd cfbb b9bc
00000030: 5484 1abe 869c 84bc 2b9d 0cbc 9dd4 553e
00000040: f022 593c b7f5 cebc 1c38 ffbd a997 993d
00000050: a0b2 98bc b106 653d 3441 20bd f0f8 3bbd
00000060: 1831 b2bd 0c56 813d 8e3d 61bd 3d9b 053d
00000070: 4c47 01be d96d 36bd e0bb e43d b2f2 f5ba
00000080: 829b 1bbe 3c14 293e eb9a 7a3e 95ca 063d
00000090: 8221 4d3d 82bf af3d 970b e2bd 391e ccbd
000000a0: 1301 5f3d 972c 503b e357 09bd 94a0 053c
000000b0: f1f7 223e 3aec 503d c4c5 f93c fe34 b53d
000000c0: cd8c b43d e442 a6bd 1529 623d 4c9c e83c
000000d0: 644e f93b 3dbf 163e e2c4 bdbc 6c4b a33d
000000e0: 267d a53d cead 023e ed32 df3d 8009 473e
000000f0: 76a5 043e 2f8f 163e 63b1 9cbd 7917 083e
00000100: 0341 a43d 715b 92bb 4b10 a2bd 2230 26bd
00000110: f240 0e3e 4da5 04be 598c 1a3c 3ead b43c
00000120: cd0c a93d efdc 2a3e d842 993d fa68 95be
00000130: d82b 933e dd1b a13d 7ded ba3d b1e2 04be
00000140: 5d85 5ebb 97a8 eebd 1b9c c43d e71c 823d
00000150: 2177 88bd c9a2 a83d 8788 8d3c bf3f 43bd
00000160: deab 9d3d 18cf f83d fa5b 2cbe 9383 c3bd
00000170: 4c36 3e3d cf97 d13d e65b 8ebd 7555 11be
00000180: e890 333e bdcc 5a3d 873a 8bbd 92ff fb3d
00000190: f860 20be ac09 cdbd cf34 90bd 6088 553d
000001a0: 664a 6fbb 499e 8dbe f6d5 9dbe 32e0 a8ba
000001b0: 2437 443e 50e9 e7bc cf9d c33d 36b9 b4bd
000001c0: 7a25 aa3c 8557 00bd 0a9f 54bd 3342 4d3d
000001d0: 69c3 acbc 6f38 aa3d d786 66bd a5c3 e33d
000001e0: 5182 f13c 604d 1a3e 3712 873e a82c 68bd
000001f0: 38c1 e1bd 8311 c3bc c562 373d 29a8 b53d
00000200: cacc 9d3d 38c8 863c c80e 28bd 269c 05be
00000210: 887f f73c eb6f 97bb 616d 05be b268 2d3e
00000220: 63aa e9bd 558c a1bd dc12 8e3d 6015 ca3c
00000230: cae0 633e e9c6 1fbe 75f0 ce3d e545 0d3e
00000240: 3208 093e a28c 7ebd 8810 f23c f47e d13d
00000250: 7e82 963d 3c6b 8e3d 365b fdbd 037b a8be
00000260: 6ce6 313e f888 ff3d b69e 1a3d 4a09 443d
00000270: b370 b83d 4dc2 d5bd ddec 07be 11c4 98bd
00000280: 1e66 66bc 2038 e13d a182 e5bd 8924 a13d
00000290: fa73 b33d 5cf9 a13d 7895 e0bd abd3 d1bc
000002a0: 0431 b43d b91f 043d c1ef cf3d 939f 53bd
000002b0: 70ae 4e3c eb3f 853d c9b4 d93a b810 55bd
000002c0: 239e 9e3d b6d2 48bd 5c6a a3bb c6cf 603e
000002d0: 0af3 673d 7853 803e d399 07be d5db 6b3c
000002e0: 7415 adbd 6637 4d3c 59cc 1b3e 674b 0fbe
000002f0: 786c 2ebd dee2 72bd 8217 c53c 9587 0ebb
00000300: 7f24 01be 82d2 1a3d be95 13be c74e 783c
00000310: 4588 783d 54c3 edbd 5557 293d c39e f0bd
00000320: 4ce9 df3c f3e5 f9bd dd31 05be ab9e f73d
00000330: b675 0cbe 0b8b 023b 9e3b 0a3e 65ad 91bc
00000340: 23a9 f8bd 58c7 f3bd c100 23bc 84d1 e43d
00000350: 8c88 2f3e 8b75 b33c 3c46 55bd 0463 4fbd
00000360: 5c3e 1e3e 43a8 0dbe 0721 10be d311 0d3e
00000370: ef7e aebd 2f2c bcbd 99bd fcbd fe6e a2bd
00000380: c03e e2bd 5f78 4b3e 3b77 3dbb 3191 7c3d
00000390: 115d b13b 3963 0fbe 8a6b ffbd a842 693d
000003a0: b61a 15bd cf7c 5f3d f7ff cebd 8d8b f83d
000003b0: e1fb e5bb a086 4dbd c25f 83bd 2757 6c3d
000003c0: 24ae 0f3d f627 5cbd c1f6 133e 41e3 c3bc
000003d0: 5b3e e9bd 019e 223e eb25 233e efb7 90bc
000003e0: f31e e0bd 42d9 6bbd c37f cfbd 24ef 703d
000003f0: a6b3 1e3d 9767 e03d 8072 b5bd 6e2c 64be

sequential/dense_1/MatMul f4 [256, 256]
0.10618966 -0.01805348 0.018424274 0.05700099 -0.06871605 0.15094943 -0.29845148 0.08949292
-0.039419763 0.058049317 -0.15155177 -0.0036414666 -0.13825008 -0.09616 -0.2833021 -0.029777119
-0.10185122 0.017751247 -0.081508346 -0.003961983 -0.108440466 0.02886119 -0.17003389 0.0024310455
-0.09633774 -0.0016193287 0.003679463 -0.04330277 -0.0756302 -0.12720473 -0.056673706 -0.05843227
0.08986477 -0.09453951 0.008309186 -0.042380344 0.06077888 0.033803 -0.08401121 -0.033140037
0.009415579 -0.04750533 -0.11040151 -0.051633682 -0.13534793 -0.0022820542 0.027818112 -0.13918586
-0.0684152 -0.0071541076 -0.068844 -0.06275769 0.026346652 -0.0006367667 0.0018439844 0.09722689
-0.108195245 0.07274233 -0.12985681 0.04674384 0.089965925 -0.09061596 -0.0411409 -0.040955137
-0.017570276 0.093854494 0.09083124 0.06443241 -0.120020024 -0.031945046 -0.01243237 0.04360376
0.06855552 -0.08337184 -0.11507147 -0.038697287 0.012809909 0.10043396 -0.1841967 -0.21469055
-0.067067556 -0.0017896318 -0.007483968 -0.004943449 0.01863564 0.07657926 -0.14798069 -0.12161575
-0.07310021 0.03851439 -0.13928111 -0.028294392 0.07674449 -0.081327066 0.032785293 0.06531847
0.006361362 0.060573246 0.07708015 -0.1996713 0.08723084 0.093053065 -0.10587172 0.05353115
0.107567735 -0.050441343 -0.011452688 -0.022720467 0.01495937 0.027112989 0.009119452 0.0053476724
0.013669875 -0.038086213 -0.17584732 0.06359016 -0.11535488 0.054369517 -0.11223413 -0.076504245
0.040589333 0.0034479862 -0.007081345 -0.09665177 -0.13548122 0.07074096 0.1594766 -0.0707982
-0.064950034 0.0741219 0.013688249 0.07933111 -0.07131785 -0.045575745 0.05529767 0.04855418
0.035189454 0.07646462 -0.009376165 -0.09645093 0.06921389 0.12453735 -0.03212887 -0.03711278
0.0036965532 0.005455097 -0.071277484 -0.12340737 0.063523434 -0.0024827516 0.09754177 -0.041423902
0.07616113 -0.040376138 -0.020594474 -0.011622796 0.01958236 -0.13723426 -0.09934146 0.0283353
0.091799244 -0.20052074 -0.13651127 0.010094755 -0.12240985 0.030014569 -0.0631079 -0.009979954
-0.15044688 0.008562493 -0.07857162 0.063635826 -0.019738194 -0.020002274 0.04105424 -0.071984775
0.10036661 -0.023177044 0.10068339 0.033133306 -0.107517615 0.1312061 -0.27178806 0.05335322
-0.092947714 -0.39235637 0.094954744 -0.05907758 0.041873235 -0.054911338 -0.16058038 -0.010549148
0.03134213 0.026440749 -0.1388862 0.022814453 0.008805943 0.006886876 0.051390555 0.03436922
0.0048640906 0.04945302 -0.07993632 0.06162022 0.018349236 -0.08145841 0.019909304 0.07035225
0.11902383 -0.067213915 0.043032788 0.08480474 -0.057815023 0.054779805 -0.0032850623 -0.1915474
-0.13223131 -0.025508702 -0.10411051 -0.035358 -0.06744076 -0.102516435 0.041129623 0.06781393
-0.15067185 -0.013493689 -0.029886905 0.07994977 -0.008849758 0.022999115 -0.09336609 -0.05003781
0.09523015 -0.047849976 0.08887489 0.029696364 0.021302441 -0.021530291 0.09029707 0.02718851
-0.10095951 0.007536133 -0.016544718 -0.09708149 -0.102048926 0.10545218 -0.06636481 0.03859835
-0.09559242 -0.09826179 -0.08119117 -0.09103404 0.011751405 -0.053741932 0.11596461 0.0402466
00000000: f779 d93d e4e4 93bc 81ee 963c df79 693d
00000010: 00bb 8cbd 7d92 1a3e a2ce 98be 1048 b73d
00000020: 9e76 21bd 1fc5 6d3d 6330 1bbe aca5 6ebb
00000030: 6e91 0dbe 89ef c4bd f90c 91be 25ef f3bc
00000040: 5f97 d0bd 106b 913c d9ed a6bd 86d3 81bb
00000050: 0916 debd 4d6e ec3c 5d1d 2ebe 2d52 1f3b
00000060: b94c c5bd a83f d4ba 2523 713b 3f5e 31bd
00000070: 02e4 9abd f541 02be b022 68bd ad56 6fbd
00000080: 050b b83d ee9d c1bd 4123 083c 0397 2dbd
00000090: 46f3 783d 0475 0a3d 120e acbd d9bd 07bd
000000a0: cd43 1a3c f394 42bd 301a e2bd d77d 53bd
000000b0: a698 0abe 848e 15bb cfe2 e33c bd86 0ebe
000000c0: 451d 8cbd 016d eabb 15fe 8cbd 1b87 80bd
000000d0: efd4 d73c b1ec 26ba d9b1 f13a e41e c73d
000000e0: 7895 ddbd eef9 943d 2ff9 04be 7876 3f3d
000000f0: 0e40 b83d dc94 b9bd 5c83 28bd 93c0 27bd
00000100: 8aef 8fbc c936 c03d bb05 ba3d 24f5 833d
00000110: 0fcd f5bd cfd8 02bd 24b1 4bbc db99 323d
00000120: d666 8c3d dbbe aabd 97aa ebbd 0c81 1ebd
00000130: a7e0 513c 52b0 cd3d 0f9e 3cbe d7d7 5bbe
00000140: b75a 89bd 1492 eaba 133c f5bb a8fc a1bb
00000150: c5a9 983c 96d5 9c3d 4088 17be ae11 f9bd
00000160: 90b5 95bd 44c1 1d3d b59f 0ebe a4c9 e7bc
00000170: 372c 9d3d ce8e a6bd df49 063d b1c5 853d
00000180: f972 d03b a71b 783d 33dc 9d3d a276 4cbe
00000190: 15a6 b23d 9b92 be3d 46d3 d8bd 7b43 5b3d
000001a0: 794c dc3d 959b 4ebd 0ea4 3bbc 4620 babc
000001b0: 2518 753c 0f1c de3c c169 153c 873b af3b
000001c0: 9df7 5f3c 4a00 1cbd 5211 34be 8f3b 823d
000001d0: 2e3f ecbd 92b2 5e3d 02db e5bd 42ae 9cbd
000001e0: 0041 263d 9cf7 613b a10a e8bb 5df1 c5bd
000001f0: 97bb 0abe a3e0 903d d54d 233e a6fe 90bd
00000200: 8604 85bd 39cd 973d ad44 603c 5978 a23d
00000210: 180f 92bd a2ad 3abd cf7f 623d bfe0 463d
00000220: d122 103d 7c99 9c3d 7d9e 19bc 1188 c5bd
00000230: 03c0 8d3d 700d ff3d 9099 03bd 9203 18bd
00000240: df41 723b acc0 b23b eef9 91bd 01bd fcbd
00000250: 9318 823d a9b5 22bb fbc3 c73d 1cac 29bd
00000260: 5efa 9b3d 7361 25bd beb5 a8bc 8a6d 3ebc
00000270: 2f6b a03c 2387 0cbe 8973 cbbd 6e1f e83c
00000280: 3e01 bc3d 4f55 4dbe 9cc9 0bbe 7964 253c
00000290: 04b2 fabd 1de1 f53c b73e 81bd f682 23bc
000002a0: bf0e 1abe b349 0c3c 28ea a0bd 8053 823d
000002b0: feb1 a1bc cfdb a3bc 7e28 283d c16c 93bd
000002c0: 028d cd3d c9dd bdbc 1833 ce3d cab6 073d
000002d0: 3232 dcbd e45a 063e ce27 8bbe e888 5a3d
000002e0: 5f5b bebd efe2 c8be a277 c23d 55fb 71bd
000002f0: 4583 2b3d b6ea 60bd 2f6f 24be 55d6 2cbc
00000300: 9b60 003d 459a d83c 2f38 0ebe 60e5 ba3c
00000310: cd46 103c 4eab e13b e77e 523d bdc6 0c3d
00000320: f362 9f3b 408f 4a3d a7b5 a3bd 7c65 7c3d
00000330: 2351 963c abd3 a6bd d618 a33c d714 903d
00000340: c4c2 f33d 73a7 89bd 2643 303d 1cae ad3d
00000350: 72cf 6cbd ca60 603d 334a 57bb 0025 44be
00000360: a567 07be a0f7 d0bc e437 d5bd 8dd3 10bd
00000370: 621e 8abd 23f4 d1bd 8977 283d 08e2 8a3d
00000380: b949 1abe a214 5dbc 62d5 f4bc b4bc a33d
00000390: 93fe 10bc a468 bc3c b836 bfbd 72f4 4cbd
000003a0: 0608 c33d 56fe 43bd 0a04 b63d ca45 f33c
000003b0: 7582 ae3c 4b60 b0bc aced b83d 70ba de3c
000003c0: dcc3 cebd aaf1 f63b ca88 87bc a9d2 c6bd
000003d0: 07ff d0bd 50f7 d73d 46ea 87bd 4e19 1e3d
000003e0: f5c5 c3bd 7a3d c9bd 8e47 a6bd 0e70 babd
000003f0: f788 403c 8020 5cbd da7e ed3d 9ed9 243d

sequential/dense_2/MatMul f4 [128, 256]
-0.1225218 0.17634597 0.0022327036 0.15601245 -0.019570718 0.037964523 0.15231235 -0.020387014
0.012153511 0.069903426 0.030335741 0.04581554 0.08579465 0.04103734 0.07887346 -0.101974346
-0.06237099 -0.09963216 0.013389993 -0.056298584 -0.049598686 0.24960917 -0.00156098 0.13943386
-0.06904971 -0.13305655 0.12626012 -0.12459305 -0.17971614 -0.18927923 0.10981029 -0.014636522
0.092064865 -0.10147474 -0.12682888 0.22713177 0.101854116 0.12027049 -0.13151138 0.10534835
0.06552834 0.051092293 -0.1384162 0.047226157 -0.029024791 -0.07297834 0.01671473 -0.03436056
0.16028547 0.0029150308 -0.115988314 -0.09497098 -0.03676117 -0.0066628964 0.15004404 0.021214869
-0.10487839 0.011997938 -0.066165835 -0.11046842 0.072813444 0.12579542 -0.037010748 0.00480835
-0.076039694 0.11631096 0.11017909 0.07247088 -0.04325365 -0.05720815 -0.09497953 -0.081563614
0.022718826 -0.14577867 0.096278526 0.015483801 -0.05424179 0.14784725 0.05924391 0.051016234
0.043702446 0.21945703 -0.07599262 -0.054758262 -0.11136622 0.1498088 -0.0128218075 0.04724335
0.09284415 0.19845285 0.059222586 -0.050930213 0.036933407 -0.18186621 0.044570163 0.05309866
-0.13360684 -0.12263508 0.20173149 -0.040730048 0.1288808 -0.14626889 -0.03252589 0.1208169
-0.042308006 -0.0411659 -0.058635235 0.13788427 0.09296734 0.03421882 -0.02119469 0.17496139
0.05080516 -0.09519705 0.0547652 -0.03997611 0.113825746 -0.035614006 -0.08585944 0.10250857
0.20231262 0.1058661 0.26678538 0.12868293 -0.13298018 0.11663045 0.09809388 0.13070038
-0.08162916 0.07354807 -0.0073795803 0.022827249 0.22283675 0.12337166 0.06064144 0.024687361
-0.02386557 0.024116006 0.049520433 -0.092310734 0.012695421 -0.026623748 0.15846239 0.032211583
-0.007762261 0.036208495 -0.03731911 -0.04491304 0.017337574 0.17182605 -0.04955261 -0.08386818
0.026483137 -0.09178747 0.16179764 -0.0654327 0.07663498 0.20901515 0.123158574 0.029293
-0.06982831 0.05580548 -0.036881723 -0.06555332 -0.022939187 -0.09628698 0.080930345 -0.14309968
0.10823038 0.05030802 0.05078003 0.09691364 -0.1150962 0.06228616 0.15255703 0.06609643
0.037416525 -0.032868553 -0.122231446 -0.019820636 -0.12711942 -0.10534519 0.01709073 0.21277536
0.044397637 0.026709266 0.038670607 0.15283343 0.08124083 -0.018077683 -0.082859635 0.0705272
0.088625886 0.052482367 0.13674788 -0.029903928 -0.116663925 0.046846576 -0.13269755 0.00085677643
0.03122907 -0.008334701 0.015836071 0.06619275 0.05909713 -0.10432693 -0.076759025 0.14597954
-0.034411483 -0.12005693 -0.07518104 0.03414513 0.11199112 0.002100243 -0.12872143 -0.06180133
0.0017751367 -0.15755527 -0.07840229 -0.06442284 0.029511338 -0.09285736 0.14576028 -0.13771479
-0.09636329 0.11853394 0.063217975 -0.039497036 0.080662586 0.028342512 0.030574042 0.123996526
-0.004224495 -0.037550632 -0.033466958 -0.0425351 0.030131295 0.19535398 -0.08193855 -0.07145483
0.027900536 -0.11280231 -0.099627905 -0.14780036 0.20460454 0.1900047 -0.088383995 -0.03857524
-0.029279906 0.14138833 0.05391269 0.09385814 -0.037176635 -0.103608675 -0.014513907 0.031716846
00000000: b6ec fabd 0a94 343e 8d52 123b bac1 1f3e
00000010: c552 a0bc b080 1b3d c5f7 1b3e ab02 a7bc
00000020: 851f 473c 8729 8f3d a982 f83c 13a9 3b3d
00000030: 1bb5 af3d c516 283d 6988 a13d edd7 d0bd
00000040: b978 7fbd f20b ccbd b461 5b3c 5899 66bd
00000050: fe27 4bbd 8c99 7f3e cc99 ccba c0c7 0e3e
00000060: ef69 8dbd fa3f 08be 554a 013e a42a ffbd
00000070: 8207 38be 6ad2 41be 38e4 e03d 06ce 6fbc
00000080: 818c bc3d fdd1 cfbd 6edf 01be 3b95 683e
00000090: e498 d03d 6050 f63d ebaa 06be e0c0 d73d
000000a0: b933 863d 2746 513d fabc 0dbe 3770 413d
000000b0: 66c5 edbc ab75 95bd 54ed 883c a9bd 0cbd
000000c0: e021 243e 1a0a 3f3b 488b edbd 2580 c2bd
000000d0: e192 16bd 6d54 dabb 25a5 193e ceca ad3c
000000e0: 7bca d6bd 0093 443c f481 87bd 443d e2bd
000000f0: 371f 953d 84d0 003e 9598 17bd 5d8f 9d3b
00000100: b3ba 9bbd 7134 ee3d 93a5 e13d 9d6b 943d
00000110: bd2a 31bd 1853 6abd a184 c2bd d30a a7bd
00000120: d51c ba3c 0147 15be ad2d c53d c5af 7d3c
00000130: a42c 5ebd 4565 173e bea9 723d 66f6 503d
00000140: 5601 333d 58b9 603e 05a2 9bbd 334a 60bd
00000150: f913 e4bd 7a67 193e 8f12 52bc 3e82 413d
00000160: 1325 be3d 3937 4b3e 6293 723d 339c 50bd
00000170: 7c47 173d 233b 3abe 348f 363d fb7d 593d
00000180: 3bd0 08be 1a28 fbbd b392 4e3e 8dd4 26bd
00000190: 54f9 033e 83c7 15be de39 05bd da6e f73d
000001a0: 294b 2dbd 939d 28bd 802b 70bd 8931 0d3e
000001b0: a965 be3d 0929 0c3d 7da0 adbc 1429 333e
000001c0: 1219 503d acf6 c2bd 7951 603d fdbd 23bd
000001d0: 791d e93d fedf 11bd 13d7 afbd 03f0 d13d
000001e0: 0a2b 4f3e 53d0 d83d 1898 883e 75c5 033e
000001f0: f52b 08be f2db ee3d 72e5 c83d 52d6 053e
00000200: 302d a7bd 5fa0 963d 68d0 f1bb 3600 bb3c
00000210: 512f 643e 48aa fc3d 2963 783d 263d ca3c
00000220: ba81 c3bc ee8e c53c f0d5 4a3d 690d bdbd
00000230: 7500 503c 0c1a dabc f743 223e 4bf0 033d
00000240: 915a febb 5c4f 143d ecdb 18bd bcf6 37bd
00000250: 8707 8e3c 2bf3 2f3e adf7 4abd 15c3 abbd
00000260: 2af3 d83c 12fb bbbd 48ae 253e 9401 86bd
00000270: cdf2 9c3d 1108 563e 903a fc3d e0f7 ef3c
00000280: 2502 8fbd 4994 643d 4a11 17bd d240 86bd
00000290: f6ea bbbc 1c32 c5bd cfbe a53d b988 12be
000002a0: e4a7 dd3d c80f 4e3d b9fe 4f3d a97a c63d
000002b0: 8eb7 ebbd c61f 7f3d e937 1c3e 915d 873d
000002c0: 1242 193d 2da1 06bd 7b54 fabd e35e a2bc
000002d0: 982b 02be 38bf d7bd dc01 8c3c c9e1 593e
000002e0: 4cda 353d 64cd da3c 1265 1e3d 5e80 1c3e
000002f0: 9861 a63d a617 94bc 50b2 a9bd 9170 903d
00000300: 7d81 b53d c0f7 563d a307 0c3e 15f9 f4bc
00000310: 7fed eebd 32e2 3f3d dee1 07be 4b99 603a
00000320: 1bd4 ff3c 458e 08bc a6ba 813c 1190 873d
00000330: d50f 723d 5ca9 d5bd d633 9dbd a97b 153e
00000340: 0ef3 0cbd 68e0 f5bd 84f8 99bd c4db 0b3d
00000350: 9a5b e53d 3ba4 093b 8dcf 03be 6423 7dbd
00000360: b4ab e83a 2b56 21be 6191 a0bd 1ff0 83bd
00000370: c3c1 f13c 002c bebd 2f42 153e 1b05 0dbe
00000380: 1e5a c5bd ecc1 f23d 6d78 813d a5c7 21bd
00000390: 6d32 a53d 8e2e e83c 6a76 fa3c e4f1 fd3d
000003a0: a26d 8abb b1ce 19bd a614 09bd 4939 2ebd
000003b0: e8d5 f63c e00a 483e 66cf a7bd e956 92bd
000003c0: aa8f e43c e604 e7bd b709 ccbd fa58 17be
000003d0: da83 513e 9890 423e ab02 b5bd 1201 1ebd
000003e0: 6adc efbc 1ac8 103e 8ed3 5c3d b238 c03d
000003f0: 8746 18bd c930 d4bd bdcb 6dbc 86e9 013d

sequential/dense_3/MatMul f4 [128, 128]
-0.05445742 0.03531047 -0.12747042 0.08004498 -0.10380939 0.136863 0.15059768 -0.08101614
0.07528398 -0.052631434 0.10161367 -0.054318383 -0.120332815 -0.09310471 -0.090854265 0.061265007
0.09801181 -0.08186443 0.14428528 0.07442944 0.019540817 0.020101767 0.12511978 0.07601028
-0.09996836 -0.13341893 0.051687244 -0.15762413 -0.087287344 -0.07564052 0.005960481 0.026767021
-0.16284451 -0.045918413 -0.029043743 -0.06798782 -0.12117739 -0.17177442 -0.08329362 -0.092397295
-0.07533557 0.07166357 0.019274993 -0.01376663 -0.0034479098 -0.008241111 -0.06501128 -0.030124739
-0.048164394 -0.050134525 0.022408508 0.04656724 0.065120056 0.11066289 0.04369927 0.0042810817
0.0020392444 0.07868927 -0.020490631 0.06635646 0.118443295 0.044424433 -0.10922471 -0.11853294
-0.0005825428 -0.03094272 -0.018825129 -0.14096557 -0.089377075 0.09496502 -0.15295479 -0.106575556
0.0054768324 -0.12492775 -0.1278336 -0.050979156 0.09761158 -0.1543793 0.039496787 -0.10096266
-0.053343866 0.033855326 -0.06951465 0.053263437 -0.01922387 -0.09883084 -0.02183244 0.016134277
0.11308797 0.08796901 0.06411294 0.072375685 -0.13403615 -0.096367925 -0.052117344 -0.0872762
0.006141923 0.05095244 0.055237554 0.046171833 -0.030584054 -0.10633197 0.075511396 -0.008752568
0.058462203 0.075296335 -0.10121986 -0.1636513 0.00456693 0.025920963 -0.12438433 0.12381332
0.060398825 0.039600745 -0.16209128 -0.15191773 0.09052244 0.08154437 -0.03616027 -0.13289638
-0.10653153 -0.118266255 -0.0008039025 -0.10238524 -0.16655321 0.072590284 -0.098884866 -0.01795507
-0.05766265 -0.104712784 0.033797584 0.015377235 0.10659265 -0.21647315 -0.05095746 -0.11676015
0.13103084 -0.12492361 0.072209254 0.001473885 0.025814474 0.14745755 0.075073645 -0.11469794
0.107393734 0.07067762 0.14071251 0.010086591 -0.21400383 0.2197457 -0.026232304 -0.14029428
0.020463757 0.011906644 0.17914662 -0.041813098 0.08515669 0.050278924 -0.08341443 -0.05835335
0.022857236 0.15151313 -0.10918385 0.22722968 -0.15862893 -0.16350691 -0.066698365 -0.02974462
-0.15517975 0.17982256 0.14139444 0.09186246 0.0044096387 0.0034162088 -0.07747045 0.12229665
-0.19695589 -0.15443711 -0.09179465 0.067937955 0.2102525 0.141788 -0.003928056 0.23928592
-0.11751108 -0.09123906 0.074800976 0.026185423 0.052881505 -0.12237478 0.00060129125 0.17038575
0.060123578 -0.025852298 0.02167661 0.13768366 -0.017847806 -0.16480349 -0.041805357 -0.17148466
0.08899226 -0.1346928 0.16262479 0.08929537 0.22069699 -0.028416594 0.34386352 0.0011543427
-0.02704294 -0.08344506 -0.14352255 0.011248551 0.09407897 -0.068521924 -0.122153915 -0.013408779
0.03084376 -0.046585407 -0.0026927446 0.030538762 0.1935544 -0.11894241 0.11824832 0.07664752
-0.15978935 -0.16029315 0.11965408 -0.104714826 -0.14847419 -0.0125908535 -0.055854056 -0.09141045
0.083263226 0.011344606 0.16169922 0.102296256 0.072000474 -0.071015224 -0.16019465 -0.17935216
-0.11546059 0.06830111 0.1453353 -0.09000151 0.03461134 -0.005791687 0.061644264 0.14625283
-0.028730072 0.021510812 -0.0054408642 0.2042261 0.00096852344 -0.21234396 0.12762022 -0.10852643
00000000: be0e 5fbd b6a1 103d 9b87 02be 9fee a33d
00000010: 049a d4bd d025 0c3e 4736 1a3e caeb a5bd
00000020: 7d2e 9a3d 0f94 57bd d41a d03d f47c 5ebd
00000030: 0d71 f6bd afad bebd cd11 babd 04f1 7a3d
00000040: 6aba c83d 8aa8 a7bd 85bf 133e 766e 983d
00000050: 1014 a03c 76ac a43c 661f 003e 47ab 9b3d
00000060: 36bc ccbd f99e 08be 01b6 533d 3868 21be
00000070: b5c3 b2bd 6be9 9abd 2350 c33b 8346 db3c
00000080: b6c0 26be f214 3cbd 25ed edbc 333d 8bbd
00000090: da2b f8bd a2e5 2fbe d895 aabd cb3a bdbd
000000a0: 8949 9abd 5ac4 923d 97e6 9d3c 6e8d 61bc
000000b0: 54f6 61bb ba05 07bc a224 85bd 28c8 f6bc
000000c0: 0748 45bd dc59 4dbd 0c92 b73c 4abd 3e3d
000000d0: aa5d 853d 3aa3 e23d 01fe 323d 5148 8c3b
000000e0: d8a4 053b d727 a13d f8db a7bc e5e5 873d
000000f0: 6692 f23d 65f6 353d 34b1 dfbd 66c1 f2bd
00000100: c9b5 18ba 967b fdbc 2837 9abc 4759 10be
00000110: 540b b7bd 057d c23d 2ea0 1cbe 4944 dabd
00000120: 0077 b33b 1fda ffbd d0e6 02be 85cf 50bd
00000130: 94e8 c73d 9b15 1ebe 62c7 213d 83c5 cebd
00000140: 197f 5abd e2ab 0a3d b25d 8ebd c32a 5a3d
00000150: 617b 9dbc d367 cabd f2d9 b2bc 082c 843c
00000160: aa9a e73d 1929 b43d a54d 833d b439 943d
00000170: c640 09be 8c5c c5bd ff78 55bd ddbd b2bd
00000180: 2f42 c93b 81b3 503d c640 623d ad1e 3d3d
00000190: 698b fabc 93c4 d9bd b8a5 9a3d ee66 0fbc
000001a0: 1076 6f3d f734 9a3d 5c4c cfbd 3594 27be
000001b0: 2fa6 953b 3358 d43c 36bd febd d791 fd3d
000001c0: c264 773d 6434 223d 42fb 25be 5290 1bbe
000001d0: d463 b93d bc00 a73d cb1c 14bd fd15 08be
000001e0: 342d dabd 9435 f2bd fcbc 52ba 5aaf d1bd
000001f0: ed8c 2abe 37aa 943d 2684 cabd 8316 93bc
00000200: ac2f 6cbd a873 d6bd 566f 0a3d ccf0 7b3c
00000210: 3f4d da3d 23ab 5dbe c5b8 50bd f21f efbd
00000220: f32c 063e f3d7 ffbd 72e2 933d 602f c13a
00000230: e078 d33c 1dff 163e 36c0 993d c1e6 eabd
00000240: 3ff1 db3d 6ebf 903d f116 103e 3b42 253c
00000250: d223 5bbe 0405 613e 21e5 d6bc 4ea9 0fbe
00000260: 9ca3 a73c 1614 433c 3672 373e 3644 2bbd
00000270: a166 ae3d 46f1 4d3d 2fd5 aabd ec03 6fbd
00000280: 193f bb3c 4226 1b3e c89b dfbd e6ae 683e
00000290: 9f6f 22be 5b6e 27be 2799 88bd fdaa f3bc
000002a0: 71e7 1ebe 6823 383e b4c9 103e 6322 bc3d
000002b0: bb7e 903b 79e2 5f3b d4a8 9ebd ab76 fa3d
000002c0: ceae 49be c324 1ebe d5fe bbbd 0e23 8b3d
000002d0: 6e4c 573e e030 113e ecb6 80bb 5e07 753e
000002e0: a6a9 f0bd 8bdb babd 4131 993d d082 d63c
000002f0: 479a 583d a19f fabd f99f 1d3a 9a79 2e3e
00000300: 2444 763d 33c8 d3bc 2593 b13c f2fc 0c3e
00000310: 9035 92bc 3fc2 28be 183c 2bbd ad99 2fbe
00000320: 9341 b63d e9ec 09be 1d87 263e 7ee0 b63d
00000330: 64fe 613e ebc9 e8bc e10e b03e 504d 973a
00000340: 2889 ddbc 3ee5 aabd 93f7 12be d84b 383c
00000350: 7aac c03d 3955 8cbd d52b fabd 7fb0 5bbc
00000360: 0eac fc3c 57d0 3ebd c278 30bb 6d2c fa3c
00000370: 2033 463e 1498 f3bd 2d2c f23d 60f9 9c3d
00000380: d29f 23be e323 24be 330d f53d ba74 d6bd
00000390: 9e09 18be de49 4ebc 39c7 64bd 6735 bbbd
000003a0: e985 aa3d bade 393c 7b94 253e b380 d13d
000003b0: fc74 933d 6e70 91bd 110a 24be 18a8 37be
000003c0: 9a76 ecbd 74e1 8b3d c7d2 143e b652 b8bd
000003d0: 9fc4 0d3d 31c8 bdbb b27e 7c3d 4dc3 153e
000003e0: 545b ebbc 7137 b03c 4749 b2bb a620 513e
000003f0: 82e4 7d3a b270 59be e0ae 023e 1b43 debd
