offlineModels/NN/tfLite/tfLiteModelConverted/generic.tflite (tflite, 483080 bytes, 10 tensors)

sequential/dense/BiasAdd/ReadVariableOp f4 [256]
0.05347322 -0.0058107795 0.022948513 0.06306076 -0.07152039 -0.035018172 -0.0026427822 0.0237076
0.0032818185 0.007888364 0.060780536 0.047638334 0.06456712 -0.057477605 -0.037520543 -0.047163956
-0.057643287 0.001619772 -0.026924454 0.06410485 0.06520817 -0.056431666 0.048868153 0.04472647
0.0417035 -0.026260834 0.017409883 -0.002370426 0.0017382146 0.07387473 0.07082899 0.010163287
0.030092295 -0.025078237 0.02381638 -0.031494323 -0.04307164 0.017403394 0.00622935 -0.071263336
0.027540224 -0.080661714 -0.044302937 -0.01871473 0.0026774278 0.044481494 0.026883606 -0.03525246
0.010717533 -0.035112005 -0.017615777 -0.03541779 0.06337898 0.01997994 0.055046443 -0.05500765
0.0032326821 -0.0035347897 0.025600893 0.08755573 0.035914198 0.015606703 -0.030736055 0.0077031823
0.07335677 -0.026704542 0.00017781652 -0.035487857 -0.0023334522 -0.000977888 0.013780141 0.024797024
0.09639932 -0.01261606 0.088592716 -0.0015801659 -0.060150404 -0.027429257 -0.015800409 0.021815844
-0.04936608 0.014270274 0.027951762 0.012468847 0.015725125 -0.05234539 0.0114500085 -0.0073591005
0.03965808 -0.07255381 -0.0816366 -0.0032030593 0.04298093 -0.020065453 0.04879173 -0.0024255854
0.028462948 -0.0052843313 0.07459508 0.026480298 0.0018944045 -0.05793861 0.049373806 -0.09021832
-0.06252877 0.040096957 -0.07776271 -0.022629956 0.031894904 -0.009640896 -0.0043542506 0.0036343145
-0.024694184 -0.02190022 -5.5715136e-05 0.024950901 -0.026312266 -0.019554472 0.041303128 0.05613698
0.020465698 0.03728561 0.035791244 -0.023992058 0.0676782 -0.006039533 0.06150724 0.06301093
0.029118085 -0.013034589 -0.077419624 -0.047535844 0.014273151 0.038256623 0.044881888 0.052270994
0.027618172 -0.01738779 -0.0611127 0.080688976 -0.048607443 -0.057189967 -0.05991708 0.12768406
0.012373549 0.0066638314 0.050505865 0.012188817 -0.0115868645 -0.05682345 -0.037185375 -0.04390728
0.01916695 0.025498074 -0.037018348 -0.04653046 0.04096702 -0.015284727 -0.010721316 -0.059839144
-0.020712208 0.059116714 0.021001652 0.027772563 0.0081974715 -0.033167567 0.04381326 0.011533744
0.03438379 0.06689151 -0.008527221 0.06515155 -0.005152204 0.019507322 0.061783906 0.020365732
0.00647705 -0.01186653 0.050057992 0.01779685 -0.027944058 -0.0062072594 0.032489724 -0.05700585
-0.020096038 0.0064199995 0.07880595 -0.025004042 -0.052133154 -0.003790043 0.008500364 0.022253867
-0.027641758 -0.06970872 0.022199152 0.075613484 0.020515231 -0.005087057 -0.07941225 -0.016735522
-0.02436993 -0.074198134 -0.04078336 -0.055603832 -0.0754939 0.026027722 -0.021280866 -0.04000495
0.00480316 -0.012231304 0.045259405 -0.027858173 -0.06425826 0.0073772823 -0.049419288 0.047734473
-0.010936473 0.04675861 0.042937573 0.02029943 0.07755831 0.041264202 0.023185184 -0.07722819
-0.00286708 -0.04919388 0.03283315 -0.02696922 -0.048536535 -0.04369203 -0.057981238 0.06985318
-0.04882648 -0.0224828 -0.03866083 -0.069080375 0.057494123 -0.0037470846 -0.063382424 0.11446133
0.0007666266 -0.040634546 -0.07185744 -0.049242593 0.056415007 -0.016372398 -0.048537247 -0.024867788
-0.061342314 -0.0127936285 0.03896538 0.019784944 -0.039648935 0.0054164156 0.08685251 -0.041479126
00000000: bc06 5b3d 5a68 bebb 85fe bb3c 0026 813d
00000010: 4879 92bd 376f 0fbd 8732 2dbb 7136 c23c
00000020: c713 573b 323e 013c 03f5 783d 6a20 433d
00000030: c43b 843d a36d 6bbd 24af 19bd fe2e 41bd
00000040: 5e1b 6cbd 884e d43a ac90 dcbc 6749 833d
00000050: dc8b 853d e424 67bd f929 483d 1a33 373d
00000060: 4ad1 2a3d f620 d7bc 2c9f 8e3c 2659 1bbb
00000070: ced4 e33a a24b 973d ca0e 913d ea83 263c
00000080: 1e84 f63c e070 cdbc 921a c33c 3100 01bd
00000090: e36b 30bd 9091 8e3c 931f cc3b 83f2 91bd
000000a0: 099c e13c f831 a5bd ff76 35bd a24f 99bc
000000b0: c977 2f3b 3a32 363d 023b dc3c e264 10bd
000000c0: 9798 2f3c 9bd1 0fbd f64e 90bc 3f12 11bd
000000d0: d7cc 813d f9ac a33c 6178 613d b44f 61bd
000000e0: 68db 533b eea7 67bb f7b8 d13c 6b50 b33d
000000f0: c41a 133d 42b3 7f3c 2eca fbbc fa6a fc3b
00000100: 133c 963d 7cc3 dabc 4274 3a39 b75b 11bd
00000110: d5ec 18bb 7a2c 80ba 1ac6 613c 2123 cb3c
00000120: 026d c53d 97b3 4ebc 1970 b53d 921d cfba
00000130: 4560 76bd 52b3 e0bc dc6f 81bc 24b7 b23c
00000140: 1634 4abd decd 693c 18fb e43c 234a 4c3c
00000150: fad1 803c 1f68 56bd d198 3b3c 9c24 f1bb
00000160: 8370 223d 1897 94bd 1731 a7bd 6bea 51bb
00000170: c60c 303d 4e60 a4bc d6d9 473d 92f6 1ebb
00000180: 212b e93c 2f28 adbb 4ec5 983d 36ed d83c
00000190: ab4d f83a 0951 6dbd 303c 4a3d 62c4 b8bd
000001a0: 150f 80bd b53c 243d 0e42 9fbd 7562 b9bc
000001b0: 3ba4 023d d9f4 1dbc 1aae 8ebb ae2d 6e3b
000001c0: 754b cabc 1768 b3bc acaf 69b8 d565 cc3c
000001d0: d28c d7bc b330 a0bc 782d 293d e4ef 653d
000001e0: aea7 a73c ccb8 183d d799 123d fe8a c4bc
000001f0: de9a 8a3d 46e7 c5bb 04ef 7b3d e00b 813d
00000200: 0d89 ee3c 078f 55bc 2e8e 9ebd f2b4 42bd
00000210: efd9 693c fab2 1c3d 12d6 373d 1c1a 563d
00000220: 813f e23c d770 8ebc 4f51 7abd 4340 a53d
00000230: 9918 47bd 0740 6abd 9d6b 75bd 9cbf 023e
00000240: 6dba 4a3c 455c da3b 3ddf 4e3d 9bb3 473c
00000250: d5d6 3dbc b5bf 68bd b14f 18bd 1fd8 33bd
00000260: 0204 9d3c 56e1 d03c 8da0 17bd b996 3ebd
00000270: 09cd 273d cb6c 7abc 75a8 2fbc e419 75bd
00000280: a6ac a9bc 5e24 723d a80b ac3c 4983 e33c
00000290: b04e 063c b7da 07bd 8875 333d 07f8 3c3c
000002a0: 04d6 0c3d 6afe 883d c2b5 0bbc 2d6e 853d
000002b0: d2d3 a8bb d2cd 9f3c 1f11 7d3d 09d6 a63c
000002c0: 6f3d d43b d66b 42bc 9c09 4d3d b3ca 913c
000002d0: f0ea e4bc 4466 cbbb f213 053d f77e 69bd
000002e0: 72a0 a4bc dc5e d23b 0465 a13d 47d5 ccbc
000002f0: 9389 55bd 5f62 78bb 1c45 0b3c be4d b63c
00000300: f870 e2bc 72c3 8ebd ffda b53c 3edb 9a3d
00000310: 8f0f a83c 54b1 a6bb e4a2 a2bd ef18 89bc
00000320: 73a3 c7bc 31f5 97bd 740c 27bd d8c0 63bd
00000330: 8c9c 9abd 1738 d53c 3655 aebc 3bdc 23bd
00000340: d463 9d3b cf65 48bc ed61 393d d336 e4bc
00000350: d699 83bd 21bd f13b e16b 4abd 3985 433d
00000360: e42e 33bc f585 3f3d 4fdf 2f3d fd4a a63c
00000370: e4d6 9e3d a704 293d dbee bd3c d029 9ebd
00000380: 9fe5 3bbb 867f 49bd 0e7c 063d 8eee dcbc
00000390: 3fce 46bd 6af6 32bd bc7d 6dbd 2f0f 8f3d
000003a0: 46fe 47bd d92d b8bc d25a 1ebd 037a 8dbd
000003b0: f57e 6b3d a691 75bb a5ce 81bd b46a ea3d
000003c0: 71f7 483a 6970 26bd fe29 93bd 9ab2 49bd
000003d0: 6c13 673d 681f 86bc fece 46bd 88b7 cbbc
000003e0: 1442 7bbd 5e9c 51bc 2a9a 1f3d 0914 a23c
000003f0: ec66 22bd 307c b13b bbdf b13d 04e6 29bd

sequential/dense_3/BiasAdd/ReadVariableOp f4 [6]
0.019175848 0.06925812 -0.061033506 0.00395626 -0.017175885 -0.03479787
00000000: ab16 9d3c 34d7 8d3d 45fe 79bd 84a3 813b
00000010: 71b4 8cbc 3688 0ebd

sequential/dense_2/BiasAdd/ReadVariableOp f4 [128]
0.101821765 0.020445393 0.008227215 0.07989908 0.0049729343 -0.033093426 0.012365105 -0.0032333385
0.065199725 0.032314584 0.12163672 0.028312935 -0.039816912 -0.012526626 -0.011383629 0.0025652114
0.06731986 -0.015922414 0.0240983 0.045584064 0.008566463 0.010602255 -0.007923249 0.015311021
0.029107343 0.020008292 0.064146504 0.008257319 0.07127519 -0.030645952 0.00788343 -0.0013614193
0.023248447 0.02115571 0.05174037 0.011007711 -0.010030956 -0.03817047 0.025731245 0.00080987485
0.010887936 0.03576954 0.03362632 0.02915791 -0.006492295 0.033624556 -0.034148935 -0.0030596096
-0.008131477 -0.008702951 -0.025900288 0.0372031 0.030126467 0.009104411 0.02710144 0.07375046
0.007903011 0.024410846 0.0037229536 0.020263612 -0.01216871 -0.022689365 0.0196862 0.0407347
0.018957175 0.0022936335 0.025030045 0.04579888 -0.011072717 -0.028486371 0.016174888 -0.027971277
0.040945355 0.0188695 0.09882465 -0.028872648 0.0013654846 0.054793123 0.046320833 0.056337833
-0.029103594 0.0613565 -0.010834564 0.013976764 -0.0022276768 -0.007074942 -0.007681052 -0.0022151314
0.0045732493 -0.016707316 0.06142914 0.0070981807 0.026748743 0.012697876 -0.0017079089 0.08293642
0.0032046456 0.007725386 0.022201449 -0.021977395 0.009151288 0.010441908 0.016303768 0.018843012
-0.010625296 0.010179938 -0.0077266796 -0.0101785315 0.010421305 0.026678097 -0.01401118 0.009624854
-0.0008575692 0.017348554 0.0980064 -0.005639353 0.06954191 -0.025430072 0.038238015 0.025446052
-0.0075461585 0.037555538 0.034864202 0.008865883 0.0760968 -0.014217868 0.025140084 -0.021381345
00000000: ee87 d03d 197d a73c 71cb 063c 21a2 a33d
00000010: fff3 a23b f98c 07bd 0297 4a3c 6be6 53bb
00000020: 6f87 853d 4c5c 043d ac1c f93d 87f0 e73c
00000030: 0f17 23bd 7a3c 4dbc 6782 3abc 1b1d 283b
00000040: ffde 893d b96f 82bc cc69 c53c 5bb6 3a3d
00000050: 5a5a 0c3c 15b5 2d3c 84d0 01bc 14db 7a3c
00000060: 8672 ee3c 6ee8 a33c 3e5f 833d b549 073c
00000070: baf8 913d 380d fbbc 8129 013c a771 b2ba
00000080: 8773 be3c bd4e ad3c b6ed 533d b059 343c
00000090: e158 24bc a458 1cbd 55ca d23c c84d 543a
000000a0: 5063 323c 1583 123d c1bb 093d 92dc ee3c
000000b0: 51bd d4bb e7b9 093d c1df 0bbd bb83 48bb
000000c0: e339 05bc d296 0ebc d72c d4bc 4762 183d
000000d0: c8cb f63c ab2a 153c d703 de3c 7b0a 973d
000000e0: a17b 013c 41f9 c73c ccfc 733b e0ff a53c
000000f0: 455f 47bc 0cdf b9bc f444 a13c 6ed9 263d
00000100: 144c 9b3c c950 163b cf0b cd3c 9b97 3b3d
00000110: 576a 35bc 405c e9bc 3381 843c 0524 e5bc
00000120: 51b6 273d 3694 9a3c 9464 ca3d 5586 ecbc
00000130: 0ffa b23a c16e 603d eaba 3d3d 80c2 663d
00000140: a96a eebc f450 7b3d 7583 31bc ccfe 643c
00000150: 37fe 11bb ead4 e7bb 56b1 fbbb bd2b 11bb
00000160: 32db 953b c8dd 88bc 1f9d 7b3d db97 e83b
00000170: 2e20 db3c c10a 503c eadb dfba 92da a93d
00000180: 0805 523b 3c25 fd3b d0df b53c f009 b4bc
00000190: 49ef 153c 8914 2b3c 7b8f 853c a95c 9a3c
000001a0: b915 2ebc c1c9 263c 1630 fdbb dbc3 26bc
000001b0: 1fbe 2a3c 068c da3c 268f 65bc 90b1 1d3c
000001c0: 7fce 60ba 8e1e 8e3c 94b7 c83d 52ca b8bb
000001d0: fd6b 8e3d ba52 d0bc 779f 1c3d 3d74 d03c
000001e0: c445 f7bb d6d3 193d c4cd 0e3d 3542 113c
000001f0: a4d8 9b3d 10f2 68bc 94f2 cd3c ee27 afbc

sequential/dense_1/BiasAdd/ReadVariableOp f4 [256]
0.012755605 0.030991623 0.0061748885 0.017709976 -0.011938641 -0.0099151 -0.009782529 -0.0069584916
0.027064577 -0.03227239 0.012695123 -0.018469416 -0.012675724 -0.0070538437 0.004631397 0.030658234
0.035067525 0.010460817 -0.045589276 -0.019796845 -0.001553794 0.07048032 -0.0101837795 0.03971103
-0.014850218 0.009688741 0.056074508 -0.049856987 -0.010370252 -0.017536337 0.024763169 0.039563756
0.062024746 -0.0007266179 0.02812658 0.064153165 0.03850193 0.03392577 -0.028603734 0.008683991
0.014568245 -0.011427584 0.004766576 -0.02058008 0.007167549 -0.01810018 -0.012533144 -0.012759365
-0.023950256 0.025826883 -0.020870365 0.00417295 -0.04043356 -0.044527464 0.012927899 0.019401517
-0.025523903 0.03471947 -0.011707257 0.0020759013 0.06285669 0.0030136583 -0.050588068 0.0077474024
0.010427454 0.017093476 -0.008798934 -0.025879877 -0.032267466 -0.03530083 0.009093773 -0.0076113604
0.04841291 -0.03756383 0.017160997 -0.04002392 0.054650217 0.079831764 0.016407102 0.029690675
-0.0534852 -0.007475331 0.019167036 0.005186539 0.00526348 0.042544354 0.008293187 -0.010948896
0.01471727 0.038507137 -0.0095245475 -0.0020883307 -0.020439263 -0.013978853 -0.009932905 0.020853646
-0.031341713 -0.0038109238 0.04427913 -0.05452773 0.04129699 -0.06944695 0.013893986 -0.019644363
0.004373864 -0.049089145 0.03945399 0.010448769 0.0014075827 0.0012704014 0.032565784 0.022709643
-0.01932794 -0.008074664 0.028377844 -0.052566558 -0.015265993 0.026061065 -0.005170015 0.0012388314
0.05425602 -0.010740913 0.07737136 0.05524614 -0.0016715414 -0.0046570958 0.01722046 -0.059696294
-0.0077266414 0.027727243 0.0324197 -0.037325855 0.075100385 0.042217206 -0.033382196 0.018616965
-0.017785002 -0.0126398085 0.044780545 -0.0029120913 0.0037704639 -0.0050674714 0.042440828 0.026346382
-0.020764152 -0.0042663515 -0.006022074 -0.009167702 0.015187164 0.036810484 -0.014910397 -0.02501529
-0.010596198 0.0117582055 0.0477173 -0.009887964 0.0030061186 0.040546987 0.018971996 0.009217265
-0.01662212 -0.01745892 -0.0075880014 -0.04033509 0.021509629 -0.0027424472 0.0543543 -0.003962694
-0.008954415 0.039794624 -0.0012757813 0.020448636 -0.039600026 -0.023361854 0.019585604 -0.0011253218
-0.007127423 0.017034063 -0.026206974 0.0015224781 -0.020998824 0.010732606 0.0013794556 0.052370038
0.003744497 -0.019604143 -0.0085819075 0.034850784 0.0047772555 -0.010540807 0.010241229 0.002981574
0.020480672 0.014868626 0.081596285 -0.021426063 -0.03929541 -0.0004445267 0.0043682135 0.020071426
0.027579501 0.013794941 0.015458052 -0.0008711666 -0.013704809 -0.014107162 -0.05299082 0.01197948
0.0052845506 -0.015053772 0.0036251016 0.034250442 0.041411374 0.041100413 -0.023581332 -0.027391633
0.015053585 0.010703448 -0.03720406 0.0023515967 -0.010966068 0.0080159195 0.007604693 -0.0047793565
0.003944561 -0.023741562 -0.0073017743 -0.017609162 -0.004466538 0.04501262 0.021275902 -0.020541213
0.0042418162 -0.008639724 0.003888597 0.00803574 -0.009106306 0.06187839 -0.024008809 -0.05095921
-0.012142891 -0.0014924124 -0.028948465 -0.037710484 0.032616906 0.050592236 -0.01924424 0.06271436
-0.04221876 -0.02191693 0.004631577 0.014786814 -0.008115171 -0.0014688983 0.02308141 0.017221855
00000000: e3fc 503c 25e2 fd3c b856 ca3b 8314 913c
00000010: 4a9a 43bc f272 22bc e746 20bc 0f04 e4bb
00000020: 88b6 dd3c 0e30 04bd 35ff 4f3c 2c4d 97bc
00000030: d7ad 4fbc ee23 e7bb f9c2 973b fa26 fb3c
00000040: f7a2 0f3d d963 2b3c d2bb 3abd fe2c a2bc
00000050: ada8 cbba fc57 903d ded9 26bc 08a8 223d
00000060: 544e 73bc 86bd 1e3c 62ae 653d d736 4cbd
00000070: fde7 29bc 5da8 8fbc 21dc ca3c 9b0d 223d
00000080: a90d 7e3d 807a 3eba b769 e63c bc62 833d
00000090: 33b4 1d3d c0f5 0a3d 6152 eabc 4c47 0e3c
000000a0: a6af 6e3c c33a 3bbc f030 9c3b 8e97 a8bc
000000b0: c2dd ea3b d446 94bc d157 4dbc a80c 51bc
000000c0: 5433 c4bc e692 d33c 54f8 aabc 3ebd 883b
000000d0: a99d 25bd 6e62 36bd 8acf 533c eeef 9e3c
000000e0: 8117 d1bc 0136 0e3d cbcf 3fbc d80b 083b
000000f0: 02bb 803d cc80 453b 6f35 4fbd ecdd fd3b
00000100: e9d7 2a3c 9e07 8c3c 6729 10bc 0902 d4bc
00000110: e42a 04bd 9a97 10bd 0cfe 143c b868 f9bb
00000120: 9e4c 463d 88dc 19bd 3895 8c3c 1ff0 23bd
00000130: e8d8 5f3d d67e a33d 3068 863c dc39 f33c
00000140: 4c13 5bbd 9ff3 f4bb 3004 9d3c d8f3 a93b
00000150: 4579 ac3b fd42 2e3d 26e0 073c 0063 33bc
00000160: b420 713c a9b9 1d3d d90c 1cbc 60dc 08bb
00000170: 3e70 a7bc 8f07 65bc a0bd 22bc 44d5 aa3c
00000180: 2b60 00bd b1c0 79bb 085e 353d 7858 5fbd
00000190: 0827 293d 343a 8ebd 9aa3 633c 37ed a0bc
000001a0: a152 8f3b b311 49bd 829a 213d 5031 2b3c
000001b0: a37e b83a 9983 a63a b363 053d 9309 ba3c
000001c0: a155 9ebc 984b 04bc a778 e83c 0850 57bd
000001d0: 371e 7abc 047e d53c 3b69 a9bb 4960 a23a
000001e0: 8f3b 5e3d a8fa 2fbc e074 9e3d c749 623d
000001f0: 9f17 dbba 8d9a 98bb ec11 8d3c 1a84 74bd
00000200: c42f fdbb 3e24 e33c 85ca 043d ffe2 18bd
00000210: 3bce 993d f3eb 2c3d c5bb 08bd 9b82 983c
00000220: dab1 91bc 3317 4fbc ce6b 373d c9d8 3ebb
00000230: e319 773b 080d a6bb 6fd6 2d3d 5ed4 d73c
00000240: 9519 aabc c0cc 8bbb d154 c5bb 2134 16bc
00000250: 95d3 783c 97c6 163d bd4a 74bc deec ccbc
00000260: ad9b 2dbc 7da5 403c 3773 433d 2101 22bc
00000270: 4d02 453b 9914 263d 296b 9b3c 0304 173c
00000280: 1d2b 88bc 0206 8fbc c5a4 f8bb 6836 25bd
00000290: f634 b03c a1ba 33bb 9da2 5e3d 7dd9 81bb
000002a0: 8ab5 12bc b0ff 223d 1e38 a7ba e683 a73c
000002b0: a333 22bd 5c61 bfbc fd71 a03c 897f 93ba
000002c0: 288d e9bb 058b 8b3c 02b0 d6bc e38d c73a
000002d0: ba05 acbc d0d7 2f3c d9ce b43a f781 563d
000002e0: 3c66 753b de98 a0bc 219b 0cbc b2bf 0e3d
000002f0: 868a 9c3b 59b3 2cbc d4ca 273c 8366 433b
00000300: 15c7 a73c 8a9b 733c f41b a73d b685 afbc
00000310: 39f4 20bd 5d0f e9b9 3b23 8f3b d56c a43c
00000320: 68ee e13c 2d04 623c c543 7d3c 005f 64ba
00000330: 238a 60bc ba21 67bc e70c 59bd 9545 443c
00000340: 062a ad3b 19a4 76bc 1d93 6d3b 314a 0c3d
00000350: f99e 293d e858 283d a32d c1bc 6b64 e0bc
00000360: 50a3 763c 845d 2f3c 4963 18bd 3f1d 1a3b
00000370: 06ab 33bc 3455 033c ca30 f93b 269c 9cbb
00000380: 6041 813b aa7d c2bc b943 efbb 1741 90bc
00000390: 095c 92bb 275f 383d cd4a ae3c 0c46 a8bc
000003a0: effe 8a3b a18d 0dbc d5d7 7e3b 56a8 033c
000003b0: 9e32 15bc 3274 7d3d 1fae c4bc 9bba 50bd
000003c0: faf2 46bc 0d9d c3ba 5525 edbc 4f76 1abd
000003d0: 4e99 053d ce39 4f3d 19a6 9dbc 6370 803d
000003e0: 94ed 2cbd 228b b3bc 7cc4 973b 6544 723c
000003f0: 7ff5 04bc 0c88 c0ba 3a15 bd3c d914 8d3c

sequential/base/BiasAdd/ReadVariableOp f4 [128]
-0.026274323 0.035732064 0.10265938 -0.0030525073 0.014078172 0.028155556 0.011278156 0.028931027
0.054391384 0.045240268 0.0122909965 -0.023261622 -0.005762248 0.17917553 0.026963305 0.026172595
-0.0040394976 0.025527485 -0.009276748 -0.0013517113 -0.0037850584 -0.006037923 0.009630669 0.07921526
0.09968358 0.19808276 -0.015529928 0.036169704 -0.020087028 0.0068043126 0.049410455 0.06818866
0.08884323 -0.020601586 -0.006282174 0.15363297 -0.021933708 0.02294465 -0.009901719 0.084830366
-0.030712662 0.0015907831 0.057810944 -0.038449496 0.010407179 -0.0068311687 0.027929798 -0.018348636
0.055013157 0.008779711 0.015521571 0.07346802 -0.022935854 -0.009549924 0.035234984 0.035063937
-0.0003357381 0.038638067 0.047802687 0.0224897 -0.02998881 0.016837116 0.09777752 0.051117342
0.010895548 0.005056166 0.0072214524 0.0346462 -0.03359011 0.032339983 0.030256562 0.002343374
0.073053196 0.035882637 0.03991142 -0.015151964 -0.0069591454 0.03210748 0.07604085 0.023198027
0.0027628897 -0.01882169 0.04000395 0.06794863 0.047820833 -0.036508467 -0.03138493 -0.018213602
0.031174617 0.026748285 0.069019005 0.011241646 0.059325997 0.06585203 0.022582375 0.045788348
0.0003943623 0.03860723 0.12714586 0.007701657 0.099303685 0.09547679 0.010476829 0.04961974
0.0067477203 0.026186828 0.055220976 -0.024760395 0.012885935 -0.051651288 0.013503512 0.05604054
0.0652672 0.0027505488 0.017256748 -0.02052771 0.0753733 -0.0066786837 -0.031773727 0.077196345
0.007126438 -0.0064361594 0.03575979 0.014400647 0.06690815 -0.04718959 0.046032827 0.06315267
00000000: 403d d7bc c95b 123d 153f d23d 930c 48bb
00000010: 22a8 663c 7ba6 e63c 04c8 383c c300 ed3c
00000020: 80c9 5e3d dc4d 393d 2d60 493c 288f bebc
00000030: 3dd1 bcbb ca79 373e 26e2 dc3c e967 d63c
00000040: c35d 84bb 041f d13c 80fd 17bc e82b b1ba
00000050: be0e 78bb c5d9 c5bb f4c9 1d3c 9c3b a23d
00000060: e826 cc3d 35d6 4a3e 3d71 7ebc af26 143d
00000070: 8d8d a4bc b6f6 de3b 9e62 4a3d 7fa6 8b3d
00000080: 70f3 b53d a8c4 a8bc b2da cdbb f651 1d3e
00000090: 52ae b3bc 6bf6 bb3c d23a 22bc 8bbb ad3d
000000a0: 1f99 fbbc d381 d03a 2bcb 6c3d 387d 1dbd
000000b0: df82 2a3c ffd7 dfbb 08cd e43c e14f 96bc
000000c0: 7a55 613d c7d8 0f3c 304e 7e3c 6776 963d
000000d0: f9e3 bbbc 4977 1cbc 8f52 103d 349f 0f3d
000000e0: 0106 b0b9 f342 1e3d c0cc 433d 523c b83c
000000f0: 18ab f5bc feed 893c 953f c83d 6b60 513d
00000100: 3e83 323c 32ae a53b efa1 ec3b 2ce9 0d3d
00000110: c895 09bd ee76 043d 9cdc f73c 4b93 193b
00000120: ea9c 953d acf9 123d 287a 233d f13f 78bc
00000130: 8b09 e4bb 2283 033d 4ebb 9b3d ca09 be3c
00000140: 9911 353b f22f 9abc 2fdb 233d a728 8b3d
00000150: c7df 433d e789 15bd 7c8d 00bd b134 95bc
00000160: e961 ff3c 381f db3c d659 8d3d e12e 383c
00000170: d1ff 723d 6edd 863d acfe b83c 908c 3b3d
00000180: 69c2 ce39 9d22 1e3d 8632 023e 2e5e fc3b
00000190: bb5f cb3d 5689 c33d 01a7 2b3c 123e 4b3d
000001a0: fb1b dd3b c285 d63c 642f 623d 50d6 cabc
000001b0: 871f 533c 4d90 53bd d63d 5d3c c48a 653d
000001c0: cfaa 853d 8d42 343b 065e 8d3c ba29 a8bc
000001d0: 515d 9a3d dcd8 dabb 2b25 02bd 1e19 9e3d
000001e0: e584 e93b 6be6 d2bb dc78 123d b1f0 6b3c
000001f0: 2407 893d df49 41bd eb8c 3c3d 3056 813d

sequential/dense/MatMul f4 [256, 15]
-0.104068264 0.014698482 0.01807896 -0.15594141 0.10744982 0.04486866 -0.008679595 -0.08943139
-0.028355345 0.15832306 -0.09257755 -0.0204496 -0.1554418 -0.014231776 -0.0074432055 0.22436404
0.013249801 -0.047499668 -0.12302532 0.08377757 -0.024326485 0.06633065 -0.02913223 -0.04332155
-0.08702502 0.080522224 -0.06277049 0.019580204 -0.14128593 -0.041867103 0.1474296 0.03246708
-0.16844392 0.17151573 0.26338536 0.031511366 0.053663414 0.119757146 -0.11651743 -0.10766815
0.052420605 0.012632554 -0.010902845 0.03382389 0.16861801 0.042726405 0.031168727 0.07856678
0.09477757 -0.065513305 0.06603484 0.034560286 0.017067412 0.15747647 -0.01621389 0.085533686
0.08172242 0.1168202 0.09393951 0.20480748 0.104538135 0.20039582 -0.08348187 0.13462417
0.08007121 -0.001347179 -0.07474389 -0.039905157 0.14292711 -0.13759975 0.007960803 0.022782568
0.08605274 0.17165792 0.069552764 -0.48956394 0.36134166 0.042912748 0.097682476 -0.13177526
-0.0020315547 -0.10904091 0.09368671 0.06449157 -0.07505466 0.08346521 0.023184653 -0.060412183
0.0836835 0.11701275 -0.19650805 -0.1307224 0.10799326 0.10540491 -0.07109682 -0.14326291
0.17904611 0.051971987 -0.06910032 0.12283555 -0.1577086 -0.10000311 -0.071597174 0.05464075
-0.001841607 -0.3101546 -0.36298382 0.0527441 0.19557707 -0.03645719 0.10182788 -0.10252202
0.016896462 -0.035494525 -0.04688066 0.05351387 -0.017484156 0.08555904 -0.043931484 0.096852764
0.024830518 0.17966247 0.25134617 -0.05562136 -0.105531774 -0.029507674 0.063813835 0.10021733
0.08524213 0.0073257657 -0.055945985 -0.14395362 0.039594423 -0.013218923 -0.13057417 0.17479461
-0.11185662 -0.044788625 0.063565895 0.019216983 0.23169254 -0.16237536 0.09570525 0.14550714
0.14010209 -0.056963284 0.027077034 0.1047632 0.07434412 0.062431734 -0.1522428 -0.37621835
0.2134315 0.12755716 0.036847483 0.046343584 0.09350875 -0.10556037 -0.13534918 -0.07540812
-0.013413652 0.10916788 -0.11197435 0.07871151 0.08601325 0.11838468 -0.10925105 -0.029867405
0.09355863 0.040716544 0.111046314 -0.05057209 0.03076693 0.07014164 0.0026871266 -0.035994772
0.07632061 -0.03314372 0.024509937 0.23097162 0.05649982 0.3504825 -0.12875831 0.017114323
-0.085199736 0.011997098 0.1556447 -0.14108564 -0.044092283 -0.059311002 0.02719138 -0.0005399219
-0.12739146 0.037633497 -0.14495224 0.0049288906 0.036587298 -0.1364452 0.02838624 -0.12474333
0.030870453 -0.13416916 -0.14171016 0.12505111 -0.15080956 -0.0026877585 0.11701366 -0.02144435
-0.12628365 -0.115309104 -0.0072210105 0.15283954 0.18907677 0.03574412 -0.03569301 -0.018576931
0.16750003 -0.1274818 -0.10952984 0.12235665 -0.067004435 -0.05078357 -0.14062086 -0.09824019
-0.14190505 0.24115075 -0.030154936 0.06907368 -0.0031228992 -0.13708246 -0.13180347 0.059811994
-0.032819718 0.05390945 -0.09570189 0.14305983 -0.009203458 -0.042533632 -0.05942875 0.0573795
0.06048807 0.013060404 0.20421293 -0.011510116 -0.11623713 0.16047755 0.17084102 -0.018152647
-0.1123065 -0.07191506 -0.11643927 0.06586376 0.047253087 0.10066322 -0.0909268 -0.27957976
00000000: be21 d5bd e7d1 703c 541a 943c 1baf 1fbe
00000010: a70e dc3d 33c8 373d dc34 0ebc ce27 b7bd
00000020: 7849 e8bc 711f 223e 4c99 bdbd eb85 a7bc
00000030: 232c 1fbe 652c 69bc 22e6 f3bb b0bf 653e
00000040: b115 593c 038f 42bd b3f4 fbbd 9393 ab3d
00000050: 5648 c7bc 5dd8 873d b7a6 eebc f071 31bd
00000060: 2c3a b2bd d6e8 a43d d18d 80bd aa66 a03c
00000070: 42ad 10be d77c 2bbd c9f7 163e 33fc 043d
00000080: 907c 2cbe d2a1 2f3e 72da 863e 1012 013d
00000090: 2bce 5b3d 3c43 f53d b1a0 eebd 1e81 dcbd
000000a0: fdb6 563d c6f8 4e3c d9a1 32bc eb8a 0a3d
000000b0: 33aa 2c3e e201 2f3d 8f55 ff3c 9fe7 a03d
000000c0: be1a c23d d72b 86bd 463d 873d 168f 0d3d
000000d0: f5d0 8b3c 8341 213e fed2 84bc 492c af3d
000000e0: 165e a73d 6e3f ef3d 5c63 c03d 0db9 513e
000000f0: 1718 d63d 9034 4d3e 8bf8 aabd ebda 093e
00000100: 60fc a33d d393 b0ba 5313 99bd 9773 23bd
00000110: 7c5b 123e f3e6 0cbe 076e 023c 82a2 ba3c
00000120: 6b3c b03d 18c7 2f3e ae71 8e3d 20a8 fabe
00000130: c601 b93e 47c5 2f3d c00d c83d 18f0 06be
00000140: d523 05bb d750 dfbd d1de bf3d 2814 843d
00000150: 42b6 99bd cfef aa3d beed bd3c c472 77bd
00000160: 4162 ab3d 61a4 ef3d 6839 49be 18dc 05be
00000170: 922b dd3d 88de d73d 369b 91bd 83b3 12be
00000180: dd57 373e 94e0 543d 7884 8dbd 3491 fb3d
00000190: 5d7e 21be 6ece ccbd 8aa1 92bd fbce 5f3d
000001a0: 1462 f1ba 95cc 9ebe 04d9 b9be 330a 583d
000001b0: 5b45 483e 2254 15bd 238b d03d 11f7 d1bd
000001c0: 736a 8a3c b562 11bd ef05 40bd 5c31 5b3d
000001d0: ef3a 8fbc 9439 af3d 80f1 33bd be5a c63d
000001e0: 5f69 cb3c 70f9 373e 72b0 803e 39d3 63bd
000001f0: 0b21 d8bd 14ba f1bc d4b0 823d be3e cd3d
00000200: 6d93 ae3d fa0c f03b 9e27 65bd 9468 13be
00000210: c32d 223d 2e94 58bc 3cb5 05be 5cfd 323e
00000220: 1515 e5bd 4774 37bd d62e 823d ef6c 9d3c
00000230: cf40 6d3e ba45 26be 1d01 c43d d3ff 143e
00000240: ec76 0f3e 5552 69bd a8d0 dd3c 178e d63d
00000250: bb41 983d 6bb8 7f3d 89e5 1bbe b19f c0be
00000260: ca8d 5a3e 589e 023e 63ed 163d c5d2 3d3d
00000270: 8481 bf3d 0930 d8bd fa98 0abe 936f 9abd
00000280: efc4 5bbc 6993 df3d cf52 e5bd 8033 a13d
00000290: b727 b03d ab73 f23d 04bf dfbd 7dac f4bc
000002a0: ab9b bf3d 64c6 263d 406c e33d ae24 4fbd
000002b0: ee0a fc3c 6ca6 8f3d 811a 303b 416f 13bd
000002c0: fb4d 9c3d b6c1 07bd 10c9 c83c d383 6c3e
000002d0: 5b6c 673d 7172 b33e 38d9 03be 5633 8c3c
000002e0: 337d aebd 7a8f 443c 5361 1f3e c178 10be
000002f0: 1c9a 34bd 18f0 72bd 75c0 de3c 8c89 0dba
00000300: e872 02be 9525 1a3d 5c6e 14be 8882 a13b
00000310: 90dc 153d 4ab8 0bbe 438a e83c 6e79 ffbd
00000320: 08e4 fc3c a463 09be 781c 11be 660d 003e
00000330: d26d 1abe 1b25 30bb dca4 ef3d 10ac afbc
00000340: 8050 01be 2e27 ecbd 3a9e ecbb f881 1c3e
00000350: 579d 413e 6d68 123d d532 12bd a62e 98bc
00000360: 2185 2b3e 978a 02be 2e51 e0bd 2096 fa3d
00000370: 9f39 89bd 6f02 50bd eafe 0fbe 2732 c9bd
00000380: 8f4f 11be 39f0 763e 7c07 f7bc 8076 8d3d
00000390: 8ea9 4cbb 585f 0cbe 7df7 06be 6cfd 743d
000003a0: f86d 06bd 28d0 5c3d 5aff c3bd 477e 123e
000003b0: 1aca 16bc bf37 2ebd 906b 73bd c406 6b3d
000003c0: 57c2 773d 4efb 553c 321d 513e ed94 3cbc
000003d0: bb0d eebd 3a54 243e f3f0 2e3e dcb4 94bc
000003e0: f300 e6bd 3448 93bd b677 eebd 94e3 863d
000003f0: 748c 413d 8528 ce3d d537 babd 1425 8fbe

sequential/dense_1/MatMul f4 [256, 256]
0.16174239 -0.025596548 -0.007242581 0.049844828 -0.06313655 0.14438331 -0.40342003 0.08173203
-0.039082807 0.06608378 -0.16630659 -0.027553665 -0.15718773 -0.11764848 -0.28318483 -0.023938369
-0.09964953 0.009659273 -0.088012196 -0.008789008 -0.124639675 0.0259304 -0.18716146 -0.02003653
-0.0956988 -6.856853e-05 0.003679463 -0.054684587 -0.06552113 -0.14784412 -0.058568783 -0.05843227
0.082750656 -0.09453951 -0.010231355 -0.042380344 0.05331053 0.019061035 -0.08525197 -0.03846354
-0.008031179 -0.04750533 -0.11040151 -0.051633682 -0.16140217 -0.020520419 -0.00027098492 -0.15906543
-0.0684152 -0.0071541076 -0.100341246 -0.061240662 -0.0033056228 -0.016322924 0.0070705526 0.09419596
-0.10049145 0.07659152 -0.16394664 0.019211486 0.067765534 -0.13825078 -0.040193476 -0.045715265
-0.056851804 0.10364033 0.09030478 0.05138086 -0.12517358 -0.028597066 0.005557923 0.031351503
0.0748629 -0.083697 -0.1448202 -0.03183118 0.012560312 0.0878278 -0.19858791 -0.23535228
-0.070263624 -0.0012356242 -0.041226868 0.0033852102 0.018585522 0.07904435 -0.129187 -0.12669332
-0.09896684 0.04286978 -0.13690145 -0.030928008 0.04462234 -0.12936173 0.036828965 0.06531847
-0.010433278 0.021636548 0.102388255 -0.25420776 0.1144993 0.07552451 -0.11289094 0.054491118
0.11632918 -0.046456896 -0.04364642 -0.022720467 -0.014197061 -0.0033809745 -0.0005052864 0.0014864012
-0.0068594995 -0.051854726 -0.1942288 0.06303176 -0.15660416 0.06512578 -0.11648672 -0.08560169
0.047928203 -0.0039892634 0.00414558 -0.10072329 -0.15598843 0.06339674 0.16497889 -0.09772959
-0.0650458 0.06453381 0.015072537 0.07819904 -0.08404501 -0.04743189 0.05181258 0.016687715
0.056139488 0.07140139 -0.01199514 -0.09656632 0.05638496 0.11276404 -0.034424167 -0.060209338
-0.018586116 -0.014847031 -0.10075096 -0.12340737 0.063523434 -0.008861966 0.09800455 -0.04068817
0.08245316 -0.05534907 -0.018144606 -0.050510664 0.01958236 -0.13219194 -0.104458064 0.030370142
0.08166728 -0.21846512 -0.13651127 -0.003909146 -0.10785149 0.0031802575 -0.08490256 -0.010326326
-0.17062539 0.00050283945 -0.13514851 0.06811801 -0.04813494 -0.021049816 0.017850442 -0.07123851
0.13065605 -0.017415412 0.102459304 0.046483368 -0.14991654 0.12907818 -0.31875536 0.055848155
-0.1150462 -0.46592098 0.09129438 -0.06535381 0.045508325 -0.08684168 -0.2171684 -0.0044729896
0.02790914 0.032552432 -0.1388862 -0.008114016 0.008803856 0.006886876 0.049066637 0.02495634
0.009180628 0.044534147 -0.08259972 0.054660365 0.02577329 -0.089007 0.005325181 0.07229124
0.104857385 -0.067213915 0.054560557 0.08963828 -0.07532178 0.054416142 -0.0027352097 -0.249307
-0.13120432 -0.026353233 -0.112702005 -0.036709197 -0.063605785 -0.078953266 0.041129623 0.060287617
-0.15113023 -0.006784488 -0.059423022 0.07935114 -0.0078105237 0.022999115 -0.09650009 -0.11783724
0.092328414 -0.039488632 0.090518326 0.027351314 0.02340305 -0.024145886 0.09029707 0.03384805
-0.09499279 0.016913733 -0.010734951 -0.08409701 -0.11766863 0.09766642 -0.066647135 0.021683818
-0.09536944 -0.09826179 -0.08236384 -0.13286753 -0.0053700013 -0.05199603 0.121372886 0.0402466
00000000: cc9f 253e daaf d1bc 2c53 edbb 172a 4c3d
00000010: bc4d 81bd 38d9 133e 128d cebe 1f63 a73d
00000020: 4b15 20bd ef56 873d 464c 2abe 39b8 e1bc
00000030: d2f5 20be b0f1 f0bd 9afd 90be 661a c4bc
00000040: 0e15 ccbd ed41 1e3c bd3f b4bd c5ff 0fbc
00000050: 1643 ffbd fd6b d43c 41a7 3fbe a623 a4bc
00000060: bcfd c3bd 73cc 8fb8 2523 713b f2fc 5fbd
00000070: f12f 86bd 7364 17be d2e5 6fbd ad56 6fbd
00000080: 2d79 a93d ee9d c1bd 6aa1 27bc 0397 2dbd
00000090: 245c 5a3d e325 9c3c 9698 aebd f28b 1dbd
000000a0: 3595 03bc f394 42bd 301a e2bd d77d 53bd
000000b0: 9c46 25be 701a a8bc fb12 8eb9 0ce2 22be
000000c0: 451d 8cbd 016d eabb b67f cdbd 7dd7 7abd
000000d0: 26a3 58bb a7b7 85bc 18b0 e73b d0e9 c03d
000000e0: 76ce cdbd 04dc 9c3d a1e1 27be 6861 9d3c
000000f0: a8c8 8a3d 9d91 0dbe eaa1 24bd ee3f 3bbd
00000100: 70dd 68bd 6241 d43d b6f1 b83d bd74 523d
00000110: 812d 00be 6544 eabc 3d1f b63b 6f6a 003d
00000120: b851 993d 5569 abbd bf4b 14be 6961 02bd
00000130: c4c9 4d3c 10df b33d a15a 4bbe 3000 71be
00000140: 60e6 8fbd abf4 a1ba 81dd 28bd 67da 5d3b
00000150: aa40 983c 01e2 a13d 9949 04be e5bb 01be
00000160: 20af cabd 3998 2f3d e52f 0cbe bc5c fdbc
00000170: eac5 363d 6777 04be f8d9 163d b1c5 853d
00000180: 57f0 2abc 213f b13c efb0 d13d 8527 82be
00000190: 9c7e ea3d 98ac 9a3d 5d33 e7bd 1432 5f3d
000001a0: fe3d ee3d 9649 3ebd 97c6 32bd 4620 babc
000001b0: ca9a 68bc 5793 5dbb 3275 04ba 59d3 c23a
000001c0: a7c5 e0bb 9f65 54bd eae3 46be cc16 813d
000001d0: d75c 20be aa60 853d 9790 eebd f04f afbd
000001e0: 5d50 443d 5eb8 82bb a5d7 873b 0348 cebd
000001f0: 6ebb 1fbe 26d6 813d 3af0 283e 7426 c8bd
00000200: bb36 85bd 4d2a 843d cdf2 763c d126 a03d
00000210: ca1f acbd f147 42bd 6e39 543d adb4 883c
00000220: 85f2 653d e43a 923d 4487 44bc 90c4 c5bd
00000230: eaf3 663d d5f0 e63d 5b00 0dbd 119e 76bd
00000240: e941 98bc f640 73bc 8556 cebd 01bd fcbd
00000250: 9318 823d c831 11bc 9cb6 c83d a3a8 26bd
00000260: 34dd a83d b5b5 62bd ffa3 94bc 45e4 4ebd
00000270: 2f6b a03c 535d 07be 1cee d5bd ceca f83c
00000280: 2d41 a73d 52b5 5fbe 9cc9 0bbe 4b18 80bb
00000290: 3ee1 dcbd de6b 503b 65e1 adbd c02f 29bc
000002a0: 6cb8 2ebe fcd0 033a 5f64 0abe 7581 8b3d
000002b0: 2529 45bd aa70 acbc 173b 923c 7fe5 91bd
000002c0: b3ca 053e c4aa 8ebc 2fd6 d13d 5865 3e3d
000002d0: b983 19be 122d 043e e733 a3be 09c1 643d
000002e0: 589d ebbd 328d eebe 8cf8 ba3d 38d8 85bd
000002f0: f066 3a3d 0dda b1bd 6561 5ebe 2892 92bb
00000300: b5a1 e43c b355 053d 2f38 0ebe a6f0 04bc
00000310: 0c3e 103c 4eab e13b 19fa 483d 3d71 cc3c
00000320: 586a 163c 7069 363d 0b2a a9bd 8ce3 5f3d
00000330: 8222 d33c 4d49 b6bd db7e ae3b 6e0d 943d
00000340: 78bf d63d 73a7 89bd e47a 5f3d 4694 b73d
00000350: 4e42 9abd 76e3 5e3d 3441 33bb 564a 7fbe
00000360: 6d5a 06be bce2 d7bc 4fd0 e6bd 625c 16bd
00000370: c043 82bd 40b2 a1bd 8977 283d 26f0 763d
00000380: e2c1 1abe 6950 debb 8e65 73bd da82 a23d
00000390: 6cef ffbb a468 bc3c d7a1 c5bd a754 f1bd
000003a0: ae16 bd3d d5be 21bd ac61 b93d dd0f e03c
000003b0: c1b7 bf3c 98cd c5bc aced b83d 41a4 0a3d
000003c0: 948b c2bd ab8e 8a3c a6e1 2fbc 0e3b acbd
000003d0: 40fc f0bd 5505 c83d 4b7e 88bd 43a2 b13c
000003e0: 0e51 c3bd 7a3d c9bd 5fae a8bd 6d0e 08be
000003f0: d6f6 afbb caf9 54bd 5992 f83d 9ed9 243d

sequential/dense_2/MatMul f4 [128, 256]
-0.16799913 0.23444258 0.054676276 0.17868795 -0.010937733 0.022799807 0.16559245 -0.00558555
0.04718758 0.12896271 0.016160717 0.043318626 0.087841995 0.032688376 0.08430703 -0.06594489
-0.06725128 -0.0762876 0.029439624 -0.059296772 -0.05219962 0.32267845 0.019227209 0.17569038
-0.047058515 -0.17736141 0.1591238 -0.096164055 -0.16937412 -0.18305916 0.099331394 -0.016194848
0.14132819 -0.16331264 -0.12130081 0.26511186 0.11172491 0.13751982 -0.12862194 0.11216456
0.068036035 0.06871887 -0.10514177 0.06352279 -0.028753957 -0.07291399 0.012807661 -0.03977524
0.17507596 0.01192281 -0.115304105 -0.07228632 -0.02494899 -0.0070433524 0.16834536 0.020256322
-0.10123132 0.073166154 -0.10239045 -0.13110566 0.14469144 0.12960607 -0.0111343 0.023369974
-0.09376904 0.14183034 0.12556475 0.14320558 -0.043958403 -0.04447246 -0.086131245 -0.10807346
0.04756179 -0.07865466 0.07174599 0.056013703 -0.020225676 0.14874746 0.07672209 0.065516256
0.042143002 0.24329458 -0.06451859 -0.023263188 -0.12700102 0.16949894 -0.019002683 0.049104564
0.112505175 0.22024922 0.102496654 -0.06377385 0.051012754 -0.22189009 0.09022549 0.06343722
-0.14218982 -0.11565862 0.2812839 -0.022922106 0.17351456 -0.12501986 -0.015832774 0.09305631
-0.0066032726 -0.040814944 -0.049149305 0.17387806 0.09124012 0.10518571 0.0012022369 0.22754394
0.02894381 -0.08355313 0.06275178 -0.041203607 0.13775176 -0.00049949886 -0.07803737 0.15081134
0.2469083 0.122982256 0.31371012 0.1889504 -0.13648881 0.14572357 0.102067076 0.20706782
-0.06632822 0.07503949 0.0087545775 0.009623331 0.26885962 0.13385767 0.050627787 0.04572406
-0.027728865 0.018099343 0.06026245 -0.13622925 0.00851743 -0.010424332 0.19481792 0.04997706
-0.010936585 -0.0015693431 -0.07405737 -0.084670655 0.06121054 0.20309786 -0.038516678 -0.098325305
0.02267742 -0.08953455 0.17348173 -0.049520295 0.09497424 0.24445023 0.11444185 0.05539696
-0.02272086 0.10921672 -0.0007839437 -0.04393449 -0.02600703 -0.09160485 0.0809966 -0.19612724
0.09344177 0.058342993 0.088970535 0.104327485 -0.049650252 0.07675546 0.18206024 0.07381173
0.045088317 -0.011492749 -0.16186681 0.005346791 -0.12735936 -0.11073413 0.042695947 0.29210165
0.07663208 0.035332114 0.041762795 0.1690627 0.077906996 -0.016058138 -0.0966847 0.072673105
0.09661018 0.036391314 0.16439968 -0.031261675 -0.11148163 0.05520544 -0.17680335 0.011014296
0.04129352 -0.025750687 0.006497774 0.08690147 0.057202846 -0.09828998 -0.038727794 0.13701284
-0.039784886 -0.15615958 -0.017652297 0.13880187 0.10824034 0.00962362 -0.13506551 -0.059396576
-0.016919896 -0.1567102 -0.081790864 -0.065158546 0.066861354 -0.121747404 0.18530639 -0.109853305
-0.093112454 0.18051448 0.057615895 -0.024875585 0.06775838 0.07547488 0.0617752 0.18492652
-0.013352843 -0.046760272 -0.00989226 -0.057531223 0.033207793 0.2001871 -0.07126188 -0.017255161
0.05402594 -0.10927581 -0.10867293 -0.14209951 0.23482816 0.2284829 -0.116715275 -0.028697662
0.045094322 0.15568939 0.060211625 0.11018374 -0.02510587 -0.08504076 -0.00899696 0.02635531
00000000: f707 2cbe b711 703e 3bf4 5f3d f9f9 363e
00000010: 2d34 33bc a9c6 ba3c 1191 293e fd06 b7bb
00000020: c447 413d cd0e 043e 7b63 843c df6e 313d
00000030: 81e6 b33d 3fe4 053d 2aa9 ac3d 1d0e 87bd
00000040: 0abb 89bd ac3c 9cbd 5e2b f13c 2ce1 72bd
00000050: 45cf 55bd 1c36 a53e 6182 9d3c 2ee8 333e
00000060: 6ec0 40bd 3b9e 35be 59f1 223e a9f1 c4bd
00000070: 6970 2dbe dc73 3bbe 426e cb3d 0fab 84bc
00000080: 56b8 103e 6e3b 27be 8f6c f8bd bebc 873e
00000090: 08d0 e43d ffd1 0c3e 78b5 03be 88b6 e53d
000000a0: 7a56 8b3d 7bbc 8c3d 9154 d7bd 3d18 823d
000000b0: 6b8d ebbc ee53 95bd 39d7 513c 5deb 22bd
000000c0: 1d47 333e e457 433c 8f24 ecbd da0a 94bd
000000d0: d361 ccbc eccb e6bb ba62 2c3e 96f0 a53c
000000e0: 5e52 cfbd 23d8 953d 16b2 d1bd 9040 06be
000000f0: fe29 143e 74b7 043e a46c 36bc 6372 bf3c
00000100: fc09 c0bd f93b 113e 0c94 003e 7ca4 123e
00000110: ba0d 34bd c128 36bd 9465 b0bd 9e55 ddbd
00000120: 27d0 423d b215 a1bd 90ef 923d a06e 653d
00000130: 51b0 a5bc 4151 183e 7920 9d3d 632d 863d
00000140: 249e 2c3d 3722 793e 5322 84bd 7192 bebc
00000150: 8e0c 02be 2191 2d3e 84ab 9bbc de21 493d
00000160: 1d69 e63d 0389 613e c4e9 d13d dd9b 82bd
00000170: c0f2 503d 2837 63be 24c8 b83d 60eb 813d
00000180: 359a 11be 6dde ecbd 7104 903e 24c7 bbbc
00000190: cdad 313e 3505 00be bcb3 81bc 4f94 be3d
000001a0: 4460 d8bb 922d 27bd c850 49bd 170d 323e
000001b0: 1adc ba3d 9b6b d73d 6094 9d3a 4701 693e
000001c0: 921b ed3c e71d abbd 0184 803d 1dc5 28bd
000001d0: cc0e 0d3e cdf0 02ba 0fd2 9fbd 4a6e 1a3e
000001e0: 88d5 7c3e 1fde fb3d 9d9e a03e 377c 413e
000001f0: b9c3 0bbe 8f38 153e 8b08 d13d 9609 543e
00000200: 17d7 87bd 4eae 993d 5c6f 0f3c 2dab 1d3c
00000210: f8a7 893e fc11 093e 155f 4f3d 2749 3b3d
00000220: a527 e3bc 1345 943c c2d5 763d ae7f 0bbe
00000230: b18c 0b3c d1ca 2abc 597e 473e bfb4 4c3d
00000240: 5d2f 33bc 6bb2 cdba 64ab 97bd cf67 adbd
00000250: e7b7 7a3d e3f8 4f3e aac3 1dbd c75e c9bd
00000260: ffc5 b93c e45d b7bd 32a5 313e cbd5 4abd
00000270: db81 c23d 2951 7a3e 7d60 ea3d ece7 623d
00000280: 1921 babc 04ad df3d 9281 4dba a7f4 33bd
00000290: b20c d5bc 539b bbbd 8ce1 a53d 94d5 48be
000002a0: 665e bf3d 10f9 6e3d 2f36 b63d a6a9 d53d
000002b0: 105e 4bbd f731 9d3d 006e 3a3e 9b2a 973d
000002c0: 87ae 383d 154c 3cbc 6ac0 25be 2234 af3b
000002d0: 7e6a 02be 93c8 e2bd f2e1 2e3d 598e 953e
000002e0: 48f1 9c3d 68b8 103d 770f 2b3d c61e 2d3e
000002f0: b48d 9f3d 5b8c 83bc a102 c6bd a3d5 943d
00000300: 8fdb c53d 0f0f 153d 6458 283e 3e0c 00bd
00000310: 7b50 e4bd 191f 623d f00b 35be 4e75 343c
00000320: 6523 293d 1bf3 d2bc 47eb d43b 66f9 b13d
00000330: 884d 6a3d 424c c9bd 09a1 1ebd 184d 0c3e
00000340: 7af5 22bd 4ce8 1fbe 8d9b 90bc 1422 0e3e
00000350: 1dad dd3d 63ac 1d3c 9d4e 0abe d349 73bd
00000360: 989b 8abc a378 20be f881 a7bd d871 85bd
00000370: 9bee 883d b456 f9bd f5c0 3d3e c5fa e0bd
00000380: beb1 bebd cad8 383e a5fe 6b3d e2c7 cbbc
00000390: e8c4 8a3d 9392 9a3d fe07 7d3d 615d 3d3e
000003a0: e2c5 5abc b387 3fbd 2513 22bc dca5 6bbd
000003b0: e504 083d d9fd 4c3e c0f1 91bd b25a 8dbc
000003c0: 4e4a 5d3d ffcb dfbd ea8f debd 8982 11be
000003d0: cb76 703e 6cf7 693e 6b08 efbd 5c17 ebbc
000003e0: d3b4 383d 0a6d 1f3e 77a0 763d 03a8 e13d
000003f0: d3aa cdbc da29 aebd fc67 13bc 17e7 d73c

sequential/base/MatMul f4 [128, 128]
-0.05684799 0.029733872 -0.13015547 0.073739216 -0.111155555 0.1318147 0.14506115 -0.08771977
0.07528398 -0.061003525 0.09911746 -0.060116015 -0.12419769 -0.09310471 -0.10034257 0.05717992
0.091335714 -0.08186443 0.14428528 0.07442944 0.015419546 0.015297748 0.12150789 0.06811962
-0.10782763 -0.1403801 0.04692078 -0.1589123 -0.09027512 -0.07836498 0.004082857 0.018176965
-0.16200686 -0.044920027 -0.028591087 -0.06971422 -0.12288467 -0.1719207 -0.090691395 -0.09286048
-0.07889637 0.07166357 0.01650619 -0.018566784 -0.0074069016 -0.008241111 -0.06882812 -0.030124739
-0.051617406 -0.051786114 0.016139055 0.040379584 0.06376418 0.10365221 0.035910722 0.0032811367
-0.0007438586 0.07806621 -0.022388367 0.060655225 0.112639755 0.0441334 -0.110568896 -0.1242213
-0.00093242223 -0.0351363 -0.02112138 -0.14013533 -0.09454627 0.09185257 -0.15449807 -0.11073791
0.00015269803 -0.124048434 -0.13207424 -0.054564215 0.09761158 -0.1559651 0.039496787 -0.10609207
-0.054810245 0.031281617 -0.07626639 0.05081755 -0.020546278 -0.099484764 -0.03036508 0.014720376
0.10667534 0.08291915 0.059952896 0.07063151 -0.14352113 -0.10223541 -0.057682645 -0.08736884
0.0038095084 0.04455391 0.05409426 0.046171833 -0.03269753 -0.10727512 0.075511396 -0.011705728
0.058462203 0.07076508 -0.10469238 -0.16946608 0.00035157904 0.01925105 -0.12275296 0.119089946
0.060398825 0.034168784 -0.16446374 -0.15353543 0.08282633 0.08191605 -0.04347352 -0.14213538
-0.10653153 -0.117722005 -0.010019992 -0.11088258 -0.16886649 0.06979858 -0.098884866 -0.01795507
-0.06213065 -0.088947706 0.047249027 0.036733076 0.117259644 -0.22519895 -0.04546911 -0.160169
0.18448062 -0.118414186 0.08296493 -0.00028172275 0.039096806 0.14654739 0.10494839 -0.115507245
0.112166375 0.074198015 0.19914661 0.064715184 -0.26117077 0.2574093 -0.028721446 -0.13376047
0.095020995 0.015801715 0.19873881 -0.039763592 0.10203091 0.05052857 -0.09717498 -0.04663448
0.01740877 0.1778908 -0.1023499 0.28026146 -0.18518378 -0.16953605 -0.051032793 0.008395109
-0.17610344 0.23163238 0.14089298 0.072819844 -0.0090215 0.06582754 -0.085941784 0.106742166
-0.1999103 -0.15799479 -0.088898286 0.09557842 0.2558266 0.14058392 0.011742266 0.30092317
-0.10830787 -0.08637976 0.12884222 0.034343816 0.05957637 -0.12915643 0.00761142 0.20400341
0.04446329 0.0038439783 0.027535444 0.14492089 -0.009486995 -0.21395299 -0.040143155 -0.15486538
0.09973622 -0.13558495 0.15943007 0.08269296 0.28018314 -0.022998009 0.43607682 0.008762204
-0.04802436 -0.081130475 -0.1777301 0.006658995 0.09079378 -0.054658554 -0.117929466 0.0035440691
0.03175493 -0.03364894 0.0030801524 0.008141715 0.2212011 -0.15283309 0.13848068 0.07659548
-0.17389254 -0.15134098 0.12713766 -0.10058246 -0.19602968 -0.004885679 -0.03416384 -0.09230885
0.085484535 0.015419946 0.17817892 0.116246 0.08030264 -0.06448058 -0.17219646 -0.17474207
-0.16147052 0.06196532 0.15036783 -0.08121278 0.07563689 -0.027425839 0.08279159 0.1702862
-0.0031358993 0.021423735 0.009259846 0.2602629 0.007778115 -0.27953622 0.14698875 -0.10615828
00000000: 70d9 68bd 7394 f33c 7a47 05be 9604 973d
00000010: 86a5 e3bd 6ffa 063e e98a 143e 6ca6 b3bd
00000020: 7d2e 9a3d d5de 79bd 18fe ca3d 363c 76bd
00000030: 5c5b febd afad bebd 6880 cdbd 7e35 6a3d
00000040: 380e bb3d 8aa8 a7bd 85bf 133e 766e 983d
00000050: 43a2 7c3c 68a3 7a3c 21d9 f83d 4d82 8b3d
00000060: bcd4 dcbd cdbf 0fbe 0130 403d e8b9 22be
00000070: 2ae2 b8bd d27d a0bd 7dc9 853b dce7 943c
00000080: 20e5 25be 10fe 37bd db37 eabc 54c6 8ebd
00000090: f5aa fbbd fb0b 30be 69bc b9bd a32d bebd
000000a0: 6c94 a1bd 5ac4 923d fd37 873c 5e19 98bc
000000b0: 98b5 f2bb ba05 07bc c2f5 8cbd 28c8 f6bc
000000c0: c66c 53bd ad1d 54bd 0d36 843c 1065 253d
000000d0: cb96 823d 9c47 d43d 1f17 133d 5708 573b
000000e0: 81ff 42ba 2de1 9f3d cf67 b7bc 9d71 783d
000000f0: acaf e63d 39c5 343d f271 e2bd bd67 febd
00000100: cc6d 74ba 15eb 0fbd bf06 adbc a37f 0fbe
00000110: 7aa1 c1bd 331d bc3d be34 1ebe 8fca e2bd
00000120: 911d 2039 1b0d febd 783e 07be ba7e 5fbd
00000130: 94e8 c73d 51b5 1fbe 62c7 213d cd46 d9bd
00000140: b580 60bd 2721 003d 8e31 9cbd 1026 503d
00000150: ab50 a8bc abbe cbbd 30c0 f8bc bb2d 713c
00000160: 9a78 da3d 84d1 a93d 2b91 753d 41a7 903d
00000170: 34f7 12be cc60 d1bd a344 6cbd 6fee b2bd
00000180: f2a8 793b 297e 363d f191 5d3d ad1e 3d3d
00000190: d8ed 05bd 0fb3 dbbd b8a5 9a3d 62c9 3fbc
000001a0: 1076 6f3d 48ed 903d f568 d6bd 8488 2dbe
000001b0: 2454 b839 61b4 9d3c e765 fbbd 6ee5 f33d
000001c0: c264 773d 91f4 0b3d 2f69 28be 6438 1dbe
000001d0: daa0 a93d 9ac3 a73d 4a11 32bd f08b 11be
000001e0: 342d dabd 3c18 f1bd e42a 24bc 6816 e3bd
000001f0: 56eb 2cbe 8ff2 8e3d 2684 cabd 8316 93bc
00000200: b57c 7ebd 372a b6bd 3288 413d 6c75 163d
00000210: d325 f03d 8e9a 66be d13d 3abd 5803 24be
00000220: 7de8 3c3e 2383 f2bd 84e9 a93d 30b4 93b9
00000230: f923 203d 8510 163e 2eef d63d 108f ecbd
00000240: 7cb7 e53d 21f5 973d 17ed 4b3e 6589 843d
00000250: 2db8 85be 27cb 833e 3d49 ebbc 81f8 08be
00000260: 5e9a c23d 9972 813c 3082 4b3e 26df 22bd
00000270: 95f5 d03d 0cf7 4e3d ad03 c7bd cc03 3fbd
00000280: d69c 8e3c 0229 363e d39c d1bd 6e7e 8f3e
00000290: d1a0 3dbe dc9a 2dbe c307 51bd a48b 093c
000002a0: 7654 34be 0a31 6d3e 4046 103e 9222 953d
000002b0: eace 13bc 97d0 863d 3f02 b0bd a39b da3d
000002c0: 49b5 4cbe 63c9 21be 4e10 b6bd 9ebe c33d
000002d0: b4fb 823e 3bf5 0f3e a262 403c 9a12 9a3e
000002e0: 84d0 ddbd dfe7 b0bd 37ef 033e 1aac 0c3d
000002f0: 5a06 743d 9541 04be 3869 f93b 45e6 503e
00000300: 241f 363d 41eb 7b3b 0392 e13c 2466 143e
00000310: 576f 1bbc 7e16 5bbe 266d 24bd 0895 1ebe
00000320: 8142 cc3d c8d6 0abe a341 233e ed5a a93d
00000330: 2a74 8f3e 5266 bcbc 7645 df3e 598f 0f3c
00000340: 31b5 44bd bc27 a6bd e1fe 35be b333 da3b
00000350: 17f2 b93d a6e1 5fbd 0185 f1bd 9d43 683b
00000360: 7511 023d 79d3 09bd 62dc 493b d464 053c
00000370: 8b82 623e 4780 1cbe e1cd 0d3e 17de 9c3d
00000380: e310 32be 21f9 1abe 6030 023e 2dfe cdbd
00000390: 01bc 48be 0c18 a0bb 62ef 0bbd 6c0c bdbd
000003a0: 8412 af3d f1a3 7c3c 8974 363e 6212 ee3d
000003b0: b675 a43d 650e 84bd 4554 30be 96ef 32be
000003c0: 8758 25be 59cf 7d3d 06fa 193e e352 a6bd
000003d0: 84e7 9a3d 27ac e0bc a38e a93d 815f 2e3e
000003e0: a983 4dbb d480 af3c 9cb6 173c 2e41 853e
000003f0: 8fdf fe3b 5f1f 8fbe 3884 163e 8369 d9bd
