offlineModels/NN/tfLite/tfLiteModelConverted/ourDatamodel.tflite (tflite, 985592 bytes, 18 tensors)

model/dense/BiasAdd/ReadVariableOp f4 [256]
0	0xbd333978	-0.04375598
1	0x3c9d2ffc	0.01918792
2	0xbcedc507	-0.029024614
3	0xba6cec82	-0.0009037928
4	0x3dfbf5da	0.12302752
5	0xbd72f62c	-0.0593168
6	0x3d0df2c2	0.03465534
7	0x3cb6f763	0.02233476
8	0xbccba26f	-0.024857728
9	0xbd161cf3	-0.036648702
10	0xbc172f2f	-0.009227558
11	0x3c617950	0.013761833
12	0x3d5e8f1f	0.05433571
13	0xbce5b038	-0.02803813
14	0x3c6730ac	0.014110725
15	0x3cf5de5c	0.030013256
16	0x3cc7d489	0.024393337
17	0x3bf8c8f4	0.007592315
18	0xbcb0913b	-0.021553626
19	0xbd3527ba	-0.04422734
20	0x3bc9dbc4	0.0061602313
21	0x3cb8570e	0.022502448
22	0xbcdb04d2	-0.026735697
23	0xbca909be	-0.020634528
24	0xbd4d3ccb	-0.050106805
25	0xbd5910dc	-0.052994594
26	0x399f4285	0.00030376404
27	0x3d4c6ac0	0.049906492
28	0x3d6f9dca	0.05850009
29	0xbd139afb	-0.036036473
30	0x3b88cf9e	0.0041751405
31	0x39a55f1f	0.00031542123
32	0xbc0ed461	-0.008717627
33	0xbb66998a	-0.0035186731
34	0x3d3d635a	0.046237327
35	0x3d3e76aa	0.046499886
36	0xbacfa4d4	-0.0015841969
37	0x3c97056d	0.018435204
38	0x3d6844ea	0.056706347
39	0x3d4c84b6	0.04993125
40	0x3d0dc151	0.03460819
41	0xbd624e4d	-0.055250455
42	0x3cded690	0.02720192
43	0xbccc57ba	-0.024944175
44	0xbd5d119d	-0.053971875
45	0xbd44d396	-0.048053347
46	0x3cc0df28	0.02354391
47	0x3b20c842	0.0024533425
48	0xbcb6b504	-0.022303112
49	0xbd616bc2	-0.055034406
50	0xbd6f5470	-0.058430135
51	0xbd2e1ce7	-0.042508032
52	0x3a33f2b5	0.0006864474
53	0xbc79082f	-0.015199705
54	0x3c6c7f93	0.014434713
55	0x3d86dc2e	0.06584965
56	0xbd5cf50b	-0.05394463
57	0x3d149ca5	0.0362822
58	0xbd63ef3f	-0.055648085
59	0x3cd6e532	0.026232336
60	0xbd7443ce	-0.059634976
61	0xbd79cdd1	-0.060987297
62	0x3c98a3fa	0.018632878
63	0x3b8fb989	0.004386131
64	0x3d2dd5d5	0.042440254
65	0xbd1d724d	-0.038439084
66	0x3d078976	0.033090077
67	0x3ca3cba5	0.019994566
68	0xbdde6160	-0.108584166
69	0x3d001530	0.031270206
70	0x3c2017c2	0.009771289
71	0x3c1738be	0.009229837
72	0x3c1af885	0.009458666
73	0x3c8e7cb8	0.017393455
74	0xbdabb488	-0.08384043
75	0x3d9fc0e9	0.078004666
76	0x3bdeea79	0.0068028537
77	0x3cc12e9a	0.023581792
78	0x3ca4fa20	0.0201388
79	0xbca25b12	-0.019818816
80	0xbc541da6	-0.012946522
81	0xbd5b57c0	-0.05355048
82	0xbdb91160	-0.09036517
83	0x3d3441ec	0.04400818
84	0xbcd9d35d	-0.026590044
85	0x3d281597	0.041036215
86	0xbc96f528	-0.018427446
87	0x3d924993	0.071429394
88	0x3cf15c09	0.029462831
89	0xbb9a05ef	-0.0047004144
90	0x3c0ee56f	0.008721693
91	0x3d1542e5	0.03644075
92	0x3c4aeb3f	0.012385189
93	0xbbaaf0b5	-0.005216683
94	0xbbda8a9c	-0.0066693556
95	0x3ca19648	0.01972498
96	0xbcdc56b5	-0.026896814
97	0xbb84565e	-0.004038616
98	0x3d5e1df4	0.054227784
99	0x3a47784c	0.0007609173
100	0x3ceef51c	0.029169612
101	0x3ce38c03	0.027776724
102	0x3d3af1da	0.045640804
103	0x3cfb6811	0.030689271
104	0x3c612b4f	0.013743236
105	0x3d3e9bd5	0.04653533
106	0x3d184ea1	0.03718436
107	0x3d429416	0.047504507
108	0x3d6fa5b0	0.05850762
109	0xbb581453	-0.0032971099
110	0x3d01b24f	0.03166419
111	0xbcabaa2e	-0.020955171
112	0xbca76413	-0.020433461
113	0xbd33ee94	-0.043928698
114	0x3d08d79d	0.03340875
115	0x3d5da0a0	0.054108262
116	0x3cf8944e	0.030344155
117	0x3d36642a	0.044529118
118	0xbc2527e8	-0.010080315
119	0xbd0e36ae	-0.034720115
120	0x3cbc1c11	0.022962602
121	0xbc75ffdf	-0.015014618
122	0x3d231ada	0.03982053
123	0x3d225dfc	0.03964041
124	0xbc20ace3	-0.009806844
125	0x3c2f8bb6	0.010714462
126	0x3d9998f4	0.074998766
127	0x3c39bcc0	0.011336505
128	0x3ba9b9c1	0.0051796143
129	0xbcae6b0f	-0.021291284
130	0xbb2d35a4	-0.0026429677
131	0xbcbd513e	-0.023110028
132	0x3bba532e	0.0056861853
133	0xbd102436	-0.035190783
134	0xbc12ccf5	-0.008959998
135	0xbc8fed14	-0.017569102
136	0x3dac89cf	0.084247224
137	0x3c384e5d	0.011249152
138	0x3d23b512	0.039967604
139	0xbd4866ce	-0.048926167
140	0xbd7cc335	-0.0617096
141	0x3c1841e8	0.009293057
142	0x39a7eb68	0.00032028113
143	0xbd110974	-0.035409406
144	0x3d04ab22	0.032389767
145	0x3bf5f869	0.0075064194
146	0xbc426f38	-0.011867337
147	0xbd9275e2	-0.071513906
148	0xbd2955bd	-0.041341532
149	0xbcf609fa	-0.030034054
150	0xbd331b68	-0.04372731
151	0x3d4f144e	0.050556473
152	0x3b8e1827	0.0043363753
153	0xbd9ff015	-0.07809464
154	0x3d164c73	0.036694
155	0xbd58879b	-0.0528637
156	0xbb7e4e65	-0.003880405
157	0x3ab9f869	0.0014188412
158	0xbb5e3256	-0.0033904514
159	0x3be51c74	0.0069919173
160	0xbb1e60a6	-0.0024166494
161	0xbc4bcdaa	-0.012439171
162	0x3cdb579f	0.02677518
163	0xbd6dbc10	-0.05804068
164	0x3c1979f9	0.009367459
165	0xbc08df88	-0.008354075
166	0x3cfb02c0	0.03064096
167	0xbc56f462	-0.013119789
168	0x3b3bba19	0.0028644858
169	0x3c644c31	0.013934181
170	0xbcdd823e	-0.027039643
171	0xbc21f363	-0.009884688
172	0x3c3f787c	0.011686441
173	0xbcd8288d	-0.026386524
174	0xbc63c3d1	-0.013901667
175	0xbc63b747	-0.013898677
176	0xbb5f80f5	-0.0034103964
177	0x3d86245e	0.06549905
178	0x3d22a80b	0.03971104
179	0x3ca75ce3	0.020430034
180	0x3a9f6e04	0.0012163525
181	0x3c0d68f6	0.008630982
182	0x39e76522	0.00044135103
183	0x3b65bcde	0.00350552
184	0xbc770f84	-0.015079383
185	0xbcf9e0b3	-0.030502653
186	0xbcf8aecd	-0.030356789
187	0xbd4ee0e9	-0.05050746
188	0x3af25733	0.0018489122
189	0xbd114cb2	-0.035473533
190	0xbd62d499	-0.05537853
191	0x3b860d6f	0.004090957
192	0x3bdfdbc1	0.0068316166
193	0x3cf4450e	0.029818084
194	0x3c613562	0.013745638
195	0x39d38a1d	0.0004034796
196	0x3c425d57	0.011863074
197	0xbc6ac113	-0.014328259
198	0x3c285026	0.010273015
199	0x3cfb844b	0.03070273
200	0xbd03c954	-0.032174423
201	0x3ab64032	0.001390463
202	0x3d090d12	0.03345973
203	0xbc42be85	-0.011886244
204	0x3d450cda	0.04810796
205	0x3ca3e6dd	0.020007545
206	0xbc6ec7cf	-0.014574005
207	0x3d1ca71b	0.0382453
208	0xbbc6c377	-0.0060657817
209	0xbce1a002	-0.027542118
210	0x3aa48184	0.0012550806
211	0x3d9e7285	0.077366866
212	0x3c37ec74	0.011225808
213	0x3c3affa4	0.011413489
214	0x3d134f2f	0.035964187
215	0xbd2a25d8	-0.041539997
216	0x3d2eb032	0.0426485
217	0xbc5b1ffd	-0.013374326
218	0xbc37d008	-0.011219032
219	0xbd2a3be4	-0.041561022
220	0xbd393a80	-0.045221806
221	0x3d4bd2fe	0.049761765
222	0xb9a3bc20	-0.00031229947
223	0x3cdebbd4	0.027189173
224	0xbb0bfd6c	-0.0021360768
225	0xbc7f30d9	-0.015575611
226	0xbc8afe43	-0.016966945
227	0x3cb52f30	0.022117227
228	0x3ca97b22	0.020688597
229	0x3cce5a68	0.025189593
230	0x3caf49a9	0.021397429
231	0x3d1002ad	0.0351588
232	0x3d339d4d	0.043851186
233	0x3cd74d58	0.026281998
234	0x3d171065	0.03688087
235	0x3bdf888c	0.0068216976
236	0xbd3f3445	-0.046680707
237	0xbcd76e1e	-0.026297625
238	0x3c0911f7	0.0083661
239	0x3d21c3e6	0.039493464
240	0x3d2e425a	0.042543747
241	0x3d5bd1eb	0.05366699
242	0x3c8a3800	0.016872406
243	0xbcb14a5f	-0.021641908
244	0x3d483a3c	0.04888366
245	0xbc1a10b7	-0.009403399
246	0x3da95362	0.08267857
247	0xbbfe84e4	-0.0077673066
248	0x3ca80f86	0.020515215
249	0xbd164c6a	-0.036693968
250	0x3c4029b0	0.011728689
251	0xbdbeec62	-0.0932243
252	0x3d334f0c	0.043776557
253	0xba8fc6f9	-0.0010969333
254	0xbbbd7e7b	-0.0057829
255	0xbcd4b8f6	-0.025967102

model/dense_2/BiasAdd/ReadVariableOp f4 [128]
0	0xbc683734	-0.014173318
1	0xbad469d8	-0.001620586
2	0xbbc0c810	-0.0058832243
3	0x3d093304	0.033495918
4	0xbca35013	-0.019935643
5	0x3cd4b8bd	0.025966996
6	0x3bce0df8	0.0062882863
7	0x3d5e7c8f	0.054318007
8	0x3d8b2c57	0.067955665
9	0x3c84afb2	0.01619706
10	0x3d39103d	0.0451815
11	0x3d145697	0.03621539
12	0x3d94d606	0.07267384
13	0xbc849f2c	-0.01618918
14	0x3d1e92dd	0.03871428
15	0x3c8d2ff8	0.017234787
16	0x3d4e0697	0.050299253
17	0x3d04ff3c	0.032469973
18	0x3bd7235b	0.006565494
19	0x3ca181cb	0.01971521
20	0xbb6e6965	-0.0036378738
21	0x3ca6262f	0.02028188
22	0x3c7090d7	0.01468297
23	0x3cd9b0b8	0.026573524
24	0xbbbbac7d	-0.0057273493
25	0xbc8a8b4d	-0.016912127
26	0x3d10d90b	0.03536324
27	0x3b817ece	0.003951884
28	0x3c2a25b9	0.01038497
29	0x3d141230	0.036150157
30	0x3b68af08	0.0035504717
31	0x3b9e2f1e	0.004827394
32	0x3d531370	0.05153221
33	0xbb688972	-0.0035482314
34	0x3d0bfd5d	0.034177173
35	0x3d73d586	0.059529804
36	0xbc25e11a	-0.010124469
37	0xbb00e3d2	-0.0019667041
38	0x3d2a7098	0.041611284
39	0x3c8c44e3	0.017122691
40	0x3ccdc6ce	0.025119212
41	0x3c017ead	0.007903737
42	0x3ccb9842	0.024852876
43	0x3d54dfb2	0.051971145
44	0xbb75c137	-0.0037499198
45	0x3b0c26ea	0.00213855
46	0xbca151ac	-0.019692264
47	0x3b449178	0.0029993933
48	0x3d660f51	0.05616695
49	0x3bec33aa	0.0072083073
50	0x3dc1849b	0.094491206
51	0x3c10916c	0.008823734
52	0x3d5d816f	0.054078516
53	0x3d4adeaf	0.049528774
54	0x3d40c573	0.047063302
55	0x3d0d67a5	0.03452267
56	0x3d26ab9b	0.040691
57	0x3709d3f8	8.215189e-06
58	0x3d6d3743	0.05791403
59	0x3d6500bc	0.055908903
60	0x3d48623b	0.048921805
61	0x3c363964	0.011122081
62	0x395fca7b	0.00021342367
63	0x3b975569	0.004618336
64	0x3d8b731e	0.06809066
65	0x3d7cd93b	0.061730605
66	0x3d94f423	0.07273128
67	0x3cca2ae9	0.024678664
68	0x3d6a9506	0.057271026
69	0x3d08d10e	0.033402495
70	0xbb7c6a2a	-0.0038515427
71	0x3a8edc66	0.0010899424
72	0x3d2e441b	0.04254542
73	0xbcaa194a	-0.020764012
74	0xbb6ab243	-0.0035811819
75	0x3c953faa	0.018218834
76	0x3cfaf720	0.030635417
77	0x3c088a45	0.008333747
78	0xbc7f8516	-0.015595695
79	0x3ca5c970	0.020237654
80	0x3d4126c9	0.04715613
81	0x3cc56936	0.02409802
82	0x3c94450c	0.01809933
83	0x3cd5b115	0.026085416
84	0x3cdb8ca6	0.026800465
85	0x3cda90cc	0.026680373
86	0xbc5b8dca	-0.013400504
87	0xbc836a21	-0.016041817
88	0x3d4aa19d	0.049470533
89	0xbc20f615	-0.0098242955
90	0x3cfbdf80	0.030746222
91	0x3db62a75	0.08894817
92	0x3d3b891c	0.045785055
93	0xbcf4919e	-0.029854592
94	0x3d5db62b	0.054128807
95	0x3c27c2ff	0.010239362
96	0x3cbb0b10	0.022832423
97	0x3d42ebe5	0.047588248
98	0x3c0a7a10	0.0084519535
99	0xbbd456d8	-0.006480079
100	0xbb541540	-0.0032361299
101	0xbb43c1a1	-0.002987005
102	0x3d080af8	0.033213586
103	0xbc55fff5	-0.013061513
104	0x38442eed	4.6773745e-05
105	0xbd2a6965	-0.04160442
106	0x3d0b314c	0.03398256
107	0xbb391b46	-0.0028245016
108	0xbc314ebb	-0.010821993
109	0xbd237270	-0.039904058
110	0x3d2760bf	0.04086375
111	0x38f4f2e7	0.00011680071
112	0x3d8002cc	0.062505335
113	0xbc61a4f9	-0.013772243
114	0x3c1f97b4	0.009740759
115	0x3d238fe3	0.039932143
116	0x3c8e867c	0.017398112
117	0x3d020253	0.031740498
118	0x3cc82aed	0.024434531
119	0x3c2016e7	0.009771085
120	0xbd008e2a	-0.03138558
121	0x3cf2d7af	0.029643862
122	0x3d398b42	0.045298822
123	0xbcd1e935	-0.025623897
124	0xbb702a2b	-0.0036646228
125	0xbacaa767	-0.0015461267
126	0x3d22fd69	0.039792452
127	0xbc8614ab	-0.016367277

model/dense_1/BiasAdd/ReadVariableOp f4 [256]
0	0x3d1889ef	0.03724092
1	0x3bd50a86	0.0065014986
2	0xbced1567	-0.02894087
3	0x3d0d2086	0.034454845
4	0xbbe2c226	-0.006920117
5	0x3d31ca09	0.043405566
6	0xbd0bdd70	-0.034146726
7	0x39a7bce9	0.0003199347
8	0xbd0d8402	-0.03454972
9	0x3b2916b9	0.0025800897
10	0xbcf4d5a0	-0.02988702
11	0xbd3349d9	-0.0437716
12	0xbcf57057	-0.029960794
13	0x3caa39cb	0.020779511
14	0x3da1301b	0.078705035
15	0x3c61ce97	0.013782165
16	0xbcd4113b	-0.025887122
17	0xbce149b6	-0.027500968
18	0xb931680e	-0.00016918799
19	0xbcadb852	-0.021206055
20	0x3c3c5d59	0.011496865
21	0x3c373ded	0.011184198
22	0x3d349f3e	0.044097178
23	0xbbce5171	-0.0062963297
24	0x3d04411e	0.032288663
25	0x3c26d0c0	0.010181606
26	0xbcb2a60d	-0.021807695
27	0x3d14263d	0.03616928
28	0x3cfd9717	0.030955834
29	0x3af556d6	0.0018717896
30	0xbc2e194e	-0.01062615
31	0x3c8ad43a	0.0169469
32	0x3dc81b13	0.09770789
33	0x3cb00220	0.021485388
34	0xbc99b234	-0.018761732
35	0x3be4ccbb	0.0069824136
36	0xbd1fb2ac	-0.038988754
37	0x3bd8b9bb	0.0066139377
38	0x3ca591d6	0.020211142
39	0x3cc4e436	0.0240346
40	0x3d562fce	0.052291684
41	0xbcc4bc99	-0.024015712
42	0xbc9b0a60	-0.018925846
43	0xbba8faf0	-0.005156867
44	0x3b55043b	0.0032503742
45	0xbb67d1df	-0.0035372896
46	0x3ce1b321	0.027551236
47	0xbdb17d5e	-0.0866649
48	0x3d155985	0.036462326
49	0x3d91230f	0.07086765
50	0x3d71e0cf	0.059052285
51	0xbb2dabe2	-0.0026500155
52	0x3b9bfbdd	0.004760249
53	0xbd2b38bd	-0.041802157
54	0x3c77d1bf	0.015125691
55	0x3c7075f0	0.014676556
56	0xbbc0d7a9	-0.0058850837
57	0x3c346d93	0.011012453
58	0x3d333c3e	0.043758623
59	0x3d3df37d	0.046374787
60	0x3c8de28b	0.017319938
61	0x3d4b70bf	0.04966807
62	0x3cc9b391	0.024621757
63	0x39a5244e	0.00031498302
64	0xbc44cc34	-0.012011576
65	0x3b0455af	0.0020192673
66	0xb8338d6e	-4.2808642e-05
67	0xba4e017c	-0.00078584976
68	0x3bad4cd8	0.0052887015
69	0xbcee863a	-0.029116739
70	0x3d2999eb	0.041406553
71	0xbd311686	-0.04323437
72	0x3cc656f0	0.024211377
73	0xbb677298	-0.0035316106
74	0x3d174cc8	0.03693846
75	0x3d332090	0.043732226
76	0x3cfc0656	0.03076474
77	0x3b5a3ee6	0.003330165
78	0xbd01211c	-0.031525716
79	0x3d0bcd3a	0.034131266
80	0x3ce12b52	0.027486477
81	0xbc0bd6da	-0.008535111
82	0xbc9b94e2	-0.018991891
83	0xbc710f59	-0.014713132
84	0x3d22dc3e	0.03976082
85	0xbc232975	-0.009958615
86	0x3d880202	0.06641008
87	0xbc35302a	-0.0110588465
88	0xbd039bf9	-0.03213117
89	0x3d144875	0.036201913
90	0x397d3677	0.0002414825
91	0x3d3c518b	0.045976203
92	0x3c937d55	0.018004099
93	0x3d302953	0.04300816
94	0x3c2304b6	0.009949854
95	0x3ca72489	0.020403164
96	0x3d3850c8	0.044998914
97	0x3cc4190b	0.023937723
98	0xbb138f64	-0.0022515887
99	0x3d98e555	0.074656166
100	0xbd01e413	-0.03171165
101	0xbaa54b9d	-0.0012611035
102	0xbc4cf73b	-0.012510116
103	0x3d4cac0c	0.049968764
104	0xbc0621c7	-0.008186764
105	0xbc05a4cf	-0.008156969
106	0x3d3f7d9b	0.046750646
107	0x3d64a204	0.055818573
108	0x3d7736a7	0.060354855
109	0xbce2557a	-0.027628649
110	0xbb1c4ee6	-0.0023850738
111	0x3dbd0f5c	0.09231445
112	0xbc9a83f9	-0.018861758
113	0xbd2a775f	-0.041617747
114	0x3be9de5a	0.007137102
115	0xbd4fb6d0	-0.050711453
116	0x3c3b30c5	0.011425202
117	0x3babe476	0.0052457405
118	0x3c267f7f	0.010162233
119	0xbc6239b3	-0.013807702
120	0x3cd73738	0.026271448
121	0xbaa649f7	-0.0012686838
122	0xbb5290bc	-0.0032129725
123	0xba8a1cb3	-0.0010537117
124	0x3d00e5e1	0.03146923
125	0x3d7dbc25	0.061947007
126	0x3d80d6e8	0.0629099
127	0x3bdd7eac	0.006759485
128	0xbc8224c6	-0.015886676
129	0x3ca37b14	0.01995615
130	0x3d59fcb1	0.0532195
131	0xbca79927	-0.02045877
132	0x3ca08ce0	0.019598424
133	0x3d41c3d4	0.047305897
134	0x3c9b960e	0.01899245
135	0xbcb92e9c	-0.022605233
136	0x3c1b1067	0.00946436
137	0x3d469703	0.04848386
138	0x3c3e0330	0.01159744
139	0x3d11a4fc	0.035557732
140	0x3d5606da	0.052252628
141	0x3c917da0	0.017760098
142	0xbc845644	-0.016154416
143	0xbcdab4dd	-0.02669757
144	0xbca3b7b2	-0.019985054
145	0x3c5f8816	0.013643285
146	0xbd21a3cb	-0.039462846
147	0x3cef22f6	0.029191475
148	0xbcdf1c5c	-0.027235202
149	0xbb2e1d73	-0.0026567846
150	0x3d85652c	0.06513438
151	0x3a4ca7f8	0.0007807012
152	0x3c5025d8	0.012704335
153	0xbc22929a	-0.009922648
154	0x3d4c0b8a	0.049815692
155	0x3b9f3333	0.0048583983
156	0xbbc408d9	-0.0059825
157	0xbc8cc9e7	-0.017186118
158	0x3cc3bfd0	0.023895174
159	0x3c4abda2	0.012374314
160	0xbd125340	-0.035723925
161	0x3cc7dd1f	0.024397431
162	0xbcdae346	-0.0267197
163	0x3d08753c	0.03331493
164	0x3d333781	0.043754105
165	0x3c87fb2f	0.016599266
166	0x3d852b2c	0.06502375
167	0xbc8023d4	-0.015642084
168	0x3a11b325	0.00055580057
169	0x3d4f017a	0.050538518
170	0x3cce107a	0.025154341
171	0x3af07cbe	0.0018347723
172	0xbc9db99e	-0.019253548
173	0x3d6618a8	0.056175858
174	0xbbf8e9ee	-0.007596246
175	0x3d6b21a4	0.05740513
176	0x3c8f3115	0.017479459
177	0x3d0f7c02	0.035030372
178	0x3c6e4b29	0.014544287
179	0xbc876068	-0.016525462
180	0x3d20a1f6	0.039216958
181	0xbca01e1e	-0.019545611
182	0xbc9ad1d2	-0.018898878
183	0xbc16cb96	-0.009203812
184	0x3d5ee3f9	0.05441663
185	0xbb9c65b1	-0.0047728647
186	0x3d59207f	0.053009506
187	0x3d694557	0.056950893
188	0x3d0385cb	0.032110017
189	0x3c15001d	0.009094265
190	0x3ced85af	0.02899441
191	0x3d49527e	0.049150936
192	0x3c92f4cf	0.017939
193	0xbbea3a62	-0.007148073
194	0xbc889824	-0.016674109
195	0x3c612696	0.01374211
196	0x3d1a9e9a	0.03774891
197	0x3c0f469f	0.008744865
198	0x3d40b28c	0.047045276
199	0x3cb58123	0.022156304
200	0xbaeb8566	-0.0017968833
201	0x3d0181a1	0.031617764
202	0x3cc35e18	0.023848578
203	0x3d763635	0.06011029
204	0x3c8afd65	0.016966531
205	0xbc0daa60	-0.008646578
206	0xbd04f17a	-0.032456852
207	0x3bb5795d	0.0055381493
208	0x3d14b821	0.03630841
209	0x3caedaaa	0.021344502
210	0x3cb45fed	0.022018397
211	0x3d7bf004	0.061508194
212	0x3d23dec7	0.04000738
213	0x3c1af5f3	0.009458053
214	0x3bd99717	0.0066403258
215	0xbd09670b	-0.033545535
216	0x3c48b4dc	0.0122501515
217	0xbbf6e580	-0.0075346828
218	0x3d1f0330	0.0388214
219	0x3d92b1c4	0.07162812
220	0xbc4665d7	-0.012109241
221	0xbc3723e5	-0.0111779915
222	0xbcfaf1af	-0.030632822
223	0x3cfdc224	0.030976363
224	0x3d02a265	0.031893153
225	0xbb0a729a	-0.0021125437
226	0x3d85546e	0.06510244
227	0x3d7f545f	0.062336322
228	0x3d3f7590	0.046742976
229	0x3c678ced	0.01413272
230	0x3d2c31f2	0.04203982
231	0x3d3ec329	0.046572838
232	0x3c8f2516	0.017473739
233	0xbce9768a	-0.028498907
234	0xbd2974d6	-0.04137119
235	0x3ac4371b	0.0014970036
236	0x3b91c1c1	0.004448146
237	0x3d4bae6f	0.0497269
238	0xbcb3b2cd	-0.021935845
239	0xbc9e823b	-0.019349208
240	0xbd114cc1	-0.03547359
241	0x3c3b5bdd	0.011435476
242	0x3da103df	0.078620665
243	0x3bcc8e5e	0.0062425574
244	0x3c52a137	0.012855819
245	0x3cb43ef1	0.022002669
246	0x3d17a820	0.03702557
247	0x3c14f6f0	0.009092078
248	0xbd076762	-0.033057578
249	0x3d5290a9	0.05140749
250	0xbd2cdd12	-0.042203017
251	0x3c35cc08	0.011096008
252	0x3cdf9de2	0.027296964
253	0xbd0619ee	-0.032739572
254	0xbd181606	-0.03713038
255	0x3d243c21	0.040096406

model/base/BiasAdd/ReadVariableOp f4 [128]
0	0x3cc15fb1	0.0236052
1	0x3daef2c1	0.085423954
2	0x3d187e29	0.03722969
3	0x3ca719cc	0.020398043
4	0x3d8d578a	0.069014624
5	0xbcad21cb	-0.021134278
6	0x3db27bfc	0.087150544
7	0x3d142ef6	0.036177598
8	0x3ccbf831	0.02489862
9	0xb9f4dee8	-0.00046705385
10	0x3d8a65db	0.06757709
11	0x3dd1da1a	0.10246678
12	0xbc774930	-0.015093133
13	0x3d3f3ca1	0.04668868
14	0x3d2761df	0.04086482
15	0x3d90bc04	0.07067111
16	0x3af047f1	0.0018331987
17	0x3d005552	0.031331368
18	0xbc0d82da	-0.0086371545
19	0x3d4bfef4	0.04980369
20	0xbd1cb085	-0.03825428
21	0xba8ad3b6	-0.0010591659
22	0x3c9d5763	0.019206708
23	0x3d14cfdc	0.036331043
24	0x3c9c0939	0.019047366
25	0x3cf5ba57	0.02999608
26	0xba56bdf8	-0.00081917597
27	0x3d763fac	0.060119316
28	0x3d93ec7b	0.072228394
29	0x3d9fedc3	0.07809021
30	0x3cd2eb81	0.025747063
31	0x3d753996	0.05986937
32	0x3c8c049f	0.017092047
33	0xbbf2a411	-0.007404812
34	0x3c48b20c	0.012249481
35	0x3beaa986	0.007161322
36	0xbca1ce24	-0.019751616
37	0x3da8bb47	0.08238845
38	0x3d399529	0.045308266
39	0x3d4c298a	0.049844302
40	0x3dee663d	0.11640594
41	0x3ddabe87	0.106808715
42	0x3d4d1451	0.050068203
43	0xbb0800e4	-0.0020752484
44	0xbca8f4af	-0.020624487
45	0x3c9cdc35	0.019147972
46	0xbbcf8e52	-0.0063341046
47	0x3dd3044e	0.103035554
48	0x3c92fda5	0.017943213
49	0x3d76b9c1	0.060235742
50	0xbd7521a3	-0.05984653
51	0x3d2ac931	0.041695777
52	0x3dabebae	0.08394562
53	0x3c44b3b8	0.012005739
54	0x3d9f213b	0.0777001
55	0x3b15e784	0.002287359
56	0x3da6570f	0.08122074
57	0x3da5173c	0.08061072
58	0x3daabcba	0.08336778
59	0x3d6be4d1	0.057591263
60	0x3d386674	0.045019582
61	0x3c9a5f04	0.018844135
62	0x3ca7f4a9	0.020502405
63	0x3defd411	0.1171037
64	0x3cfa5fd8	0.03056328
65	0xbcb912e9	-0.022592025
66	0x3c80c389	0.015718238
67	0x3db816e5	0.08988742
68	0x3a921796	0.0011145945
69	0x3d89b04c	0.06723079
70	0x3d4f25d8	0.0505732
71	0x3daeb6bf	0.0853095
72	0x3cb69278	0.022286639
73	0x3d1633ab	0.03667037
74	0xbcc43dee	-0.023955312
75	0xbb9f1bc3	-0.0048556044
76	0x3d8f16d4	0.06986776
77	0x3d307caa	0.04308764
78	0x3c265784	0.010152701
79	0x3d88ce0d	0.06679926
80	0x3d0f8d9b	0.035047155
81	0x3db3d29a	0.087804034
82	0x3c297141	0.010341943
83	0x3c8d8075	0.017273167
84	0x3c93098a	0.017948885
85	0x3dbc74a6	0.092019364
86	0x3bc8648b	0.0061155013
87	0x3d40dd64	0.047086135
88	0x3d01c300	0.031680107
89	0xbd736255	-0.05941995
90	0xbaf550ad	-0.001871606
91	0x3d71b8d7	0.059014168
92	0x3ca2a1ad	0.019852484
93	0xbd1d72f4	-0.038439706
94	0x3d6f820c	0.05847363
95	0x3d3cac98	0.046063036
96	0x3ad23dfa	0.0016040199
97	0x3d068669	0.032843027
98	0x3be5baa0	0.007010773
99	0x3d6d86d2	0.057989903
100	0x3d3f7384	0.046741024
101	0x3c86ddfa	0.016463269
102	0x3cdd9c0b	0.027051946
103	0x3cb6f7bf	0.022334931
104	0x3d8732b5	0.066014685
105	0xbc6cb531	-0.014447496
106	0x3cec1103	0.028816706
107	0xbbc04ce3	-0.0058685406
108	0x3d909fcf	0.07061731
109	0xbd76cd80	-0.060254574
110	0x3d055de6	0.03256025
111	0x3bc3b33b	0.0059722937
112	0x3dcd992d	0.100389816
113	0x3cbc3eb1	0.022979112
114	0x3d7318df	0.05934989
115	0x3de68e8b	0.11257657
116	0x3d27e3c5	0.040988702
117	0x3d50b6f7	0.05095574
118	0x3d99c163	0.07507589
119	0x3bc961af	0.006145678
120	0xbd2b75ee	-0.041860513
121	0x3d9049b2	0.07045306
122	0x3d3a26e5	0.04544725
123	0x3d4350ad	0.04768436
124	0x3d53c767	0.051703837
125	0x3d0a4819	0.033760164
126	0x3aaa0b4c	0.0012973337
127	0x3cf5bdf6	0.029997807

model/dense/MatMul f4 [256, 15]
0	0xbdb81cfc	-0.08989903
1	0x3baf0bc8	0.0053419806
2	0xbde1f385	-0.11032776
3	0xbdddd94d	-0.108324625
4	0x3dcd4dff	0.10024642
5	0x3dd8c0c5	0.10583643
6	0xbdc00a98	-0.093770206
7	0xbd8b38df	-0.06797957
8	0xbe0f7174	-0.14008123
9	0x3e270ac7	0.16312705
10	0xbe34fa20	-0.1767354
11	0xbab6e09d	-0.0013952438
12	0xbe0a9cfa	-0.13536444
13	0x3d0a76d4	0.03380473
14	0xbd35172a	-0.044211544
15	0x3d8404a9	0.06446201
16	0xbcf1308f	-0.0294421
17	0xbcde09ab	-0.02710422
18	0xbe629294	-0.22126228
19	0x3b74e455	0.0037367542
20	0xbe203c63	-0.15648036
21	0x3e3a202a	0.18176332
22	0x3e05c2ad	0.13062544
23	0xbde7e6ec	-0.11323342
24	0xbe2e4dbc	-0.17021841
25	0x3c45cfa8	0.012073435
26	0xbe5e331b	-0.21699183
27	0x3e1f48ff	0.1555519
28	0xbd8a1c2b	-0.06743654
29	0xb963be52	-0.00021719307
30	0x3bb208ca	0.0054331766
31	0xbe0bcab8	-0.1365155
32	0xbe2b8ba7	-0.16752492
33	0x3e1defc0	0.15423489
34	0x3e3a7342	0.1820803
35	0x3deaef01	0.114713676
36	0x3d096a79	0.033548806
37	0x3bedd3c5	0.007257911
38	0xbd4ab345	-0.04948737
39	0xbd7b3db1	-0.06133813
40	0x3d41f130	0.047349155
41	0xbcd54942	-0.026035909
42	0xbdbba098	-0.0916149
43	0x3b959405	0.0045647644
44	0xbbdf3c2d	-0.0068125934
45	0x3e140592	0.1445525
46	0xbd0b6872	-0.034035154
47	0x3dcd9955	0.100390114
48	0x3dbd46dc	0.09242031
49	0xbd34f419	-0.044178102
50	0x3d21f374	0.039538816
51	0x3ddb1208	0.106967986
52	0xbd189d99	-0.03725967
53	0x3e850de5	0.25987163
54	0xbcf69c33	-0.030103778
55	0x3e5fca4d	0.21854515
56	0x3dbfedcf	0.0937153
57	0x3d2e3883	0.042534363
58	0x3d04a444	0.03238322
59	0x3e1792a2	0.1480203
60	0x3d2e5ee4	0.042570964
61	0x3d9468a3	0.0724652
62	0xbd58e10c	-0.052948996
63	0x3e1a5084	0.15069777
64	0x3e026516	0.12733874
65	0xbd719c8b	-0.05898718
66	0xbe103d1e	-0.14085814
67	0x3d6eee4b	0.058332723
68	0x3de72d0b	0.11287888
69	0xbe34a6d7	-0.1764177
70	0x3d3109d1	0.043222252
71	0xba8da57b	-0.0010806763
72	0x3d8a640e	0.06757365
73	0x3dec8087	0.11547952
74	0x3d9f71d6	0.07785384
75	0xbdc7ee20	-0.097622156
76	0x3df40e2c	0.119167656
77	0x3d7c9e88	0.061674625
78	0x3e3ad1ae	0.18244049
79	0xbe696577	-0.22792612
80	0xbd79a2cb	-0.060946267
81	0xbead5981	-0.3385735
82	0x3e2c959a	0.16853943
83	0x3e068497	0.13136517
84	0xbd31a5e3	-0.043371093
85	0x3c1feb97	0.009760759
86	0xbc9da1fc	-0.01924228
87	0xbd7fa765	-0.0624155
88	0x3d900f94	0.07034221
89	0x3e09e41e	0.13465926
90	0xbde9656a	-0.11396296
91	0xbdb2dd0a	-0.08733566
92	0xbda6b570	-0.08140075
93	0x3d76fcf4	0.06029983
94	0xbde5c6c9	-0.11219556
95	0xbdd7f717	-0.105451755
96	0x3e118a79	0.1421298
97	0x3d651b77	0.055934396
98	0xbe381934	-0.17978364
99	0x3dab5c59	0.08367223
100	0xbe33afb1	-0.1754749
101	0xbdadc986	-0.08485703
102	0xbd036b9a	-0.03208504
103	0x3db45518	0.08805293
104	0xbd6015b8	-0.054708213
105	0xbe64c9bd	-0.22342582
106	0xbe165f75	-0.14684851
107	0x3d368aae	0.04456585
108	0x3e16b2ac	0.14716595
109	0xbd8cd444	-0.06876424
110	0x3da9dd8b	0.08294209
111	0xbd9410fd	-0.07229803
112	0x3c51aca1	0.012797506
113	0xbd809568	-0.06278497
114	0xbdb3b006	-0.08773808
115	0x3d496f12	0.04917819
116	0xbdb311b9	-0.08743615
117	0x3e01da01	0.12680818
118	0xbda3707e	-0.079804406
119	0x3dbac61e	0.09119819
120	0xbe390edf	-0.18072079
121	0x3e0b93b5	0.13630565
122	0x3d9ff4bd	0.07810352
123	0xbc847345	-0.016168246
124	0xbe032298	-0.12806165
125	0x3a85d23d	0.0010209751
126	0xbe8d7c86	-0.27634066
127	0x3e0547ff	0.13015746
128	0x3daf77c2	0.08567764
129	0xbe98b747	-0.2982733
130	0x3d05ba9e	0.032648675
131	0xbe3186e4	-0.17336613
132	0xbdf23203	-0.11825945
133	0x3e03874f	0.12844585
134	0xbe2d0efe	-0.1690025
135	0x3e461454	0.19343692
136	0xbd6e78f3	-0.058220815
137	0xbe1c24e0	-0.15248442
138	0x3e1875f3	0.14888744
139	0x3cc0ab7d	0.023519272
140	0x3d79b448	0.060962945
141	0xbe1cfa30	-0.15329814
142	0x3e3ce460	0.18446493
143	0x3d6f1d0f	0.05837732
144	0x3dee57f3	0.11637869
145	0xbdf42288	-0.11920649
146	0xbdeaf295	-0.1147205
147	0x3e2b4520	0.16725588
148	0x3dc91a01	0.09819413
149	0x3cd3495c	0.025791816
150	0xbddc2401	-0.10749055
151	0xbd7e3e77	-0.06207129
152	0x3e286e85	0.1644841
153	0x3e13f639	0.14449395
154	0x3d2dcc25	0.042431016
155	0x3d98ccf4	0.07460967
156	0x3e150eff	0.14556502
157	0xbdd7c863	-0.105362676
158	0xbe2632c5	-0.16230305
159	0xbdc0d051	-0.09414733
160	0xbd15102d	-0.03639238
161	0x3dd1861f	0.1023066
162	0xbdd2264f	-0.10261213
163	0x3d162012	0.03665168
164	0x3d5b7015	0.053573687
165	0x3d94e4a6	0.07270174
166	0x3d38c0f9	0.045105908
167	0xbdd1dcdb	-0.10247203
168	0x3da645e8	0.08118802
169	0xbc27a5d1	-0.010232405
170	0x3e3a456e	0.18190548
171	0xbc9d7673	-0.01922152
172	0xbd1e07c0	-0.03858161
173	0x3e4a259d	0.19740911
174	0xbdd1463f	-0.102184765
175	0xbd157d98	-0.03649673
176	0x3dcdb816	0.10044877
177	0xbda2bc8b	-0.07946118
178	0xbd2606cf	-0.040533837
179	0x3e16cdfe	0.14727017
180	0xbe09655d	-0.13417573
181	0x3d7e6dd4	0.06211646
182	0xbe0bda73	-0.1365755
183	0x3c685e90	0.014182702
184	0xbc96ff22	-0.018432204
185	0x3c178f8a	0.009250531
186	0x3e844b6a	0.25838786
187	0xbb48b5e4	-0.0030625993
188	0xbc498ed1	-0.0123021165
189	0xbdc07f6d	-0.093993045
190	0x3db739c1	0.089465626
191	0x3c0f399b	0.008741762
192	0xbdf6f34e	-0.120581254
193	0x3d9655ec	0.07340607
194	0xbe5cbc4e	-0.21556208
195	0x3c5e8629	0.013581791
196	0x3dea1aaa	0.11430867
197	0xbe01eb13	-0.1268733
198	0x3e129086	0.14312944
199	0xbe3f022e	-0.18653175
200	0x3d9716f1	0.073774226
201	0xbe371062	-0.17877343
202	0xbe01cb97	-0.1267532
203	0x3dda7958	0.10667676
204	0xbdef4011	-0.116821416
205	0xbd830ea6	-0.06399278
206	0x3dd049d0	0.101703286
207	0x3b12dc30	0.0022409074
208	0xbdd86e8d	-0.10567961
209	0xbe0bfb51	-0.13670088
210	0x3d2a27b6	0.041541778
211	0x3d93fc22	0.07225825
212	0x3df52758	0.11970395
213	0xbd981f93	-0.07427897
214	0xbd2ebb91	-0.042659346
215	0xbda42847	-0.08015495
216	0x3df681dd	0.12036488
217	0xbdf107cf	-0.117690675
218	0xbeb90fe9	-0.3614495
219	0x3dbf61c9	0.09344823
220	0xbe27ebbb	-0.16398518
221	0xbdd404ab	-0.10352453
222	0xbdcee3cb	-0.10102042
223	0xbc87bd48	-0.016569749
224	0xbe07ef99	-0.13274993
225	0x3d16f005	0.036849994
226	0x3d710d61	0.05885065
227	0x3e0869e2	0.13321641
228	0x3c90e69e	0.017688092
229	0xbdd87bee	-0.10570513
230	0xbdfa7eef	-0.12231242
231	0x3d35056c	0.044194624
232	0x3d7e927d	0.06215142
233	0x3d3b859d	0.04578172
234	0xbdaa6692	-0.08320345
235	0x3e0cce1e	0.13750502
236	0xbd76de14	-0.060270384
237	0x3d503dbc	0.050840124
238	0xbe0e44d0	-0.13893437
239	0x3e137f62	0.14404061
240	0x3cc14f66	0.02359743
241	0xbc9098e9	-0.017651038
242	0x3e29ff87	0.16601382
243	0xbded7c0a	-0.11595924
244	0xbe46a156	-0.19397482
245	0x3df98297	0.12183111
246	0x3e9ce97c	0.30646884
247	0xbe1c5f9e	-0.1527085
248	0xbe87beb6	-0.26512688
249	0xbd9f62fa	-0.0778255
250	0xbe131667	-0.14364015
251	0x3c4c9b52	0.012488203
252	0x3e19e5fa	0.15029135
253	0x3de66517	0.1124975
254	0xbda86e71	-0.0822419
255	0xbe0a6b9b	-0.1351761

model/dense_1/MatMul f4 [256, 256]
0	0xbce4f107	-0.027946962
1	0xbdbe42a2	-0.09290053
2	0x3d3c5b06	0.045985244
3	0x3d6173f9	0.05504224
4	0xbdba3cf0	-0.09093654
5	0x3e244510	0.1604197
6	0xbe032367	-0.12806474
7	0x3e3a0f4d	0.181699
8	0x3c1dd7ce	0.009633971
9	0x3d9c9664	0.07645872
10	0xbc9da4c8	-0.019243613
11	0x3d568734	0.052375033
12	0xbdb44f9c	-0.08804247
13	0x3cbb8d5e	0.022894558
14	0xbe0d2bda	-0.1378626
15	0xbdcd4165	-0.10022239
16	0xbdf8b2b5	-0.12143461
17	0x3e0a7049	0.13519396
18	0xbd961fc9	-0.07330281
19	0x3c56f3cd	0.01311965
20	0xbdc08e0b	-0.094020925
21	0xbc7bf1c2	-0.015377464
22	0xbd9d6b62	-0.07686497
23	0x3d49d476	0.049274884
24	0xbda8fe00	-0.08251572
25	0x3be72e0a	0.007055049
26	0xbc38c22a	-0.011276761
27	0xbe7808fb	-0.24222176
28	0xbd995942	-0.07487728
29	0xbe0f84e0	-0.14015532
30	0xbce1c77d	-0.027560944
31	0x3c7867a5	0.0151614295
32	0x3dedefd4	0.11618009
33	0xbdaf2d85	-0.08553604
34	0x3d9500e0	0.072755575
35	0xbc292eff	-0.010326146
36	0x39c2cdbc	0.00037155848
37	0x3dfb0cd9	0.1225831
38	0xbe4e692b	-0.20157306
39	0xbe481613	-0.1953967
40	0xbcd56726	-0.026050162
41	0xbd0909e7	-0.03345671
42	0xbde3bc97	-0.11119955
43	0xbd2f8ea6	-0.04286065
44	0xbd147067	-0.036240008
45	0x3bdb8d3a	0.006700185
46	0x3d878076	0.06616299
47	0xbdf60cda	-0.1201417
48	0xbd8f96f0	-0.07011211
49	0x3ccebfe7	0.02523799
50	0xbd181240	-0.03712678
51	0xbdb23e1b	-0.08703252
52	0x3dfba92c	0.12288126
53	0xbcefbc99	-0.029264735
54	0xbdc04ba1	-0.09389425
55	0x3dbdf565	0.09275321
56	0x39fb2c41	0.00047907422
57	0x3da8444b	0.08216151
58	0xbc6b7a00	-0.014372349
59	0x3d781d7a	0.060574986
60	0x3dc04a3a	0.093891576
61	0xbc20cb7d	-0.00981414
62	0x3d5e2ce3	0.054242026
63	0xbd7523a0	-0.059848428
64	0xbcd58019	-0.026062058
65	0x3e03e709	0.12881102
66	0x3e089f86	0.13342103
67	0x3c44e5c3	0.01201767
68	0xbdbbd4de	-0.091714606
69	0xbd77b4ed	-0.06047528
70	0xbc6dee46	-0.014522141
71	0x3ccd814e	0.025086071
72	0x3de84336	0.113409445
73	0xbd8a484f	-0.06752073
74	0xbd640792	-0.055671282
75	0xbc8d442b	-0.01724442
76	0x3da65ac2	0.081227794
77	0x3d9aa159	0.07550306
78	0x3c0d73e7	0.00863359
79	0xbe12e836	-0.14346394
80	0xbd34d0c1	-0.044144396
81	0x3d4b789c	0.04967557
82	0x3d27c81e	0.04096233
83	0xbe0a3460	-0.13496542
84	0x3d1cad71	0.038251344
85	0x3e1d2821	0.15347339
86	0xbdb37be9	-0.08763868
87	0xbe294d97	-0.16533504
88	0xbc292215	-0.010323067
89	0xbd308061	-0.04309118
90	0xbe6bc88c	-0.23025721
91	0x3b94b960	0.0045387
92	0x3d858e0f	0.06521236
93	0xbde49d00	-0.11162758
94	0x3e034196	0.12817988
95	0x3dc9e30f	0.09857761
96	0x3bfee093	0.007778236
97	0x3db5ce0b	0.0887719
98	0xbcc772b6	-0.02434669
99	0x3c0890b9	0.008335286
100	0xbdc5f5cc	-0.09666023
101	0x3d65da9f	0.056116696
102	0xbe317caa	-0.17332712
103	0x3da9480c	0.08265695
104	0x3dc85a15	0.09782807
105	0xbd1ede50	-0.038786232
106	0xbd16f0fd	-0.036850918
107	0xbb886a03	-0.004163028
108	0x3d4da152	0.050202675
109	0xbc883fd5	-0.016632
110	0x3df445ec	0.11927399
111	0x3cf832d9	0.030297684
112	0x3d84c43d	0.06482742
113	0x3d25ec9a	0.040508844
114	0xbdba38c8	-0.090928614
115	0x3d1423c3	0.036166918
116	0xbc36e72b	-0.011163513
117	0x3e07a311	0.13245799
118	0xbdd80ed2	-0.10549702
119	0xbce159a9	-0.027508574
120	0xbd90140d	-0.070350744
121	0xbd9f5551	-0.07779945
122	0x3d91ca51	0.07118667
123	0xbd39ce4f	-0.045362767
124	0xbdac36b0	-0.08408868
125	0x3c4292a1	0.011875779
126	0x3d5cc901	0.05390263
127	0xbd8e222e	-0.06940113
128	0xbd5f49cf	-0.05451375
129	0x3e0faa24	0.14029747
130	0x3d3e0f55	0.04640134
131	0x3d88e9c4	0.06685212
132	0xbe45e90f	-0.19327186
133	0xbdc8aa55	-0.09798113
134	0x3dabcf92	0.083892
135	0x3dae56d5	0.08512656
136	0xbddc9b7a	-0.10771842
137	0x3df3fb1a	0.11913128
138	0x3d45066e	0.048101835
139	0xbdddf2f9	-0.10837359
140	0xbd82e0da	-0.06390543
141	0x3d06023a	0.032716967
142	0xbb207940	-0.0024486333
143	0xbd87f040	-0.06637621
144	0x3dd71798	0.10502547
145	0x3d82edb5	0.06392995
146	0xbc51057e	-0.012757657
147	0xbe300bac	-0.17191952
148	0x3dbff499	0.09372825
149	0x3e5634ce	0.20918581
150	0x3d4e2c9a	0.050335504
151	0xbe2207fd	-0.1582336
152	0xbcb59ff0	-0.02217099
153	0xbabcdc9c	-0.0014409008
154	0xbe043725	-0.12911661
155	0x3da0c9d0	0.07850993
156	0x3d4619d2	0.048364468
157	0xbd81a8f9	-0.06331057
158	0x3c5e493e	0.013567267
159	0x3dad9e7a	0.08477493
160	0x3e0c7dad	0.13719817
161	0xbdd70acc	-0.10500106
162	0xbd11dbe6	-0.035610102
163	0x3d705767	0.058677103
164	0xbd35bc76	-0.044369183
165	0x3e145982	0.1448727
166	0xbd8af712	-0.06785406
167	0x3ce25ad4	0.0276312
168	0xbd981631	-0.07426108
169	0x3d86106d	0.06546102
170	0x3d3f636a	0.046725668
171	0x3dc338b2	0.09532298
172	0x3d071c42	0.032985933
173	0x3ce71520	0.028208315
174	0x3da13183	0.07870772
175	0xbdb3537b	-0.08756157
176	0x3c891fe5	0.016738841
177	0xbdcd4e66	-0.10024719
178	0x3d1b1d8d	0.03786998
179	0xbc7a2113	-0.015266675
180	0xbd84f606	-0.06492238
181	0x3dd217f8	0.10258478
182	0xbdaf6fd9	-0.08566255
183	0x3d75f280	0.06004572
184	0xbe855e55	-0.26048532
185	0xbe259290	-0.1616919
186	0x3d905a19	0.07048435
187	0xbcfe83bd	-0.031068677
188	0xbb14cc0a	-0.0022704625
189	0xbe00530d	-0.12531681
190	0x3da7bdd2	0.08190502
191	0x3ce3a673	0.02778933
192	0xbdea4a0f	-0.11439907
193	0x3bbd6bcd	0.005780673
194	0xbd893dcb	-0.06701239
195	0x3db8f70c	0.090314955
196	0xbd34525b	-0.044023853
197	0x3c25530d	0.010090602
198	0xbdac129a	-0.084019855
199	0x3cc97bcb	0.024595162
200	0xbcec1dd8	-0.028822824
201	0x3dc10b5c	0.09425995
202	0xbe30a4e1	-0.17250396
203	0x3e03cef6	0.12871918
204	0xbbe44294	-0.0069659445
205	0xbe8ec920	-0.2788782
206	0x3d63db3e	0.055629008
207	0x3d0e294d	0.034707356
208	0x3d776a50	0.060404122
209	0xbd261ca1	-0.040554646
210	0x3d4bf1be	0.04979109
211	0x3d409780	0.04701948
212	0xbc85cd4c	-0.016333245
213	0x3dcc187c	0.099656075
214	0xbd2fd062	-0.04292334
215	0xbd5c87ae	-0.05384033
216	0xbe204d40	-0.15654469
217	0x3c93039f	0.017946063
218	0xbda1bc8c	-0.078972906
219	0xbd89c1a0	-0.06726384
220	0xbda3c1fa	-0.079959825
221	0xbe143dc4	-0.14476687
222	0x3d9d0dc5	0.07668642
223	0x3e06ac4c	0.13151664
224	0xbd9f35c0	-0.07773924
225	0xbd7eb905	-0.062188167
226	0x3c542e2e	0.012950463
227	0x3d456fcb	0.048202317
228	0x3b5bc3f2	0.003353354
229	0x3cbd1528	0.023081377
230	0xbe126cf2	-0.14299372
231	0x3c85d9ac	0.016339146
232	0x3d8a7839	0.06761212
233	0xbdc12ca9	-0.094323464
234	0x3e06f8d8	0.13180864
235	0x3d4d1860	0.050072074
236	0x3d6def93	0.058089804
237	0xbd964fd0	-0.07339442
238	0x3d328a55	0.043588955
239	0x3aa09877	0.0012252469
240	0xbd33aa54	-0.04386361
241	0xbd54eb1e	-0.051982038
242	0xbc411fe5	-0.011787389
243	0xbe02604b	-0.12732045
244	0xbdba9612	-0.09110655
245	0x3de619ab	0.112353645
246	0xbda95e8c	-0.082699865
247	0x3d56ed7d	0.05247258
248	0xbda1fa2b	-0.07909044
249	0xbe16467c	-0.14675325
250	0xbdeeb9f1	-0.11656559
251	0x3d88a691	0.06672395
252	0x3c95d5a7	0.018290354
253	0xbd237dd7	-0.039914932
254	0x3db7880d	0.089614965
255	0x3dafe9cd	0.08589516

model/dense_2/MatMul f4 [128, 256]
0	0x3dcdfa5e	0.100575194
1	0x3e1ced78	0.15324962
2	0x3c8081b9	0.015686857
3	0x3d3f6353	0.046725582
4	0xbca01da3	-0.019545382
5	0x3d162ca5	0.03666367
6	0x3dcdcd17	0.100488834
7	0x3d8b3c1d	0.06798575
8	0x3d3bf412	0.04588706
9	0x3e7d3815	0.24728425
10	0x3e21f003	0.15814213
11	0x3e32657e	0.17421529
12	0x3dd95a7c	0.10612962
13	0x3d2ec701	0.042670254
14	0xbdaee77c	-0.08540246
15	0xbe09c0d7	-0.13452469
16	0xbda7acdf	-0.081872694
17	0xbd8573ff	-0.06516265
18	0xbc2b5220	-0.010456592
19	0x3e142416	0.1446689
20	0xbd3d4821	-0.046211366
21	0x3e0ed37c	0.13947862
22	0xbd9a738a	-0.075415686
23	0x3df41c11	0.11919416
24	0xbd9a294b	-0.07527407
25	0xbda3c7c7	-0.07997089
26	0xbc67d88d	-0.014150751
27	0xbd183f0c	-0.0371695
28	0xbd8c54fc	-0.06852147
29	0xbdb6b671	-0.08921517
30	0x3d62703d	0.05528282
31	0xbd199578	-0.03749606
32	0xbdd750b3	-0.10513439
33	0x3d9dc391	0.07703317
34	0xbd5033e2	-0.05083073
35	0x3e1fa7c5	0.15591343
36	0x3cc86566	0.024462413
37	0x3d206894	0.039162233
38	0xbe239b59	-0.15977229
39	0x3e2a531f	0.1663327
40	0x3d9b8fc5	0.07595781
41	0x3d89c35d	0.06726716
42	0xbe5c0653	-0.21486787
43	0x3d7102f9	0.058840726
44	0xbe31f090	-0.17376924
45	0xbda4feed	-0.08056436
46	0xbcc5c0ae	-0.024139728
47	0x3cbea531	0.023272129
48	0x3dc9f367	0.098608784
49	0xbd50222a	-0.05081383
50	0xbe830786	-0.25591677
51	0xbdb03d39	-0.08605427
52	0xbd02ec81	-0.03196383
53	0x3e05d726	0.13070354
54	0x3e10fece	0.141597
55	0x3d237694	0.039908007
56	0xbdb0b539	-0.086283155
57	0x3da84352	0.08215965
58	0x3e0ed85d	0.13949724
59	0xbeaba6b8	-0.33525634
60	0xbe0e1fa5	-0.13879259
61	0xbc75092a	-0.014955798
62	0xbc9fb2aa	-0.019494373
63	0xbd2275c9	-0.03966311
64	0x3dd4d39b	0.10391923
65	0x3d03bae6	0.032160662
66	0x3b548bf1	0.0032432044
67	0x3dc7203d	0.09722946
68	0xbe24ff8d	-0.1611311
69	0xbc914404	-0.017732628
70	0xbe4b3311	-0.19843699
71	0xbd9d49d5	-0.07680098
72	0xbdebb924	-0.11509922
73	0xbe408d62	-0.18803933
74	0xbd05003e	-0.032470934
75	0xbe163dc3	-0.14671998
76	0xbd8c5bf0	-0.06853473
77	0x3d4d6565	0.050145525
78	0x3c971f0d	0.018447423
79	0x3bb1e698	0.0054291002
80	0x3c44c956	0.012010893
81	0x3df72b15	0.12068764
82	0xbe6fb975	-0.2341059
83	0xbd48596b	-0.0489134
84	0xbc220b8e	-0.00989045
85	0x3e18523a	0.14875117
86	0xbd3e0a51	-0.046396557
87	0x3d7b32c4	0.06132771
88	0x3dd988cd	0.10621796
89	0x3dbf956c	0.09354672
90	0x3d20e7b3	0.039283466
91	0xbe484b8b	-0.19560067
92	0x3d30bc63	0.04314841
93	0xbe170b93	-0.14750509
94	0xbab15aec	-0.0013531125
95	0x3cc62ced	0.024191344
96	0xbdb85a42	-0.0900159
97	0xbe58beee	-0.21166584
98	0x3d2dd315	0.04243763
99	0x3d279a43	0.0409186
100	0x3d3415e4	0.04396619
101	0xbda519af	-0.080615394
102	0xbda22818	-0.079178035
103	0x3dfaec31	0.12252081
104	0xbd75ffff	-0.06005859
105	0xbde8c7d0	-0.11366236
106	0xbd71ca9d	-0.059031118
107	0x3dd80f93	0.105498455
108	0x3c272df3	0.010203826
109	0xbc4a707e	-0.012355922
110	0x3b51b1ae	0.0031996774
111	0x3d913c60	0.07091594
112	0x3dca50bc	0.0987868
113	0xbdb2832c	-0.08716425
114	0x3da07006	0.07833867
115	0x3c718857	0.014741979
116	0x3dcce6f9	0.10004992
117	0xbdfd0252	-0.12353958
118	0xbdfc7767	-0.12327462
119	0x3d8c0cac	0.068383545
120	0x3e18eba7	0.14933644
121	0x3e026d8b	0.127371
122	0x3e2977aa	0.16549554
123	0x3db21097	0.086945705
124	0x3d7178bf	0.058953043
125	0x3e5f35bc	0.21797842
126	0x3c425ced	0.011862976
127	0x3e1c9e5f	0.15294789
128	0xbe9b2311	-0.3030019
129	0xbc2039ee	-0.0097794365
130	0xbd800aa8	-0.062520325
131	0x3b940aa0	0.004517868
132	0x3e11ad9a	0.1422638
133	0x3db13f15	0.0865461
134	0x3e18e486	0.14930925
135	0xbd49eb03	-0.04929639
136	0x3d4ada9a	0.04952488
137	0x3d5bbb00	0.053645134
138	0x3c98eb1a	0.018666793
139	0xbc82e67f	-0.01597905
140	0xbd51a148	-0.0511792
141	0x3c770352	0.015076475
142	0x3e04e6a7	0.12978612
143	0x3d38dde4	0.045133486
144	0x3c392be7	0.011301971
145	0x3e1a7536	0.15083775
146	0x3d46bab5	0.0485179
147	0xbe02e0db	-0.12781088
148	0x3cb50aff	0.02209997
149	0x3db2bf74	0.08727923
150	0xbda40b32	-0.08009948
151	0xbdee8978	-0.11647314
152	0x3d47410a	0.04864601
153	0xbdeb47c6	-0.11488299
154	0xbdcabd0f	-0.09899341
155	0xbe119929	-0.14218582
156	0x3c87fbc5	0.016599545
157	0xbbc1d2ee	-0.0059150374
158	0x3e141294	0.14460212
159	0x3da07070	0.07833946
160	0xbd29cb2c	-0.041453525
161	0x3e723b27	0.23655377
162	0xbd682789	-0.05667833
163	0xbc9a74cc	-0.018854521
164	0xbdd1cdbf	-0.10244321
165	0xbe2fdd8e	-0.1717436
166	0x3c65bd0a	0.014022121
167	0xbcf5fa7e	-0.03002667
168	0x3e71d4c6	0.23616323
169	0x3d6c20d4	0.057648495
170	0x3d9babfa	0.07601161
171	0x3de7473e	0.11292885
172	0xbce7f9f8	-0.028317437
173	0xbe0a4c1a	-0.13505593
174	0x3e1a3c7f	0.1506214
175	0x3866696f	5.4934466e-05
176	0x3dc042e8	0.09387761
177	0xbcdd808f	-0.02703884
178	0xbd500985	-0.05079033
179	0xbbb3195b	-0.005465669
180	0xbe3a2e82	-0.18181804
181	0xbd8757f0	-0.066085696
182	0xbd073ae8	-0.03301516
183	0x3dce80a9	0.10083134
184	0xbbd9c7f9	-0.006646153
185	0x3caf596e	0.021404948
186	0xbd3d039c	-0.04614602
187	0x3dd90851	0.10597289
188	0x3d8fffaf	0.0703119
189	0xbce4bb0e	-0.027921226
190	0xbc47fa56	-0.012205681
191	0x3e0d5bf0	0.13804603
192	0x3da423c0	0.08014631
193	0x3e5982bf	0.21241282
194	0x3dca4801	0.09877015
195	0x3d93d9e0	0.07219291
196	0x3c33e1d0	0.010979131
197	0x3d295c11	0.041347567
198	0xbd7999a5	-0.060937542
199	0x3cf8f6e5	0.030391166
200	0xbd167940	-0.036736727
201	0xbb907848	-0.00440887
202	0xbc8dd405	-0.017313013
203	0x3ce6488a	0.028110761
204	0x3e469f2e	0.1939666
205	0xbdf81f28	-0.121153176
206	0xbd9fcef0	-0.07803142
207	0x3d88e18d	0.066836454
208	0xbb53d978	-0.0032325666
209	0x3d8cc1b6	0.06872885
210	0xbdfed4b5	-0.124429144
211	0xbceae22b	-0.028672298
212	0x3db2afde	0.0872495
213	0x3e20f276	0.15717492
214	0xbe0a9b27	-0.13535748
215	0xbd4a5285	-0.049395103
216	0xbd21e716	-0.03952702
217	0xbd0690c3	-0.0328529
218	0xbdd574f3	-0.10422697
219	0xbd348fbb	-0.044082385
220	0x3c93c6dd	0.018039161
221	0xbc0ba45f	-0.008523076
222	0x3e288489	0.16456808
223	0xbde0e69f	-0.109814875
224	0xbde00172	-0.10937776
225	0x3e0f98d6	0.14023146
226	0x3d896813	0.06709304
227	0xbd3ce84c	-0.046119973
228	0x3e09f5a6	0.13472614
229	0xbda52280	-0.08063221
230	0xbdf0387f	-0.11729526
231	0x3de867c6	0.11347918
232	0xbcd9c113	-0.026581323
233	0xbca9a764	-0.0207097
234	0xbce9cf9f	-0.028541384
235	0x3d703fd9	0.05865464
236	0xbda7acbd	-0.08187244
237	0x3de7e5cc	0.11323127
238	0x3d6c2f68	0.057662398
239	0xbd6601b7	-0.05615398
240	0x3e1b03db	0.1513819
241	0xbe3d3978	-0.18478954
242	0xbe90204b	-0.28149638
243	0xbe45031b	-0.19239466
244	0x3dc6e4f5	0.09711639
245	0x3d86b387	0.06577211
246	0xb9e82349	-0.00044276778
247	0x3bb7d601	0.005610228
248	0xbbc2d529	-0.005945821
249	0x3daad319	0.08341045
250	0x3d33fc7c	0.04394196
251	0x3c737f02	0.014861824
252	0xbe5b1318	-0.21394002
253	0x3c07f89c	0.008299019
254	0xbd8dcd1e	-0.069238886
255	0xbdc94a23	-0.098285936

model/base/MatMul f4 [128, 128]
0	0xbb88b93c	-0.0041724723
1	0x3d775ad0	0.06038934
2	0xbe8b7eb1	-0.27245095
3	0x3d9de084	0.077088386
4	0xbc917d35	-0.017759899
5	0x3e587094	0.21136695
6	0x3c2a158a	0.010381112
7	0xbd090623	-0.033453118
8	0x3de355ce	0.1110035
9	0xbe2b35ed	-0.1671979
10	0x3e1f285b	0.15542738
11	0xbdeb3e0f	-0.11486446
12	0xbc716d71	-0.0147355655
13	0xbdf231bf	-0.118258946
14	0xbd457725	-0.04820933
15	0x3e8c7973	0.27436408
16	0x3da0b9ae	0.078479156
17	0xbc7c42b2	-0.015396761
18	0x3da54a80	0.0807085
19	0x3d8633df	0.065528624
20	0xbe032566	-0.12807235
21	0x3cac0029	0.02099617
22	0x3e4ea9bb	0.20181935
23	0x3d115457	0.035480823
24	0xbdfdf26e	-0.123997554
25	0xbe295e22	-0.16539815
26	0x3dfe6472	0.12421502
27	0xbd09f99f	-0.033685323
28	0xbd871aef	-0.06596934
29	0xbc437759	-0.01193031
30	0xbcec0f9b	-0.028816035
31	0x3da3ad29	0.07992012
32	0xbdbe2722	-0.09284808
33	0xbd2d77ac	-0.042350456
34	0x3d8f05d4	0.069835335
35	0xbcb2e4b7	-0.021837575
36	0xbe9c6bb6	-0.30550927
37	0xbdc5dd25	-0.096613206
38	0xbd8cca70	-0.068745494
39	0xbd07ab42	-0.03312231
40	0xbdf91aef	-0.1216334
41	0x3e3b4774	0.18288976
42	0x3e3b7dc8	0.183097
43	0x3cbd88d3	0.023136532
44	0xbcbd4e91	-0.023108752
45	0x3e544d88	0.20732701
46	0xbdcd10f1	-0.10012997
47	0x3cb973ee	0.022638287
48	0xbc5e8b34	-0.013582993
49	0xbd631abc	-0.055445418
50	0x3cefc565	0.02926893
51	0x3d5c3b62	0.05376757
52	0x3e0313e8	0.12800562
53	0x3e11cc1a	0.14238015
54	0x3d626c5f	0.055279132
55	0xbadfa984	-0.0017064069
56	0x3adfdedb	0.0017079966
57	0x3e1febf0	0.15617347
58	0x3d3a5893	0.045494627
59	0x3e3904cd	0.18068238
60	0x3e32972a	0.17440477
61	0x3d502276	0.050814115
62	0x3c40bc26	0.011763608
63	0x3cc23f2f	0.023711769
64	0xbdbe3d8b	-0.09289082
65	0xbc4dfb96	-0.01257219
66	0xbd12ed31	-0.035870735
67	0xbd6ef8ef	-0.05834287
68	0xbe2a9900	-0.16659927
69	0x3e325a66	0.17417297
70	0xbd8ea98a	-0.06965931
71	0xbdfec8b8	-0.12440628
72	0x3d9da3ad	0.07697234
73	0xbc2a9336	-0.010411074
74	0xbe0635ee	-0.1310651
75	0x3bfb1b3f	0.00766316
76	0x3e4e1f43	0.20129113
77	0xbe5aa266	-0.21351013
78	0xbd033b97	-0.03203925
79	0xbd6b7db2	-0.05749292
80	0xbd8ad5e6	-0.06779079
81	0x3e471983	0.19443326
82	0xbcb35ab1	-0.021893831
83	0x3e485d0d	0.19566746
84	0x3dce0bd3	0.10060849
85	0xbdf1dd7b	-0.11809822
86	0xbded6d22	-0.11593081
87	0x3d9c8919	0.07643337
88	0x3e019d1a	0.12657586
89	0x3e08e3aa	0.13368097
90	0x3e785dc9	0.24254526
91	0x3e271668	0.16317141
92	0xbe22387f	-0.15841864
93	0xbd8cc161	-0.068728216
94	0xbab77fbe	-0.0013999862
95	0xbc9f48ee	-0.019443955
96	0xbdafb847	-0.0858007
97	0x3da22f24	0.079191476
98	0x3db5254f	0.08845007
99	0x3c06ca2d	0.008226913
100	0xbe07ae59	-0.13250102
101	0xbdf3221d	-0.11871741
102	0x3e0a4f81	0.13506891
103	0xbe24871d	-0.16067167
104	0x3d6d1510	0.057881415
105	0x3e216bcb	0.15763776
106	0x3d542dd8	0.051801533
107	0xbe56d6bc	-0.20980352
108	0x3dc8d505	0.09806255
109	0xbe0dfaf4	-0.13865262
110	0xbe268653	-0.16262178
111	0x3e5a503f	0.21319674
112	0x3c84410b	0.016144296
113	0x3ca2d1fa	0.019875515
114	0xbe1b9e0c	-0.15197009
115	0xbdbec483	-0.093148254
116	0x3e359561	0.17732765
117	0x3e4f6497	0.20253216
118	0xbd16182a	-0.03664414
119	0xbdbc17b3	-0.09184208
120	0xbdf855cc	-0.121257395
121	0x3c402c3a	0.011729294
122	0x3bcd6dc0	0.0062691867
123	0xbd8ae3f1	-0.067817576
124	0xbb7e1669	-0.0038770682
125	0x3ad20c80	0.0016025454
126	0xbcdf7210	-0.027276069
127	0xbe04ae1a	-0.1295704
128	0xbd41117d	-0.04713582
129	0xbc17e4b7	-0.009270838
130	0xbdcbe5dd	-0.09955952
131	0xbd0eb910	-0.034844458
132	0x3e26529a	0.16242447
133	0xbdf4523a	-0.11929746
134	0xbe18f249	-0.14936174
135	0xbde7232f	-0.112860076
136	0xbd51360d	-0.051076937
137	0xbe98f344	-0.29873097
138	0x3d6795f9	0.05653951
139	0x3d884200	0.066532135
140	0x3db3288d	0.08747969
141	0x3ddabc53	0.10680451
142	0x3e89a137	0.2688081
143	0x3c336a51	0.010950641
144	0x3dcf8b7c	0.101340264
145	0x3dc4058b	0.0957137
146	0x3d6a8bde	0.057262294
147	0xbd9bb4c0	-0.07602835
148	0xbe8a7b93	-0.27047405
149	0x3e99618f	0.29957244
150	0x3beadeff	0.0071676965
151	0xbe2b6651	-0.1673825
152	0xbd3c74c7	-0.046009805
153	0x3ca00dc4	0.019537814
154	0x3e343bfd	0.17601009
155	0xbdf4a74f	-0.11945974
156	0x3e0fc832	0.14041212
157	0x3dc065eb	0.09394439
158	0xbcd0bc3c	-0.025480382
159	0xbc3df815	-0.011594792
160	0x3d39468d	0.045233298
161	0x3dce90e6	0.10086231
162	0x3daf6516	0.085642025
163	0x3e737863	0.23776393
164	0xbe73f563	-0.23824076
165	0xbda55254	-0.080723435
166	0xbd26dee0	-0.040739894
167	0xbd856d86	-0.065150306
168	0x3c466786	0.012109643
169	0x3e888f6a	0.26671916
170	0x3e845e5d	0.25853243
171	0x3e18fd2b	0.14940326
172	0xbdfbceb4	-0.12295285
173	0xbd3e7669	-0.046499643
174	0xbdda24e2	-0.10651566
175	0x3e0f9e1b	0.14025156
176	0xbd71c9fe	-0.059030525
177	0xbdc88732	-0.097914115
178	0xbd570fff	-0.05250549
179	0x3e25c834	0.16189653
180	0x3ea1bb7a	0.31588346
181	0x3e128051	0.14306761
182	0x3dd80ffc	0.10549924
183	0x3e2dae0c	0.16960925
184	0xbdb8a2b3	-0.090154074
185	0xbdb19083	-0.086701415
186	0x3e2488ba	0.16067782
187	0x3dbf0b07	0.09328275
188	0x3e0dc23e	0.13843629
189	0xbdc4b0eb	-0.09604057
190	0x3d06fc54	0.032955483
191	0x3e97c08f	0.29639098
192	0xbdc8e23d	-0.098087765
193	0x3d83766e	0.06419073
194	0x3cc29465	0.0237524
195	0x3deba22e	0.11505543
196	0xbe24824a	-0.16065326
197	0x3d0c27a5	0.034217495
198	0xbd3c439b	-0.04596291
199	0xbd811856	-0.0630347
200	0x3df05572	0.117350474
201	0xbdf67d16	-0.12035577
202	0x3df90209	0.12158591
203	0x3dbf0a21	0.09328104
204	0x3d1c592b	0.038170975
205	0xbdba8a3e	-0.09108399
206	0xbcba85a2	-0.0227688
207	0x3df0db6d	0.11760602
208	0xbdc8e0ad	-0.098084785
209	0xbdc31f17	-0.09527414
210	0xbc411f8a	-0.011787305
211	0x3e2d0eb4	0.1690014
212	0x3e2cb926	0.16867504
213	0xbe3f9fea	-0.18713346
214	0xbdffa807	-0.124832205
215	0xbd122ed1	-0.03568918
216	0x3e6c080e	0.23049948
217	0x3c018f91	0.007907764
218	0x3d555de9	0.052091513
219	0x3e827b14	0.25484526
220	0x3e5e3e4c	0.21703452
221	0xbe0120e0	-0.12610197
222	0x3e4f5797	0.20248257
223	0x3dc61870	0.0967263
224	0xbe17f24b	-0.14838521
225	0xbd75a4a4	-0.059971467
226	0x3dd244fc	0.10267064
227	0xbe4429e0	-0.19156599
228	0xbe6eda8a	-0.23325554
229	0xbcb735f9	-0.022364603
230	0x3ca53e6d	0.020171368
231	0xbe15f6c6	-0.14644918
232	0x3db0c9ff	0.08632278
233	0x3d6ec01f	0.05828869
234	0x3ec2afc9	0.38024738
235	0x3e2211d7	0.15827118
236	0x3e03087f	0.1279621
237	0xbe672e46	-0.22576246
238	0xbe20fdf1	-0.15721871
239	0xbe326563	-0.17421488
240	0x3cf35a51	0.029706152
241	0x3dba4426	0.090950295
242	0xbd3982f8	-0.045290917
243	0xbc395fd2	-0.011314349
244	0xba8d1740	-0.0010764375
245	0x3e8c9945	0.27460685
246	0x3e2efaf2	0.17087916
247	0x3e493e7c	0.19652742
248	0xbdcaa35f	-0.09894442
249	0xbc08af93	-0.008342641
250	0x3d4f8873	0.050667237
251	0x3e1fab6a	0.15592733
252	0x3d6d4a43	0.05793215
253	0xbe0e4118	-0.13892019
254	0x3e5b8d01	0.21440507
255	0xbe71df51	-0.23620345
